…
I1111 07:02:10.461791 46923 solver.cpp:92] Creating training net from train_net file: adv_train.prototxt
I1111 07:02:10.464262 46923 net.cpp:53] Initializing net from parameters: 
state {
  phase: TRAIN
}
layer {
  name: "data1"
  type: "Python"
  top: "data1"
  top: "label"
  top: "fakelabel"
  python_param {
    module: "adv_mapillary_layer"
    layer: "MapillaryLayer"
    param_str: "{\'img_dir\': \'/l/vision/v5/chen478/Fall2018/mapillary/training/images/\', \'label_dir\': \'/l/vision/v5/chen478/Fall2018/fcn.mapillary/results/seg_res_train/\', \'seed\': 1337, \'mean\': (71.60167789, 82.09696889, 72.30608881)}"
  }
}
layer {
  name: "conv1"
  type: "Convolution"
  bottom: "data1"
  top: "conv1"
  convolution_param {
    num_output: 64
    pad: 0
    kernel_size: 3
    stride: 2
    weight_filler {
      type: "xavier"
    }
  }
}
layer {
  name: "bn1"
  type: "BatchNorm"
  bottom: "conv1"
  top: "bn1"
  batch_norm_param {
    use_global_stats: false
  }
}
layer {
  name: "scale1"
  type: "Scale"
  bottom: "bn1"
  top: "bn1"
  scale_param {
    bias_term: true
  }
}
layer {
  name: "relu1"
  type: "ReLU"
  bottom: "bn1"
  top: "bn1"
}
layer {
  name: "conv2"
  type: "Convolution"
  bottom: "bn1"
  top: "conv2"
  convolution_param {
    num_output: 128
    pad: 0
    kernel_size: 5
    stride: 2
    weight_filler {
      type: "xavier"
    }
  }
}
layer {
  name: "bn2"
  type: "BatchNorm"
  bottom: "conv2"
  top: "bn2"
  batch_norm_param {
    use_global_stats: false
  }
}
layer {
  name: "scale2"
  type: "Scale"
  bottom: "bn2"
  top: "bn2"
  scale_param {
    bias_term: true
  }
}
layer {
  name: "relu2"
  type: "ReLU"
  bottom: "bn2"
  top: "bn2"
}
layer {
  name: "conv3"
  type: "Convolution"
  bottom: "bn2"
  top: "conv3"
  convolution_param {
    num_output: 256
    pad: 0
    kernel_size: 5
    stride: 2
    weight_filler {
      type: "xavier"
    }
  }
}
layer {
  name: "bn3"
  type: "BatchNorm"
  bottom: "conv3"
  top: "bn3"
  batch_norm_param {
    use_global_stats: false
  }
}
layer {
  name: "scale3"
  type: "Scale"
  bottom: "bn3"
  top: "bn3"
  scale_param {
    bias_term: true
  }
}
layer {
  name: "relu3"
  type: "ReLU"
  bottom: "bn3"
  top: "bn3"
}
layer {
  name: "conv4"
  type: "Convolution"
  bottom: "bn3"
  top: "conv4"
  convolution_param {
    num_output: 512
    pad: 0
    kernel_size: 3
    stride: 1
    weight_filler {
      type: "xavier"
    }
  }
}
layer {
  name: "bn4"
  type: "BatchNorm"
  bottom: "conv4"
  top: "bn4"
  batch_norm_param {
    use_global_stats: false
  }
}
layer {
  name: "scale4"
  type: "Scale"
  bottom: "bn4"
  top: "bn4"
  scale_param {
    bias_term: true
  }
}
layer {
  name: "relu4"
  type: "ReLU"
  bottom: "bn4"
  top: "bn4"
}
layer {
  name: "embed_conv2"
  type: "Deconvolution"
  bottom: "bn4"
  top: "embed_conv2"
  convolution_param {
    num_output: 256
    pad: 0
    kernel_size: 3
    stride: 1
    weight_filler {
      type: "xavier"
    }
  }
}
layer {
  name: "embed_bn2"
  type: "BatchNorm"
  bottom: "embed_conv2"
  top: "embed_bn2"
  batch_norm_param {
    use_global_stats: false
  }
}
layer {
  name: "embed_scale2"
  type: "Scale"
  bottom: "embed_bn2"
  top: "embed_bn2"
  scale_param {
    bias_term: true
  }
}
layer {
  name: "embed_relu2"
  type: "ReLU"
  bottom: "embed_bn2"
  top: "embed_bn2"
}
layer {
  name: "concat1"
  type: "Concat"
  bottom: "bn3"
  bottom: "embed_bn2"
  top: "concat1"
  concat_param {
    axis: 1
  }
}
layer {
  name: "embed_conv3"
  type: "Deconvolution"
  bottom: "concat1"
  top: "embed_conv3"
  convolution_param {
    num_output: 128
    pad: 0
    kernel_size: 6
    stride: 2
    weight_filler {
      type: "xavier"
    }
  }
}
layer {
  name: "embed_bn3"
  type: "BatchNorm"
  bottom: "embed_conv3"
  top: "embed_bn3"
  batch_norm_param {
    use_global_stats: false
  }
}
layer {
  name: "embed_scale3"
  type: "Scale"
  bottom: "embed_bn3"
  top: "embed_bn3"
  scale_param {
    bias_term: true
  }
}
layer {
  name: "embed_relu3"
  type: "ReLU"
  bottom: "embed_bn3"
  top: "embed_bn3"
}
layer {
  name: "concat2"
  type: "Concat"
  bottom: "bn2"
  bottom: "embed_bn3"
  top: "concat2"
  concat_param {
    axis: 1
  }
}
layer {
  name: "embed_conv4"
  type: "Deconvolution"
  bottom: "concat2"
  top: "embed_conv4"
  convolution_param {
    num_output: 64
    pad: 0
    kernel_size: 5
    stride: 2
    weight_filler {
      type: "xavier"
    }
  }
}
layer {
  name: "embed_bn4"
  type: "BatchNorm"
  bottom: "embed_conv4"
  top: "embed_bn4"
  batch_norm_param {
    use_global_stats: false
  }
}
layer {
  name: "embed_scale4"
  type: "Scale"
  bottom: "embed_bn4"
  top: "embed_bn4"
  scale_param {
    bias_term: true
  }
}
layer {
  name: "embed_relu4"
  type: "ReLU"
  bottom: "embed_bn4"
  top: "embed_bn4"
}
layer {
  name: "concat3"
  type: "Concat"
  bottom: "bn1"
  bottom: "embed_bn4"
  top: "concat3"
  concat_param {
    axis: 1
  }
}
layer {
  name: "seg"
  type: "Deconvolution"
  bottom: "concat3"
  top: "seg"
  convolution_param {
    num_output: 19
    pad: 0
    kernel_size: 4
    stride: 2
    weight_filler {
      type: "xavier"
    }
  }
}
layer {
  name: "seg_bn"
  type: "BatchNorm"
  bottom: "seg"
  top: "seg_bn"
  batch_norm_param {
    use_global_stats: false
  }
}
layer {
  name: "seg_scale"
  type: "Scale"
  bottom: "seg_bn"
  top: "seg_bn"
  scale_param {
    bias_term: true
  }
}
layer {
  name: "reg_loss"
  type: "SoftmaxWithLoss"
  bottom: "seg_bn"
  bottom: "label"
  top: "reg_loss"
  loss_weight: 0.01
  loss_param {
    ignore_label: 255
    normalize: false
  }
}
layer {
  name: "embed_conv5"
  type: "Deconvolution"
  bottom: "concat3"
  top: "embed_conv5"
  convolution_param {
    num_output: 3
    pad: 0
    kernel_size: 4
    stride: 2
    weight_filler {
      type: "xavier"
    }
  }
}
layer {
  name: "embed_bn5"
  type: "BatchNorm"
  bottom: "embed_conv5"
  top: "embed_bn5"
  batch_norm_param {
    use_global_stats: false
  }
}
layer {
  name: "embed_scale5"
  type: "Scale"
  bottom: "embed_bn5"
  top: "embed_bn5"
  scale_param {
    bias_term: true
  }
}
layer {
  name: "mask"
  type: "RandVec"
  top: "mask"
  rand_vec_param {
    batch_size: 2
    dim: 3
    height: 160
    width: 320
  }
}
layer {
  name: "masked"
  type: "Eltwise"
  bottom: "embed_bn5"
  bottom: "mask"
  top: "masked"
  eltwise_param {
    operation: PROD
  }
}
layer {
  name: "data"
  type: "Eltwise"
  bottom: "data1"
  bottom: "masked"
  top: "data"
  eltwise_param {
    operation: SUM
  }
}
layer {
  name: "conv1_1"
  type: "Convolution"
  bottom: "data"
  top: "conv1_1"
  param {
    lr_mult: 0
    decay_mult: 1
  }
  param {
    lr_mult: 0
    decay_mult: 0
  }
  convolution_param {
    num_output: 64
    pad: 100
    kernel_size: 3
    stride: 1
  }
}
layer {
  name: "relu1_1"
  type: "ReLU"
  bottom: "conv1_1"
  top: "conv1_1"
}
layer {
  name: "conv1_2"
  type: "Convolution"
  bottom: "conv1_1"
  top: "conv1_2"
  param {
    lr_mult: 0
    decay_mult: 1
  }
  param {
    lr_mult: 0
    decay_mult: 0
  }
  convolution_param {
    num_output: 64
    pad: 1
    kernel_size: 3
    stride: 1
  }
}
layer {
  name: "relu1_2"
  type: "ReLU"
  bottom: "conv1_2"
  top: "conv1_2"
}
layer {
  name: "pool1"
  type: "Pooling"
  bottom: "conv1_2"
  top: "pool1"
  pooling_param {
    pool: MAX
    kernel_size: 2
    stride: 2
  }
}
layer {
  name: "conv2_1"
  type: "Convolution"
  bottom: "pool1"
  top: "conv2_1"
  param {
    lr_mult: 0
    decay_mult: 1
  }
  param {
    lr_mult: 0
    decay_mult: 0
  }
  convolution_param {
    num_output: 128
    pad: 1
    kernel_size: 3
    stride: 1
  }
}
layer {
  name: "relu2_1"
  type: "ReLU"
  bottom: "conv2_1"
  top: "conv2_1"
}
layer {
  name: "conv2_2"
  type: "Convolution"
  bottom: "conv2_1"
  top: "conv2_2"
  param {
    lr_mult: 0
    decay_mult: 1
  }
  param {
    lr_mult: 0
    decay_mult: 0
  }
  convolution_param {
    num_output: 128
    pad: 1
    kernel_size: 3
    stride: 1
  }
}
layer {
  name: "relu2_2"
  type: "ReLU"
  bottom: "conv2_2"
  top: "conv2_2"
}
layer {
  name: "pool2"
  type: "Pooling"
  bottom: "conv2_2"
  top: "pool2"
  pooling_param {
    pool: MAX
    kernel_size: 2
    stride: 2
  }
}
layer {
  name: "conv3_1"
  type: "Convolution"
  bottom: "pool2"
  top: "conv3_1"
  param {
    lr_mult: 0
    decay_mult: 1
  }
  param {
    lr_mult: 0
    decay_mult: 0
  }
  convolution_param {
    num_output: 256
    pad: 1
    kernel_size: 3
    stride: 1
  }
}
layer {
  name: "relu3_1"
  type: "ReLU"
  bottom: "conv3_1"
  top: "conv3_1"
}
layer {
  name: "conv3_2"
  type: "Convolution"
  bottom: "conv3_1"
  top: "conv3_2"
  param {
    lr_mult: 0
    decay_mult: 1
  }
  param {
    lr_mult: 0
    decay_mult: 0
  }
  convolution_param {
    num_output: 256
    pad: 1
    kernel_size: 3
    stride: 1
  }
}
layer {
  name: "relu3_2"
  type: "ReLU"
  bottom: "conv3_2"
  top: "conv3_2"
}
layer {
  name: "conv3_3"
  type: "Convolution"
  bottom: "conv3_2"
  top: "conv3_3"
  param {
    lr_mult: 0
    decay_mult: 1
  }
  param {
    lr_mult: 0
    decay_mult: 0
  }
  convolution_param {
    num_output: 256
    pad: 1
    kernel_size: 3
    stride: 1
  }
}
layer {
  name: "relu3_3"
  type: "ReLU"
  bottom: "conv3_3"
  top: "conv3_3"
}
layer {
  name: "pool3"
  type: "Pooling"
  bottom: "conv3_3"
  top: "pool3"
  pooling_param {
    pool: MAX
    kernel_size: 2
    stride: 2
  }
}
layer {
  name: "conv4_1"
  type: "Convolution"
  bottom: "pool3"
  top: "conv4_1"
  param {
    lr_mult: 0
    decay_mult: 1
  }
  param {
    lr_mult: 0
    decay_mult: 0
  }
  convolution_param {
    num_output: 512
    pad: 1
    kernel_size: 3
    stride: 1
  }
}
layer {
  name: "relu4_1"
  type: "ReLU"
  bottom: "conv4_1"
  top: "conv4_1"
}
layer {
  name: "conv4_2"
  type: "Convolution"
  bottom: "conv4_1"
  top: "conv4_2"
  param {
    lr_mult: 0
    decay_mult: 1
  }
  param {
    lr_mult: 0
    decay_mult: 0
  }
  convolution_param {
    num_output: 512
    pad: 1
    kernel_size: 3
    stride: 1
  }
}
layer {
  name: "relu4_2"
  type: "ReLU"
  bottom: "conv4_2"
  top: "conv4_2"
}
layer {
  name: "conv4_3"
  type: "Convolution"
  bottom: "conv4_2"
  top: "conv4_3"
  param {
    lr_mult: 0
    decay_mult: 1
  }
  param {
    lr_mult: 0
    decay_mult: 0
  }
  convolution_param {
    num_output: 512
    pad: 1
    kernel_size: 3
    stride: 1
  }
}
layer {
  name: "relu4_3"
  type: "ReLU"
  bottom: "conv4_3"
  top: "conv4_3"
}
layer {
  name: "pool4"
  type: "Pooling"
  bottom: "conv4_3"
  top: "pool4"
  pooling_param {
    pool: MAX
    kernel_size: 2
    stride: 2
  }
}
layer {
  name: "conv5_1"
  type: "Convolution"
  bottom: "pool4"
  top: "conv5_1"
  param {
    lr_mult: 0
    decay_mult: 1
  }
  param {
    lr_mult: 0
    decay_mult: 0
  }
  convolution_param {
    num_output: 512
    pad: 1
    kernel_size: 3
    stride: 1
  }
}
layer {
  name: "relu5_1"
  type: "ReLU"
  bottom: "conv5_1"
  top: "conv5_1"
}
layer {
  name: "conv5_2"
  type: "Convolution"
  bottom: "conv5_1"
  top: "conv5_2"
  param {
    lr_mult: 0
    decay_mult: 1
  }
  param {
    lr_mult: 0
    decay_mult: 0
  }
  convolution_param {
    num_output: 512
    pad: 1
    kernel_size: 3
    stride: 1
  }
}
layer {
  name: "relu5_2"
  type: "ReLU"
  bottom: "conv5_2"
  top: "conv5_2"
}
layer {
  name: "conv5_3"
  type: "Convolution"
  bottom: "conv5_2"
  top: "conv5_3"
  param {
    lr_mult: 0
    decay_mult: 1
  }
  param {
    lr_mult: 0
    decay_mult: 0
  }
  convolution_param {
    num_output: 512
    pad: 1
    kernel_size: 3
    stride: 1
  }
}
layer {
  name: "relu5_3"
  type: "ReLU"
  bottom: "conv5_3"
  top: "conv5_3"
}
layer {
  name: "pool5"
  type: "Pooling"
  bottom: "conv5_3"
  top: "pool5"
  pooling_param {
    pool: MAX
    kernel_size: 2
    stride: 2
  }
}
layer {
  name: "fc6"
  type: "Convolution"
  bottom: "pool5"
  top: "fc6"
  param {
    lr_mult: 0
    decay_mult: 1
  }
  param {
    lr_mult: 0
    decay_mult: 0
  }
  convolution_param {
    num_output: 4096
    pad: 0
    kernel_size: 7
    stride: 1
  }
}
layer {
  name: "relu6"
  type: "ReLU"
  bottom: "fc6"
  top: "fc6"
}
layer {
  name: "fc7"
  type: "Convolution"
  bottom: "fc6"
  top: "fc7"
  param {
    lr_mult: 0
    decay_mult: 1
  }
  param {
    lr_mult: 0
    decay_mult: 0
  }
  convolution_param {
    num_output: 4096
    pad: 0
    kernel_size: 1
    stride: 1
  }
}
layer {
  name: "relu7"
  type: "ReLU"
  bottom: "fc7"
  top: "fc7"
}
layer {
  name: "score_fr"
  type: "Convolution"
  bottom: "fc7"
  top: "score_fr"
  param {
    lr_mult: 0
    decay_mult: 1
  }
  param {
    lr_mult: 0
    decay_mult: 0
  }
  convolution_param {
    num_output: 19
    pad: 0
    kernel_size: 1
  }
}
layer {
  name: "upscore2"
  type: "Deconvolution"
  bottom: "score_fr"
  top: "upscore2"
  param {
    lr_mult: 0
    decay_mult: 1
  }
  convolution_param {
    num_output: 19
    bias_term: false
    kernel_size: 4
    stride: 2
  }
}
layer {
  name: "score_pool4"
  type: "Convolution"
  bottom: "pool4"
  top: "score_pool4"
  param {
    lr_mult: 0
    decay_mult: 1
  }
  param {
    lr_mult: 0
    decay_mult: 0
  }
  convolution_param {
    num_output: 19
    pad: 0
    kernel_size: 1
  }
}
layer {
  name: "score_pool4c"
  type: "Crop"
  bottom: "score_pool4"
  bottom: "upscore2"
  top: "score_pool4c"
  crop_param {
    axis: 2
    offset: 5
  }
}
layer {
  name: "fuse_pool4"
  type: "Eltwise"
  bottom: "upscore2"
  bottom: "score_pool4c"
  top: "fuse_pool4"
  eltwise_param {
    operation: SUM
  }
}
layer {
  name: "upscore_pool4"
  type: "Deconvolution"
  bottom: "fuse_pool4"
  top: "upscore_pool4"
  param {
    lr_mult: 0
    decay_mult: 1
  }
  convolution_param {
    num_output: 19
    bias_term: false
    kernel_size: 4
    stride: 2
  }
}
layer {
  name: "score_pool3"
  type: "Convolution"
  bottom: "pool3"
  top: "score_pool3"
  param {
    lr_mult: 0
    decay_mult: 1
  }
  param {
    lr_mult: 0
    decay_mult: 0
  }
  convolution_param {
    num_output: 19
    pad: 0
    kernel_size: 1
  }
}
layer {
  name: "score_pool3c"
  type: "Crop"
  bottom: "score_pool3"
  bottom: "upscore_pool4"
  top: "score_pool3c"
  crop_param {
    axis: 2
    offset: 9
  }
}
layer {
  name: "fuse_pool3"
  type: "Eltwise"
  bottom: "upscore_pool4"
  bottom: "score_pool3c"
  top: "fuse_pool3"
  eltwise_param {
    operation: SUM
  }
}
layer {
  name: "upscore8"
  type: "Deconvolution"
  bottom: "fuse_pool3"
  top: "upscore8"
  param {
    lr_mult: 0
    decay_mult: 1
  }
  convolution_param {
    num_output: 19
    bias_term: false
    kernel_size: 16
    stride: 8
  }
}
layer {
  name: "score"
  type: "Crop"
  bottom: "upscore8"
  bottom: "data"
  top: "score"
  crop_param {
    axis: 2
    offset: 31
  }
}
layer {
  name: "loss"
  type: "AdvSoftmaxWithLoss"
  bottom: "score"
  bottom: "fakelabel"
  top: "loss"
  loss_param {
    ignore_label: 255
    normalize: false
  }
  adv_softmax_with_loss_param {
    offset: 16
  }
}
I1111 07:02:10.464638 46923 layer_factory.hpp:77] Creating layer data1
I1111 07:02:10.466657 46923 net.cpp:86] Creating Layer data1
I1111 07:02:10.466673 46923 net.cpp:382] data1 -> data1
I1111 07:02:10.466692 46923 net.cpp:382] data1 -> label
I1111 07:02:10.466701 46923 net.cpp:382] data1 -> fakelabel
I1111 07:02:10.789714 46923 net.cpp:124] Setting up data1
I1111 07:02:10.789748 46923 net.cpp:131] Top shape: 2 3 160 320 (307200)
I1111 07:02:10.789757 46923 net.cpp:131] Top shape: 2 1 160 320 (102400)
I1111 07:02:10.789764 46923 net.cpp:131] Top shape: 2 160 320 (102400)
I1111 07:02:10.789770 46923 net.cpp:139] Memory required for data: 2048000
I1111 07:02:10.789779 46923 layer_factory.hpp:77] Creating layer data1_data1_0_split
I1111 07:02:10.789794 46923 net.cpp:86] Creating Layer data1_data1_0_split
I1111 07:02:10.789803 46923 net.cpp:408] data1_data1_0_split <- data1
I1111 07:02:10.789814 46923 net.cpp:382] data1_data1_0_split -> data1_data1_0_split_0
I1111 07:02:10.789831 46923 net.cpp:382] data1_data1_0_split -> data1_data1_0_split_1
I1111 07:02:10.789881 46923 net.cpp:124] Setting up data1_data1_0_split
I1111 07:02:10.789891 46923 net.cpp:131] Top shape: 2 3 160 320 (307200)
I1111 07:02:10.789898 46923 net.cpp:131] Top shape: 2 3 160 320 (307200)
I1111 07:02:10.789904 46923 net.cpp:139] Memory required for data: 4505600
I1111 07:02:10.789911 46923 layer_factory.hpp:77] Creating layer conv1
I1111 07:02:10.789927 46923 net.cpp:86] Creating Layer conv1
I1111 07:02:10.789933 46923 net.cpp:408] conv1 <- data1_data1_0_split_0
I1111 07:02:10.789942 46923 net.cpp:382] conv1 -> conv1
I1111 07:02:10.790293 46923 net.cpp:124] Setting up conv1
I1111 07:02:10.790307 46923 net.cpp:131] Top shape: 2 64 79 159 (1607808)
I1111 07:02:10.790313 46923 net.cpp:139] Memory required for data: 10936832
I1111 07:02:10.790339 46923 layer_factory.hpp:77] Creating layer bn1
I1111 07:02:10.790351 46923 net.cpp:86] Creating Layer bn1
I1111 07:02:10.790359 46923 net.cpp:408] bn1 <- conv1
I1111 07:02:10.790366 46923 net.cpp:382] bn1 -> bn1
I1111 07:02:10.790596 46923 net.cpp:124] Setting up bn1
I1111 07:02:10.790607 46923 net.cpp:131] Top shape: 2 64 79 159 (1607808)
I1111 07:02:10.790613 46923 net.cpp:139] Memory required for data: 17368064
I1111 07:02:10.790625 46923 layer_factory.hpp:77] Creating layer scale1
I1111 07:02:10.790637 46923 net.cpp:86] Creating Layer scale1
I1111 07:02:10.790644 46923 net.cpp:408] scale1 <- bn1
I1111 07:02:10.790652 46923 net.cpp:369] scale1 -> bn1 (in-place)
I1111 07:02:10.790702 46923 layer_factory.hpp:77] Creating layer scale1
I1111 07:02:10.790848 46923 net.cpp:124] Setting up scale1
I1111 07:02:10.790858 46923 net.cpp:131] Top shape: 2 64 79 159 (1607808)
I1111 07:02:10.790864 46923 net.cpp:139] Memory required for data: 23799296
I1111 07:02:10.790874 46923 layer_factory.hpp:77] Creating layer relu1
I1111 07:02:10.790884 46923 net.cpp:86] Creating Layer relu1
I1111 07:02:10.790890 46923 net.cpp:408] relu1 <- bn1
I1111 07:02:10.790899 46923 net.cpp:369] relu1 -> bn1 (in-place)
I1111 07:02:10.790908 46923 net.cpp:124] Setting up relu1
I1111 07:02:10.790916 46923 net.cpp:131] Top shape: 2 64 79 159 (1607808)
I1111 07:02:10.790922 46923 net.cpp:139] Memory required for data: 30230528
I1111 07:02:10.790928 46923 layer_factory.hpp:77] Creating layer bn1_relu1_0_split
I1111 07:02:10.790936 46923 net.cpp:86] Creating Layer bn1_relu1_0_split
I1111 07:02:10.790942 46923 net.cpp:408] bn1_relu1_0_split <- bn1
I1111 07:02:10.790949 46923 net.cpp:382] bn1_relu1_0_split -> bn1_relu1_0_split_0
I1111 07:02:10.790958 46923 net.cpp:382] bn1_relu1_0_split -> bn1_relu1_0_split_1
I1111 07:02:10.791002 46923 net.cpp:124] Setting up bn1_relu1_0_split
I1111 07:02:10.791010 46923 net.cpp:131] Top shape: 2 64 79 159 (1607808)
I1111 07:02:10.791018 46923 net.cpp:131] Top shape: 2 64 79 159 (1607808)
I1111 07:02:10.791023 46923 net.cpp:139] Memory required for data: 43092992
I1111 07:02:10.791030 46923 layer_factory.hpp:77] Creating layer conv2
I1111 07:02:10.791040 46923 net.cpp:86] Creating Layer conv2
I1111 07:02:10.791046 46923 net.cpp:408] conv2 <- bn1_relu1_0_split_0
I1111 07:02:10.791054 46923 net.cpp:382] conv2 -> conv2
I1111 07:02:10.792250 46923 net.cpp:124] Setting up conv2
I1111 07:02:10.792261 46923 net.cpp:131] Top shape: 2 128 38 78 (758784)
I1111 07:02:10.792268 46923 net.cpp:139] Memory required for data: 46128128
I1111 07:02:10.792277 46923 layer_factory.hpp:77] Creating layer bn2
I1111 07:02:10.792286 46923 net.cpp:86] Creating Layer bn2
I1111 07:02:10.792294 46923 net.cpp:408] bn2 <- conv2
I1111 07:02:10.792300 46923 net.cpp:382] bn2 -> bn2
I1111 07:02:10.792517 46923 net.cpp:124] Setting up bn2
I1111 07:02:10.792527 46923 net.cpp:131] Top shape: 2 128 38 78 (758784)
I1111 07:02:10.792533 46923 net.cpp:139] Memory required for data: 49163264
I1111 07:02:10.792543 46923 layer_factory.hpp:77] Creating layer scale2
I1111 07:02:10.792551 46923 net.cpp:86] Creating Layer scale2
I1111 07:02:10.792558 46923 net.cpp:408] scale2 <- bn2
I1111 07:02:10.792565 46923 net.cpp:369] scale2 -> bn2 (in-place)
I1111 07:02:10.792611 46923 layer_factory.hpp:77] Creating layer scale2
I1111 07:02:10.792726 46923 net.cpp:124] Setting up scale2
I1111 07:02:10.792735 46923 net.cpp:131] Top shape: 2 128 38 78 (758784)
I1111 07:02:10.792742 46923 net.cpp:139] Memory required for data: 52198400
I1111 07:02:10.792749 46923 layer_factory.hpp:77] Creating layer relu2
I1111 07:02:10.792758 46923 net.cpp:86] Creating Layer relu2
I1111 07:02:10.792764 46923 net.cpp:408] relu2 <- bn2
I1111 07:02:10.792771 46923 net.cpp:369] relu2 -> bn2 (in-place)
I1111 07:02:10.792779 46923 net.cpp:124] Setting up relu2
I1111 07:02:10.792788 46923 net.cpp:131] Top shape: 2 128 38 78 (758784)
I1111 07:02:10.792793 46923 net.cpp:139] Memory required for data: 55233536
I1111 07:02:10.792799 46923 layer_factory.hpp:77] Creating layer bn2_relu2_0_split
I1111 07:02:10.792806 46923 net.cpp:86] Creating Layer bn2_relu2_0_split
I1111 07:02:10.792811 46923 net.cpp:408] bn2_relu2_0_split <- bn2
I1111 07:02:10.792819 46923 net.cpp:382] bn2_relu2_0_split -> bn2_relu2_0_split_0
I1111 07:02:10.792827 46923 net.cpp:382] bn2_relu2_0_split -> bn2_relu2_0_split_1
I1111 07:02:10.792867 46923 net.cpp:124] Setting up bn2_relu2_0_split
I1111 07:02:10.792876 46923 net.cpp:131] Top shape: 2 128 38 78 (758784)
I1111 07:02:10.792883 46923 net.cpp:131] Top shape: 2 128 38 78 (758784)
I1111 07:02:10.792889 46923 net.cpp:139] Memory required for data: 61303808
I1111 07:02:10.792896 46923 layer_factory.hpp:77] Creating layer conv3
I1111 07:02:10.792904 46923 net.cpp:86] Creating Layer conv3
I1111 07:02:10.792912 46923 net.cpp:408] conv3 <- bn2_relu2_0_split_0
I1111 07:02:10.792918 46923 net.cpp:382] conv3 -> conv3
I1111 07:02:10.801699 46923 net.cpp:124] Setting up conv3
I1111 07:02:10.801715 46923 net.cpp:131] Top shape: 2 256 17 37 (322048)
I1111 07:02:10.801723 46923 net.cpp:139] Memory required for data: 62592000
I1111 07:02:10.801733 46923 layer_factory.hpp:77] Creating layer bn3
I1111 07:02:10.801741 46923 net.cpp:86] Creating Layer bn3
I1111 07:02:10.801748 46923 net.cpp:408] bn3 <- conv3
I1111 07:02:10.801756 46923 net.cpp:382] bn3 -> bn3
I1111 07:02:10.801978 46923 net.cpp:124] Setting up bn3
I1111 07:02:10.801988 46923 net.cpp:131] Top shape: 2 256 17 37 (322048)
I1111 07:02:10.801995 46923 net.cpp:139] Memory required for data: 63880192
I1111 07:02:10.802006 46923 layer_factory.hpp:77] Creating layer scale3
I1111 07:02:10.802016 46923 net.cpp:86] Creating Layer scale3
I1111 07:02:10.802021 46923 net.cpp:408] scale3 <- bn3
I1111 07:02:10.802029 46923 net.cpp:369] scale3 -> bn3 (in-place)
I1111 07:02:10.802074 46923 layer_factory.hpp:77] Creating layer scale3
I1111 07:02:10.802189 46923 net.cpp:124] Setting up scale3
I1111 07:02:10.802199 46923 net.cpp:131] Top shape: 2 256 17 37 (322048)
I1111 07:02:10.802206 46923 net.cpp:139] Memory required for data: 65168384
I1111 07:02:10.802214 46923 layer_factory.hpp:77] Creating layer relu3
I1111 07:02:10.802223 46923 net.cpp:86] Creating Layer relu3
I1111 07:02:10.802229 46923 net.cpp:408] relu3 <- bn3
I1111 07:02:10.802237 46923 net.cpp:369] relu3 -> bn3 (in-place)
I1111 07:02:10.802245 46923 net.cpp:124] Setting up relu3
I1111 07:02:10.802253 46923 net.cpp:131] Top shape: 2 256 17 37 (322048)
I1111 07:02:10.802259 46923 net.cpp:139] Memory required for data: 66456576
I1111 07:02:10.802265 46923 layer_factory.hpp:77] Creating layer bn3_relu3_0_split
I1111 07:02:10.802273 46923 net.cpp:86] Creating Layer bn3_relu3_0_split
I1111 07:02:10.802279 46923 net.cpp:408] bn3_relu3_0_split <- bn3
I1111 07:02:10.802287 46923 net.cpp:382] bn3_relu3_0_split -> bn3_relu3_0_split_0
I1111 07:02:10.802295 46923 net.cpp:382] bn3_relu3_0_split -> bn3_relu3_0_split_1
I1111 07:02:10.802345 46923 net.cpp:124] Setting up bn3_relu3_0_split
I1111 07:02:10.802353 46923 net.cpp:131] Top shape: 2 256 17 37 (322048)
I1111 07:02:10.802361 46923 net.cpp:131] Top shape: 2 256 17 37 (322048)
I1111 07:02:10.802367 46923 net.cpp:139] Memory required for data: 69032960
I1111 07:02:10.802373 46923 layer_factory.hpp:77] Creating layer conv4
I1111 07:02:10.802387 46923 net.cpp:86] Creating Layer conv4
I1111 07:02:10.802393 46923 net.cpp:408] conv4 <- bn3_relu3_0_split_0
I1111 07:02:10.802402 46923 net.cpp:382] conv4 -> conv4
I1111 07:02:10.810837 46923 net.cpp:124] Setting up conv4
I1111 07:02:10.810854 46923 net.cpp:131] Top shape: 2 512 15 35 (537600)
I1111 07:02:10.810861 46923 net.cpp:139] Memory required for data: 71183360
I1111 07:02:10.810870 46923 layer_factory.hpp:77] Creating layer bn4
I1111 07:02:10.810880 46923 net.cpp:86] Creating Layer bn4
I1111 07:02:10.810887 46923 net.cpp:408] bn4 <- conv4
I1111 07:02:10.810895 46923 net.cpp:382] bn4 -> bn4
I1111 07:02:10.811115 46923 net.cpp:124] Setting up bn4
I1111 07:02:10.811125 46923 net.cpp:131] Top shape: 2 512 15 35 (537600)
I1111 07:02:10.811131 46923 net.cpp:139] Memory required for data: 73333760
I1111 07:02:10.811139 46923 layer_factory.hpp:77] Creating layer scale4
I1111 07:02:10.811148 46923 net.cpp:86] Creating Layer scale4
I1111 07:02:10.811156 46923 net.cpp:408] scale4 <- bn4
I1111 07:02:10.811162 46923 net.cpp:369] scale4 -> bn4 (in-place)
I1111 07:02:10.811208 46923 layer_factory.hpp:77] Creating layer scale4
I1111 07:02:10.811333 46923 net.cpp:124] Setting up scale4
I1111 07:02:10.811343 46923 net.cpp:131] Top shape: 2 512 15 35 (537600)
I1111 07:02:10.811349 46923 net.cpp:139] Memory required for data: 75484160
I1111 07:02:10.811357 46923 layer_factory.hpp:77] Creating layer relu4
I1111 07:02:10.811367 46923 net.cpp:86] Creating Layer relu4
I1111 07:02:10.811372 46923 net.cpp:408] relu4 <- bn4
I1111 07:02:10.811379 46923 net.cpp:369] relu4 -> bn4 (in-place)
I1111 07:02:10.811388 46923 net.cpp:124] Setting up relu4
I1111 07:02:10.811394 46923 net.cpp:131] Top shape: 2 512 15 35 (537600)
I1111 07:02:10.811400 46923 net.cpp:139] Memory required for data: 77634560
I1111 07:02:10.811406 46923 layer_factory.hpp:77] Creating layer embed_conv2
I1111 07:02:10.811420 46923 net.cpp:86] Creating Layer embed_conv2
I1111 07:02:10.811426 46923 net.cpp:408] embed_conv2 <- bn4
I1111 07:02:10.811434 46923 net.cpp:382] embed_conv2 -> embed_conv2
I1111 07:02:10.819865 46923 net.cpp:124] Setting up embed_conv2
I1111 07:02:10.819882 46923 net.cpp:131] Top shape: 2 256 17 37 (322048)
I1111 07:02:10.819888 46923 net.cpp:139] Memory required for data: 78922752
I1111 07:02:10.819898 46923 layer_factory.hpp:77] Creating layer embed_bn2
I1111 07:02:10.819907 46923 net.cpp:86] Creating Layer embed_bn2
I1111 07:02:10.819914 46923 net.cpp:408] embed_bn2 <- embed_conv2
I1111 07:02:10.819922 46923 net.cpp:382] embed_bn2 -> embed_bn2
I1111 07:02:10.820147 46923 net.cpp:124] Setting up embed_bn2
I1111 07:02:10.820156 46923 net.cpp:131] Top shape: 2 256 17 37 (322048)
I1111 07:02:10.820163 46923 net.cpp:139] Memory required for data: 80210944
I1111 07:02:10.820174 46923 layer_factory.hpp:77] Creating layer embed_scale2
I1111 07:02:10.820184 46923 net.cpp:86] Creating Layer embed_scale2
I1111 07:02:10.820190 46923 net.cpp:408] embed_scale2 <- embed_bn2
I1111 07:02:10.820199 46923 net.cpp:369] embed_scale2 -> embed_bn2 (in-place)
I1111 07:02:10.820243 46923 layer_factory.hpp:77] Creating layer embed_scale2
I1111 07:02:10.820365 46923 net.cpp:124] Setting up embed_scale2
I1111 07:02:10.820375 46923 net.cpp:131] Top shape: 2 256 17 37 (322048)
I1111 07:02:10.820381 46923 net.cpp:139] Memory required for data: 81499136
I1111 07:02:10.820390 46923 layer_factory.hpp:77] Creating layer embed_relu2
I1111 07:02:10.820399 46923 net.cpp:86] Creating Layer embed_relu2
I1111 07:02:10.820405 46923 net.cpp:408] embed_relu2 <- embed_bn2
I1111 07:02:10.820412 46923 net.cpp:369] embed_relu2 -> embed_bn2 (in-place)
I1111 07:02:10.820420 46923 net.cpp:124] Setting up embed_relu2
I1111 07:02:10.820427 46923 net.cpp:131] Top shape: 2 256 17 37 (322048)
I1111 07:02:10.820433 46923 net.cpp:139] Memory required for data: 82787328
I1111 07:02:10.820441 46923 layer_factory.hpp:77] Creating layer concat1
I1111 07:02:10.820451 46923 net.cpp:86] Creating Layer concat1
I1111 07:02:10.820457 46923 net.cpp:408] concat1 <- bn3_relu3_0_split_1
I1111 07:02:10.820468 46923 net.cpp:408] concat1 <- embed_bn2
I1111 07:02:10.820477 46923 net.cpp:382] concat1 -> concat1
I1111 07:02:10.820509 46923 net.cpp:124] Setting up concat1
I1111 07:02:10.820518 46923 net.cpp:131] Top shape: 2 512 17 37 (644096)
I1111 07:02:10.820523 46923 net.cpp:139] Memory required for data: 85363712
I1111 07:02:10.820530 46923 layer_factory.hpp:77] Creating layer embed_conv3
I1111 07:02:10.820540 46923 net.cpp:86] Creating Layer embed_conv3
I1111 07:02:10.820546 46923 net.cpp:408] embed_conv3 <- concat1
I1111 07:02:10.820554 46923 net.cpp:382] embed_conv3 -> embed_conv3
I1111 07:02:10.836689 46923 net.cpp:124] Setting up embed_conv3
I1111 07:02:10.836705 46923 net.cpp:131] Top shape: 2 128 38 78 (758784)
I1111 07:02:10.836712 46923 net.cpp:139] Memory required for data: 88398848
I1111 07:02:10.836721 46923 layer_factory.hpp:77] Creating layer embed_bn3
I1111 07:02:10.836731 46923 net.cpp:86] Creating Layer embed_bn3
I1111 07:02:10.836737 46923 net.cpp:408] embed_bn3 <- embed_conv3
I1111 07:02:10.836746 46923 net.cpp:382] embed_bn3 -> embed_bn3
I1111 07:02:10.836973 46923 net.cpp:124] Setting up embed_bn3
I1111 07:02:10.836983 46923 net.cpp:131] Top shape: 2 128 38 78 (758784)
I1111 07:02:10.836989 46923 net.cpp:139] Memory required for data: 91433984
I1111 07:02:10.836999 46923 layer_factory.hpp:77] Creating layer embed_scale3
I1111 07:02:10.837008 46923 net.cpp:86] Creating Layer embed_scale3
I1111 07:02:10.837015 46923 net.cpp:408] embed_scale3 <- embed_bn3
I1111 07:02:10.837023 46923 net.cpp:369] embed_scale3 -> embed_bn3 (in-place)
I1111 07:02:10.837069 46923 layer_factory.hpp:77] Creating layer embed_scale3
I1111 07:02:10.837190 46923 net.cpp:124] Setting up embed_scale3
I1111 07:02:10.837200 46923 net.cpp:131] Top shape: 2 128 38 78 (758784)
I1111 07:02:10.837206 46923 net.cpp:139] Memory required for data: 94469120
I1111 07:02:10.837215 46923 layer_factory.hpp:77] Creating layer embed_relu3
I1111 07:02:10.837224 46923 net.cpp:86] Creating Layer embed_relu3
I1111 07:02:10.837231 46923 net.cpp:408] embed_relu3 <- embed_bn3
I1111 07:02:10.837239 46923 net.cpp:369] embed_relu3 -> embed_bn3 (in-place)
I1111 07:02:10.837246 46923 net.cpp:124] Setting up embed_relu3
I1111 07:02:10.837255 46923 net.cpp:131] Top shape: 2 128 38 78 (758784)
I1111 07:02:10.837260 46923 net.cpp:139] Memory required for data: 97504256
I1111 07:02:10.837266 46923 layer_factory.hpp:77] Creating layer concat2
I1111 07:02:10.837275 46923 net.cpp:86] Creating Layer concat2
I1111 07:02:10.837280 46923 net.cpp:408] concat2 <- bn2_relu2_0_split_1
I1111 07:02:10.837287 46923 net.cpp:408] concat2 <- embed_bn3
I1111 07:02:10.837296 46923 net.cpp:382] concat2 -> concat2
I1111 07:02:10.837332 46923 net.cpp:124] Setting up concat2
I1111 07:02:10.837342 46923 net.cpp:131] Top shape: 2 256 38 78 (1517568)
I1111 07:02:10.837348 46923 net.cpp:139] Memory required for data: 103574528
I1111 07:02:10.837354 46923 layer_factory.hpp:77] Creating layer embed_conv4
I1111 07:02:10.837364 46923 net.cpp:86] Creating Layer embed_conv4
I1111 07:02:10.837371 46923 net.cpp:408] embed_conv4 <- concat2
I1111 07:02:10.837379 46923 net.cpp:382] embed_conv4 -> embed_conv4
I1111 07:02:10.841019 46923 net.cpp:124] Setting up embed_conv4
I1111 07:02:10.841035 46923 net.cpp:131] Top shape: 2 64 79 159 (1607808)
I1111 07:02:10.841042 46923 net.cpp:139] Memory required for data: 110005760
I1111 07:02:10.841051 46923 layer_factory.hpp:77] Creating layer embed_bn4
I1111 07:02:10.841063 46923 net.cpp:86] Creating Layer embed_bn4
I1111 07:02:10.841068 46923 net.cpp:408] embed_bn4 <- embed_conv4
I1111 07:02:10.841078 46923 net.cpp:382] embed_bn4 -> embed_bn4
I1111 07:02:10.841323 46923 net.cpp:124] Setting up embed_bn4
I1111 07:02:10.841338 46923 net.cpp:131] Top shape: 2 64 79 159 (1607808)
I1111 07:02:10.841344 46923 net.cpp:139] Memory required for data: 116436992
I1111 07:02:10.841354 46923 layer_factory.hpp:77] Creating layer embed_scale4
I1111 07:02:10.841363 46923 net.cpp:86] Creating Layer embed_scale4
I1111 07:02:10.841370 46923 net.cpp:408] embed_scale4 <- embed_bn4
I1111 07:02:10.841382 46923 net.cpp:369] embed_scale4 -> embed_bn4 (in-place)
I1111 07:02:10.841432 46923 layer_factory.hpp:77] Creating layer embed_scale4
I1111 07:02:10.841574 46923 net.cpp:124] Setting up embed_scale4
I1111 07:02:10.841584 46923 net.cpp:131] Top shape: 2 64 79 159 (1607808)
I1111 07:02:10.841590 46923 net.cpp:139] Memory required for data: 122868224
I1111 07:02:10.841599 46923 layer_factory.hpp:77] Creating layer embed_relu4
I1111 07:02:10.841609 46923 net.cpp:86] Creating Layer embed_relu4
I1111 07:02:10.841614 46923 net.cpp:408] embed_relu4 <- embed_bn4
I1111 07:02:10.841622 46923 net.cpp:369] embed_relu4 -> embed_bn4 (in-place)
I1111 07:02:10.841630 46923 net.cpp:124] Setting up embed_relu4
I1111 07:02:10.841639 46923 net.cpp:131] Top shape: 2 64 79 159 (1607808)
I1111 07:02:10.841645 46923 net.cpp:139] Memory required for data: 129299456
I1111 07:02:10.841650 46923 layer_factory.hpp:77] Creating layer concat3
I1111 07:02:10.841658 46923 net.cpp:86] Creating Layer concat3
I1111 07:02:10.841665 46923 net.cpp:408] concat3 <- bn1_relu1_0_split_1
I1111 07:02:10.841671 46923 net.cpp:408] concat3 <- embed_bn4
I1111 07:02:10.841679 46923 net.cpp:382] concat3 -> concat3
I1111 07:02:10.841708 46923 net.cpp:124] Setting up concat3
I1111 07:02:10.841717 46923 net.cpp:131] Top shape: 2 128 79 159 (3215616)
I1111 07:02:10.841723 46923 net.cpp:139] Memory required for data: 142161920
I1111 07:02:10.841730 46923 layer_factory.hpp:77] Creating layer concat3_concat3_0_split
I1111 07:02:10.841738 46923 net.cpp:86] Creating Layer concat3_concat3_0_split
I1111 07:02:10.841744 46923 net.cpp:408] concat3_concat3_0_split <- concat3
I1111 07:02:10.841751 46923 net.cpp:382] concat3_concat3_0_split -> concat3_concat3_0_split_0
I1111 07:02:10.841760 46923 net.cpp:382] concat3_concat3_0_split -> concat3_concat3_0_split_1
I1111 07:02:10.841800 46923 net.cpp:124] Setting up concat3_concat3_0_split
I1111 07:02:10.841809 46923 net.cpp:131] Top shape: 2 128 79 159 (3215616)
I1111 07:02:10.841817 46923 net.cpp:131] Top shape: 2 128 79 159 (3215616)
I1111 07:02:10.841823 46923 net.cpp:139] Memory required for data: 167886848
I1111 07:02:10.841830 46923 layer_factory.hpp:77] Creating layer seg
I1111 07:02:10.841840 46923 net.cpp:86] Creating Layer seg
I1111 07:02:10.841846 46923 net.cpp:408] seg <- concat3_concat3_0_split_0
I1111 07:02:10.841854 46923 net.cpp:382] seg -> seg
I1111 07:02:10.842355 46923 net.cpp:124] Setting up seg
I1111 07:02:10.842366 46923 net.cpp:131] Top shape: 2 19 160 320 (1945600)
I1111 07:02:10.842372 46923 net.cpp:139] Memory required for data: 175669248
I1111 07:02:10.842381 46923 layer_factory.hpp:77] Creating layer seg_bn
I1111 07:02:10.842389 46923 net.cpp:86] Creating Layer seg_bn
I1111 07:02:10.842396 46923 net.cpp:408] seg_bn <- seg
I1111 07:02:10.842403 46923 net.cpp:382] seg_bn -> seg_bn
I1111 07:02:10.842679 46923 net.cpp:124] Setting up seg_bn
I1111 07:02:10.842689 46923 net.cpp:131] Top shape: 2 19 160 320 (1945600)
I1111 07:02:10.842694 46923 net.cpp:139] Memory required for data: 183451648
I1111 07:02:10.842703 46923 layer_factory.hpp:77] Creating layer seg_scale
I1111 07:02:10.842712 46923 net.cpp:86] Creating Layer seg_scale
I1111 07:02:10.842720 46923 net.cpp:408] seg_scale <- seg_bn
I1111 07:02:10.842727 46923 net.cpp:369] seg_scale -> seg_bn (in-place)
I1111 07:02:10.842774 46923 layer_factory.hpp:77] Creating layer seg_scale
I1111 07:02:10.844398 46923 net.cpp:124] Setting up seg_scale
I1111 07:02:10.844414 46923 net.cpp:131] Top shape: 2 19 160 320 (1945600)
I1111 07:02:10.844421 46923 net.cpp:139] Memory required for data: 191234048
I1111 07:02:10.844430 46923 layer_factory.hpp:77] Creating layer reg_loss
I1111 07:02:10.844444 46923 net.cpp:86] Creating Layer reg_loss
I1111 07:02:10.844451 46923 net.cpp:408] reg_loss <- seg_bn
I1111 07:02:10.844458 46923 net.cpp:408] reg_loss <- label
I1111 07:02:10.844467 46923 net.cpp:382] reg_loss -> reg_loss
I1111 07:02:10.844483 46923 layer_factory.hpp:77] Creating layer reg_loss
I1111 07:02:10.849848 46923 net.cpp:124] Setting up reg_loss
I1111 07:02:10.849869 46923 net.cpp:131] Top shape: (1)
I1111 07:02:10.849876 46923 net.cpp:134]     with loss weight 0.01
I1111 07:02:10.849895 46923 net.cpp:139] Memory required for data: 191234052
I1111 07:02:10.849900 46923 layer_factory.hpp:77] Creating layer embed_conv5
I1111 07:02:10.849913 46923 net.cpp:86] Creating Layer embed_conv5
I1111 07:02:10.849920 46923 net.cpp:408] embed_conv5 <- concat3_concat3_0_split_1
I1111 07:02:10.849931 46923 net.cpp:382] embed_conv5 -> embed_conv5
I1111 07:02:10.850267 46923 net.cpp:124] Setting up embed_conv5
I1111 07:02:10.850280 46923 net.cpp:131] Top shape: 2 3 160 320 (307200)
I1111 07:02:10.850286 46923 net.cpp:139] Memory required for data: 192462852
I1111 07:02:10.850294 46923 layer_factory.hpp:77] Creating layer embed_bn5
I1111 07:02:10.850303 46923 net.cpp:86] Creating Layer embed_bn5
I1111 07:02:10.850309 46923 net.cpp:408] embed_bn5 <- embed_conv5
I1111 07:02:10.850318 46923 net.cpp:382] embed_bn5 -> embed_bn5
I1111 07:02:10.850600 46923 net.cpp:124] Setting up embed_bn5
I1111 07:02:10.850610 46923 net.cpp:131] Top shape: 2 3 160 320 (307200)
I1111 07:02:10.850615 46923 net.cpp:139] Memory required for data: 193691652
I1111 07:02:10.850625 46923 layer_factory.hpp:77] Creating layer embed_scale5
I1111 07:02:10.850636 46923 net.cpp:86] Creating Layer embed_scale5
I1111 07:02:10.850642 46923 net.cpp:408] embed_scale5 <- embed_bn5
I1111 07:02:10.850651 46923 net.cpp:369] embed_scale5 -> embed_bn5 (in-place)
I1111 07:02:10.850697 46923 layer_factory.hpp:77] Creating layer embed_scale5
I1111 07:02:10.850881 46923 net.cpp:124] Setting up embed_scale5
I1111 07:02:10.850893 46923 net.cpp:131] Top shape: 2 3 160 320 (307200)
I1111 07:02:10.850898 46923 net.cpp:139] Memory required for data: 194920452
I1111 07:02:10.850908 46923 layer_factory.hpp:77] Creating layer mask
I1111 07:02:10.850919 46923 net.cpp:86] Creating Layer mask
I1111 07:02:10.850926 46923 net.cpp:382] mask -> mask
I1111 07:02:10.850958 46923 net.cpp:124] Setting up mask
I1111 07:02:10.850967 46923 net.cpp:131] Top shape: 2 3 160 320 (307200)
I1111 07:02:10.850973 46923 net.cpp:139] Memory required for data: 196149252
I1111 07:02:10.850980 46923 layer_factory.hpp:77] Creating layer masked
I1111 07:02:10.850991 46923 net.cpp:86] Creating Layer masked
I1111 07:02:10.850997 46923 net.cpp:408] masked <- embed_bn5
I1111 07:02:10.851004 46923 net.cpp:408] masked <- mask
I1111 07:02:10.851012 46923 net.cpp:382] masked -> masked
I1111 07:02:10.851044 46923 net.cpp:124] Setting up masked
I1111 07:02:10.851053 46923 net.cpp:131] Top shape: 2 3 160 320 (307200)
I1111 07:02:10.851059 46923 net.cpp:139] Memory required for data: 197378052
I1111 07:02:10.851065 46923 layer_factory.hpp:77] Creating layer data
I1111 07:02:10.851073 46923 net.cpp:86] Creating Layer data
I1111 07:02:10.851079 46923 net.cpp:408] data <- data1_data1_0_split_1
I1111 07:02:10.851086 46923 net.cpp:408] data <- masked
I1111 07:02:10.851094 46923 net.cpp:382] data -> data
I1111 07:02:10.851120 46923 net.cpp:124] Setting up data
I1111 07:02:10.851130 46923 net.cpp:131] Top shape: 2 3 160 320 (307200)
I1111 07:02:10.851135 46923 net.cpp:139] Memory required for data: 198606852
I1111 07:02:10.851141 46923 layer_factory.hpp:77] Creating layer data_data_0_split
I1111 07:02:10.851150 46923 net.cpp:86] Creating Layer data_data_0_split
I1111 07:02:10.851155 46923 net.cpp:408] data_data_0_split <- data
I1111 07:02:10.851163 46923 net.cpp:382] data_data_0_split -> data_data_0_split_0
I1111 07:02:10.851171 46923 net.cpp:382] data_data_0_split -> data_data_0_split_1
I1111 07:02:10.851213 46923 net.cpp:124] Setting up data_data_0_split
I1111 07:02:10.851222 46923 net.cpp:131] Top shape: 2 3 160 320 (307200)
I1111 07:02:10.851228 46923 net.cpp:131] Top shape: 2 3 160 320 (307200)
I1111 07:02:10.851234 46923 net.cpp:139] Memory required for data: 201064452
I1111 07:02:10.851240 46923 layer_factory.hpp:77] Creating layer conv1_1
I1111 07:02:10.851250 46923 net.cpp:86] Creating Layer conv1_1
I1111 07:02:10.851258 46923 net.cpp:408] conv1_1 <- data_data_0_split_0
I1111 07:02:10.851269 46923 net.cpp:382] conv1_1 -> conv1_1
I1111 07:02:10.851660 46923 net.cpp:124] Setting up conv1_1
I1111 07:02:10.851672 46923 net.cpp:131] Top shape: 2 64 358 518 (23736832)
I1111 07:02:10.851678 46923 net.cpp:139] Memory required for data: 296011780
I1111 07:02:10.851691 46923 layer_factory.hpp:77] Creating layer relu1_1
I1111 07:02:10.851701 46923 net.cpp:86] Creating Layer relu1_1
I1111 07:02:10.851706 46923 net.cpp:408] relu1_1 <- conv1_1
I1111 07:02:10.851714 46923 net.cpp:369] relu1_1 -> conv1_1 (in-place)
I1111 07:02:10.851723 46923 net.cpp:124] Setting up relu1_1
I1111 07:02:10.851730 46923 net.cpp:131] Top shape: 2 64 358 518 (23736832)
I1111 07:02:10.851737 46923 net.cpp:139] Memory required for data: 390959108
I1111 07:02:10.851742 46923 layer_factory.hpp:77] Creating layer conv1_2
I1111 07:02:10.851752 46923 net.cpp:86] Creating Layer conv1_2
I1111 07:02:10.851758 46923 net.cpp:408] conv1_2 <- conv1_1
I1111 07:02:10.851768 46923 net.cpp:382] conv1_2 -> conv1_2
I1111 07:02:10.853646 46923 net.cpp:124] Setting up conv1_2
I1111 07:02:10.853662 46923 net.cpp:131] Top shape: 2 64 358 518 (23736832)
I1111 07:02:10.853669 46923 net.cpp:139] Memory required for data: 485906436
I1111 07:02:10.853679 46923 layer_factory.hpp:77] Creating layer relu1_2
I1111 07:02:10.853688 46923 net.cpp:86] Creating Layer relu1_2
I1111 07:02:10.853695 46923 net.cpp:408] relu1_2 <- conv1_2
I1111 07:02:10.853704 46923 net.cpp:369] relu1_2 -> conv1_2 (in-place)
I1111 07:02:10.853713 46923 net.cpp:124] Setting up relu1_2
I1111 07:02:10.853721 46923 net.cpp:131] Top shape: 2 64 358 518 (23736832)
I1111 07:02:10.853729 46923 net.cpp:139] Memory required for data: 580853764
I1111 07:02:10.853734 46923 layer_factory.hpp:77] Creating layer pool1
I1111 07:02:10.853744 46923 net.cpp:86] Creating Layer pool1
I1111 07:02:10.853750 46923 net.cpp:408] pool1 <- conv1_2
I1111 07:02:10.853758 46923 net.cpp:382] pool1 -> pool1
I1111 07:02:10.853821 46923 net.cpp:124] Setting up pool1
I1111 07:02:10.853832 46923 net.cpp:131] Top shape: 2 64 179 259 (5934208)
I1111 07:02:10.853837 46923 net.cpp:139] Memory required for data: 604590596
I1111 07:02:10.853843 46923 layer_factory.hpp:77] Creating layer conv2_1
I1111 07:02:10.853854 46923 net.cpp:86] Creating Layer conv2_1
I1111 07:02:10.853862 46923 net.cpp:408] conv2_1 <- pool1
I1111 07:02:10.853869 46923 net.cpp:382] conv2_1 -> conv2_1
I1111 07:02:10.854238 46923 net.cpp:124] Setting up conv2_1
I1111 07:02:10.854249 46923 net.cpp:131] Top shape: 2 128 179 259 (11868416)
I1111 07:02:10.854255 46923 net.cpp:139] Memory required for data: 652064260
I1111 07:02:10.854264 46923 layer_factory.hpp:77] Creating layer relu2_1
I1111 07:02:10.854272 46923 net.cpp:86] Creating Layer relu2_1
I1111 07:02:10.854279 46923 net.cpp:408] relu2_1 <- conv2_1
I1111 07:02:10.854286 46923 net.cpp:369] relu2_1 -> conv2_1 (in-place)
I1111 07:02:10.854295 46923 net.cpp:124] Setting up relu2_1
I1111 07:02:10.854302 46923 net.cpp:131] Top shape: 2 128 179 259 (11868416)
I1111 07:02:10.854308 46923 net.cpp:139] Memory required for data: 699537924
I1111 07:02:10.854315 46923 layer_factory.hpp:77] Creating layer conv2_2
I1111 07:02:10.854324 46923 net.cpp:86] Creating Layer conv2_2
I1111 07:02:10.854336 46923 net.cpp:408] conv2_2 <- conv2_1
I1111 07:02:10.854346 46923 net.cpp:382] conv2_2 -> conv2_2
I1111 07:02:10.854737 46923 net.cpp:124] Setting up conv2_2
I1111 07:02:10.854748 46923 net.cpp:131] Top shape: 2 128 179 259 (11868416)
I1111 07:02:10.854753 46923 net.cpp:139] Memory required for data: 747011588
I1111 07:02:10.854761 46923 layer_factory.hpp:77] Creating layer relu2_2
I1111 07:02:10.854769 46923 net.cpp:86] Creating Layer relu2_2
I1111 07:02:10.854776 46923 net.cpp:408] relu2_2 <- conv2_2
I1111 07:02:10.854784 46923 net.cpp:369] relu2_2 -> conv2_2 (in-place)
I1111 07:02:10.854791 46923 net.cpp:124] Setting up relu2_2
I1111 07:02:10.854799 46923 net.cpp:131] Top shape: 2 128 179 259 (11868416)
I1111 07:02:10.854804 46923 net.cpp:139] Memory required for data: 794485252
I1111 07:02:10.854810 46923 layer_factory.hpp:77] Creating layer pool2
I1111 07:02:10.854823 46923 net.cpp:86] Creating Layer pool2
I1111 07:02:10.854830 46923 net.cpp:408] pool2 <- conv2_2
I1111 07:02:10.854837 46923 net.cpp:382] pool2 -> pool2
I1111 07:02:10.854887 46923 net.cpp:124] Setting up pool2
I1111 07:02:10.854895 46923 net.cpp:131] Top shape: 2 128 90 130 (2995200)
I1111 07:02:10.854900 46923 net.cpp:139] Memory required for data: 806466052
I1111 07:02:10.854907 46923 layer_factory.hpp:77] Creating layer conv3_1
I1111 07:02:10.854916 46923 net.cpp:86] Creating Layer conv3_1
I1111 07:02:10.854923 46923 net.cpp:408] conv3_1 <- pool2
I1111 07:02:10.854930 46923 net.cpp:382] conv3_1 -> conv3_1
I1111 07:02:10.856848 46923 net.cpp:124] Setting up conv3_1
I1111 07:02:10.856864 46923 net.cpp:131] Top shape: 2 256 90 130 (5990400)
I1111 07:02:10.856871 46923 net.cpp:139] Memory required for data: 830427652
I1111 07:02:10.856880 46923 layer_factory.hpp:77] Creating layer relu3_1
I1111 07:02:10.856890 46923 net.cpp:86] Creating Layer relu3_1
I1111 07:02:10.856897 46923 net.cpp:408] relu3_1 <- conv3_1
I1111 07:02:10.856905 46923 net.cpp:369] relu3_1 -> conv3_1 (in-place)
I1111 07:02:10.856914 46923 net.cpp:124] Setting up relu3_1
I1111 07:02:10.856922 46923 net.cpp:131] Top shape: 2 256 90 130 (5990400)
I1111 07:02:10.856928 46923 net.cpp:139] Memory required for data: 854389252
I1111 07:02:10.856935 46923 layer_factory.hpp:77] Creating layer conv3_2
I1111 07:02:10.856945 46923 net.cpp:86] Creating Layer conv3_2
I1111 07:02:10.856950 46923 net.cpp:408] conv3_2 <- conv3_1
I1111 07:02:10.856958 46923 net.cpp:382] conv3_2 -> conv3_2
I1111 07:02:10.859184 46923 net.cpp:124] Setting up conv3_2
I1111 07:02:10.859200 46923 net.cpp:131] Top shape: 2 256 90 130 (5990400)
I1111 07:02:10.859207 46923 net.cpp:139] Memory required for data: 878350852
I1111 07:02:10.859216 46923 layer_factory.hpp:77] Creating layer relu3_2
I1111 07:02:10.859226 46923 net.cpp:86] Creating Layer relu3_2
I1111 07:02:10.859232 46923 net.cpp:408] relu3_2 <- conv3_2
I1111 07:02:10.859241 46923 net.cpp:369] relu3_2 -> conv3_2 (in-place)
I1111 07:02:10.859251 46923 net.cpp:124] Setting up relu3_2
I1111 07:02:10.859257 46923 net.cpp:131] Top shape: 2 256 90 130 (5990400)
I1111 07:02:10.859263 46923 net.cpp:139] Memory required for data: 902312452
I1111 07:02:10.859270 46923 layer_factory.hpp:77] Creating layer conv3_3
I1111 07:02:10.859280 46923 net.cpp:86] Creating Layer conv3_3
I1111 07:02:10.859287 46923 net.cpp:408] conv3_3 <- conv3_2
I1111 07:02:10.859294 46923 net.cpp:382] conv3_3 -> conv3_3
I1111 07:02:10.861523 46923 net.cpp:124] Setting up conv3_3
I1111 07:02:10.861539 46923 net.cpp:131] Top shape: 2 256 90 130 (5990400)
I1111 07:02:10.861546 46923 net.cpp:139] Memory required for data: 926274052
I1111 07:02:10.861554 46923 layer_factory.hpp:77] Creating layer relu3_3
I1111 07:02:10.861564 46923 net.cpp:86] Creating Layer relu3_3
I1111 07:02:10.861570 46923 net.cpp:408] relu3_3 <- conv3_3
I1111 07:02:10.861579 46923 net.cpp:369] relu3_3 -> conv3_3 (in-place)
I1111 07:02:10.861588 46923 net.cpp:124] Setting up relu3_3
I1111 07:02:10.861595 46923 net.cpp:131] Top shape: 2 256 90 130 (5990400)
I1111 07:02:10.861601 46923 net.cpp:139] Memory required for data: 950235652
I1111 07:02:10.861608 46923 layer_factory.hpp:77] Creating layer pool3
I1111 07:02:10.861618 46923 net.cpp:86] Creating Layer pool3
I1111 07:02:10.861624 46923 net.cpp:408] pool3 <- conv3_3
I1111 07:02:10.861632 46923 net.cpp:382] pool3 -> pool3
I1111 07:02:10.861681 46923 net.cpp:124] Setting up pool3
I1111 07:02:10.861691 46923 net.cpp:131] Top shape: 2 256 45 65 (1497600)
I1111 07:02:10.861697 46923 net.cpp:139] Memory required for data: 956226052
I1111 07:02:10.861703 46923 layer_factory.hpp:77] Creating layer pool3_pool3_0_split
I1111 07:02:10.861711 46923 net.cpp:86] Creating Layer pool3_pool3_0_split
I1111 07:02:10.861717 46923 net.cpp:408] pool3_pool3_0_split <- pool3
I1111 07:02:10.861724 46923 net.cpp:382] pool3_pool3_0_split -> pool3_pool3_0_split_0
I1111 07:02:10.861733 46923 net.cpp:382] pool3_pool3_0_split -> pool3_pool3_0_split_1
I1111 07:02:10.861779 46923 net.cpp:124] Setting up pool3_pool3_0_split
I1111 07:02:10.861788 46923 net.cpp:131] Top shape: 2 256 45 65 (1497600)
I1111 07:02:10.861795 46923 net.cpp:131] Top shape: 2 256 45 65 (1497600)
I1111 07:02:10.861801 46923 net.cpp:139] Memory required for data: 968206852
I1111 07:02:10.861807 46923 layer_factory.hpp:77] Creating layer conv4_1
I1111 07:02:10.861817 46923 net.cpp:86] Creating Layer conv4_1
I1111 07:02:10.861824 46923 net.cpp:408] conv4_1 <- pool3_pool3_0_split_0
I1111 07:02:10.861832 46923 net.cpp:382] conv4_1 -> conv4_1
I1111 07:02:10.865509 46923 net.cpp:124] Setting up conv4_1
I1111 07:02:10.865526 46923 net.cpp:131] Top shape: 2 512 45 65 (2995200)
I1111 07:02:10.865532 46923 net.cpp:139] Memory required for data: 980187652
I1111 07:02:10.865542 46923 layer_factory.hpp:77] Creating layer relu4_1
I1111 07:02:10.865550 46923 net.cpp:86] Creating Layer relu4_1
I1111 07:02:10.865557 46923 net.cpp:408] relu4_1 <- conv4_1
I1111 07:02:10.865566 46923 net.cpp:369] relu4_1 -> conv4_1 (in-place)
I1111 07:02:10.865574 46923 net.cpp:124] Setting up relu4_1
I1111 07:02:10.865581 46923 net.cpp:131] Top shape: 2 512 45 65 (2995200)
I1111 07:02:10.865587 46923 net.cpp:139] Memory required for data: 992168452
I1111 07:02:10.865594 46923 layer_factory.hpp:77] Creating layer conv4_2
I1111 07:02:10.865604 46923 net.cpp:86] Creating Layer conv4_2
I1111 07:02:10.865610 46923 net.cpp:408] conv4_2 <- conv4_1
I1111 07:02:10.865618 46923 net.cpp:382] conv4_2 -> conv4_2
I1111 07:02:10.873152 46923 net.cpp:124] Setting up conv4_2
I1111 07:02:10.873169 46923 net.cpp:131] Top shape: 2 512 45 65 (2995200)
I1111 07:02:10.873175 46923 net.cpp:139] Memory required for data: 1004149252
I1111 07:02:10.873184 46923 layer_factory.hpp:77] Creating layer relu4_2
I1111 07:02:10.873193 46923 net.cpp:86] Creating Layer relu4_2
I1111 07:02:10.873200 46923 net.cpp:408] relu4_2 <- conv4_2
I1111 07:02:10.873209 46923 net.cpp:369] relu4_2 -> conv4_2 (in-place)
I1111 07:02:10.873219 46923 net.cpp:124] Setting up relu4_2
I1111 07:02:10.873225 46923 net.cpp:131] Top shape: 2 512 45 65 (2995200)
I1111 07:02:10.873231 46923 net.cpp:139] Memory required for data: 1016130052
I1111 07:02:10.873237 46923 layer_factory.hpp:77] Creating layer conv4_3
I1111 07:02:10.873248 46923 net.cpp:86] Creating Layer conv4_3
I1111 07:02:10.873255 46923 net.cpp:408] conv4_3 <- conv4_2
I1111 07:02:10.873262 46923 net.cpp:382] conv4_3 -> conv4_3
I1111 07:02:10.879868 46923 net.cpp:124] Setting up conv4_3
I1111 07:02:10.879884 46923 net.cpp:131] Top shape: 2 512 45 65 (2995200)
I1111 07:02:10.879891 46923 net.cpp:139] Memory required for data: 1028110852
I1111 07:02:10.879900 46923 layer_factory.hpp:77] Creating layer relu4_3
I1111 07:02:10.879909 46923 net.cpp:86] Creating Layer relu4_3
I1111 07:02:10.879916 46923 net.cpp:408] relu4_3 <- conv4_3
I1111 07:02:10.879925 46923 net.cpp:369] relu4_3 -> conv4_3 (in-place)
I1111 07:02:10.879935 46923 net.cpp:124] Setting up relu4_3
I1111 07:02:10.879941 46923 net.cpp:131] Top shape: 2 512 45 65 (2995200)
I1111 07:02:10.879948 46923 net.cpp:139] Memory required for data: 1040091652
I1111 07:02:10.879954 46923 layer_factory.hpp:77] Creating layer pool4
I1111 07:02:10.879962 46923 net.cpp:86] Creating Layer pool4
I1111 07:02:10.879969 46923 net.cpp:408] pool4 <- conv4_3
I1111 07:02:10.879977 46923 net.cpp:382] pool4 -> pool4
I1111 07:02:10.880028 46923 net.cpp:124] Setting up pool4
I1111 07:02:10.880038 46923 net.cpp:131] Top shape: 2 512 23 33 (777216)
I1111 07:02:10.880044 46923 net.cpp:139] Memory required for data: 1043200516
I1111 07:02:10.880050 46923 layer_factory.hpp:77] Creating layer pool4_pool4_0_split
I1111 07:02:10.880059 46923 net.cpp:86] Creating Layer pool4_pool4_0_split
I1111 07:02:10.880065 46923 net.cpp:408] pool4_pool4_0_split <- pool4
I1111 07:02:10.880072 46923 net.cpp:382] pool4_pool4_0_split -> pool4_pool4_0_split_0
I1111 07:02:10.880081 46923 net.cpp:382] pool4_pool4_0_split -> pool4_pool4_0_split_1
I1111 07:02:10.880125 46923 net.cpp:124] Setting up pool4_pool4_0_split
I1111 07:02:10.880136 46923 net.cpp:131] Top shape: 2 512 23 33 (777216)
I1111 07:02:10.880144 46923 net.cpp:131] Top shape: 2 512 23 33 (777216)
I1111 07:02:10.880151 46923 net.cpp:139] Memory required for data: 1049418244
I1111 07:02:10.880157 46923 layer_factory.hpp:77] Creating layer conv5_1
I1111 07:02:10.880167 46923 net.cpp:86] Creating Layer conv5_1
I1111 07:02:10.880174 46923 net.cpp:408] conv5_1 <- pool4_pool4_0_split_0
I1111 07:02:10.880184 46923 net.cpp:382] conv5_1 -> conv5_1
I1111 07:02:10.889992 46923 net.cpp:124] Setting up conv5_1
I1111 07:02:10.890009 46923 net.cpp:131] Top shape: 2 512 23 33 (777216)
I1111 07:02:10.890015 46923 net.cpp:139] Memory required for data: 1052527108
I1111 07:02:10.890025 46923 layer_factory.hpp:77] Creating layer relu5_1
I1111 07:02:10.890034 46923 net.cpp:86] Creating Layer relu5_1
I1111 07:02:10.890040 46923 net.cpp:408] relu5_1 <- conv5_1
I1111 07:02:10.890049 46923 net.cpp:369] relu5_1 -> conv5_1 (in-place)
I1111 07:02:10.890058 46923 net.cpp:124] Setting up relu5_1
I1111 07:02:10.890066 46923 net.cpp:131] Top shape: 2 512 23 33 (777216)
I1111 07:02:10.890071 46923 net.cpp:139] Memory required for data: 1055635972
I1111 07:02:10.890077 46923 layer_factory.hpp:77] Creating layer conv5_2
I1111 07:02:10.890089 46923 net.cpp:86] Creating Layer conv5_2
I1111 07:02:10.890094 46923 net.cpp:408] conv5_2 <- conv5_1
I1111 07:02:10.890102 46923 net.cpp:382] conv5_2 -> conv5_2
I1111 07:02:10.896673 46923 net.cpp:124] Setting up conv5_2
I1111 07:02:10.896689 46923 net.cpp:131] Top shape: 2 512 23 33 (777216)
I1111 07:02:10.896695 46923 net.cpp:139] Memory required for data: 1058744836
I1111 07:02:10.896706 46923 layer_factory.hpp:77] Creating layer relu5_2
I1111 07:02:10.896714 46923 net.cpp:86] Creating Layer relu5_2
I1111 07:02:10.896721 46923 net.cpp:408] relu5_2 <- conv5_2
I1111 07:02:10.896729 46923 net.cpp:369] relu5_2 -> conv5_2 (in-place)
I1111 07:02:10.896739 46923 net.cpp:124] Setting up relu5_2
I1111 07:02:10.896746 46923 net.cpp:131] Top shape: 2 512 23 33 (777216)
I1111 07:02:10.896752 46923 net.cpp:139] Memory required for data: 1061853700
I1111 07:02:10.896759 46923 layer_factory.hpp:77] Creating layer conv5_3
I1111 07:02:10.896769 46923 net.cpp:86] Creating Layer conv5_3
I1111 07:02:10.896775 46923 net.cpp:408] conv5_3 <- conv5_2
I1111 07:02:10.896783 46923 net.cpp:382] conv5_3 -> conv5_3
I1111 07:02:10.903275 46923 net.cpp:124] Setting up conv5_3
I1111 07:02:10.903293 46923 net.cpp:131] Top shape: 2 512 23 33 (777216)
I1111 07:02:10.903300 46923 net.cpp:139] Memory required for data: 1064962564
I1111 07:02:10.903309 46923 layer_factory.hpp:77] Creating layer relu5_3
I1111 07:02:10.903319 46923 net.cpp:86] Creating Layer relu5_3
I1111 07:02:10.903331 46923 net.cpp:408] relu5_3 <- conv5_3
I1111 07:02:10.903340 46923 net.cpp:369] relu5_3 -> conv5_3 (in-place)
I1111 07:02:10.903350 46923 net.cpp:124] Setting up relu5_3
I1111 07:02:10.903358 46923 net.cpp:131] Top shape: 2 512 23 33 (777216)
I1111 07:02:10.903364 46923 net.cpp:139] Memory required for data: 1068071428
I1111 07:02:10.903371 46923 layer_factory.hpp:77] Creating layer pool5
I1111 07:02:10.903380 46923 net.cpp:86] Creating Layer pool5
I1111 07:02:10.903386 46923 net.cpp:408] pool5 <- conv5_3
I1111 07:02:10.903395 46923 net.cpp:382] pool5 -> pool5
I1111 07:02:10.903447 46923 net.cpp:124] Setting up pool5
I1111 07:02:10.903456 46923 net.cpp:131] Top shape: 2 512 12 17 (208896)
I1111 07:02:10.903462 46923 net.cpp:139] Memory required for data: 1068907012
I1111 07:02:10.903468 46923 layer_factory.hpp:77] Creating layer fc6
I1111 07:02:10.903479 46923 net.cpp:86] Creating Layer fc6
I1111 07:02:10.903486 46923 net.cpp:408] fc6 <- pool5
I1111 07:02:10.903494 46923 net.cpp:382] fc6 -> fc6
I1111 07:02:11.185286 46923 net.cpp:124] Setting up fc6
I1111 07:02:11.185333 46923 net.cpp:131] Top shape: 2 4096 6 11 (540672)
I1111 07:02:11.185339 46923 net.cpp:139] Memory required for data: 1071069700
I1111 07:02:11.185351 46923 layer_factory.hpp:77] Creating layer relu6
I1111 07:02:11.185364 46923 net.cpp:86] Creating Layer relu6
I1111 07:02:11.185381 46923 net.cpp:408] relu6 <- fc6
I1111 07:02:11.185392 46923 net.cpp:369] relu6 -> fc6 (in-place)
I1111 07:02:11.185405 46923 net.cpp:124] Setting up relu6
I1111 07:02:11.185412 46923 net.cpp:131] Top shape: 2 4096 6 11 (540672)
I1111 07:02:11.185418 46923 net.cpp:139] Memory required for data: 1073232388
I1111 07:02:11.185425 46923 layer_factory.hpp:77] Creating layer fc7
I1111 07:02:11.185436 46923 net.cpp:86] Creating Layer fc7
I1111 07:02:11.185443 46923 net.cpp:408] fc7 <- fc6
I1111 07:02:11.185451 46923 net.cpp:382] fc7 -> fc7
I1111 07:02:11.232482 46923 net.cpp:124] Setting up fc7
I1111 07:02:11.232533 46923 net.cpp:131] Top shape: 2 4096 6 11 (540672)
I1111 07:02:11.232540 46923 net.cpp:139] Memory required for data: 1075395076
I1111 07:02:11.232553 46923 layer_factory.hpp:77] Creating layer relu7
I1111 07:02:11.232565 46923 net.cpp:86] Creating Layer relu7
I1111 07:02:11.232573 46923 net.cpp:408] relu7 <- fc7
I1111 07:02:11.232583 46923 net.cpp:369] relu7 -> fc7 (in-place)
I1111 07:02:11.232595 46923 net.cpp:124] Setting up relu7
I1111 07:02:11.232604 46923 net.cpp:131] Top shape: 2 4096 6 11 (540672)
I1111 07:02:11.232609 46923 net.cpp:139] Memory required for data: 1077557764
I1111 07:02:11.232615 46923 layer_factory.hpp:77] Creating layer score_fr
I1111 07:02:11.232627 46923 net.cpp:86] Creating Layer score_fr
I1111 07:02:11.232633 46923 net.cpp:408] score_fr <- fc7
I1111 07:02:11.232642 46923 net.cpp:382] score_fr -> score_fr
I1111 07:02:11.233054 46923 net.cpp:124] Setting up score_fr
I1111 07:02:11.233067 46923 net.cpp:131] Top shape: 2 19 6 11 (2508)
I1111 07:02:11.233072 46923 net.cpp:139] Memory required for data: 1077567796
I1111 07:02:11.233081 46923 layer_factory.hpp:77] Creating layer upscore2
I1111 07:02:11.233093 46923 net.cpp:86] Creating Layer upscore2
I1111 07:02:11.233099 46923 net.cpp:408] upscore2 <- score_fr
I1111 07:02:11.233108 46923 net.cpp:382] upscore2 -> upscore2
I1111 07:02:11.233350 46923 net.cpp:124] Setting up upscore2
I1111 07:02:11.233361 46923 net.cpp:131] Top shape: 2 19 14 24 (12768)
I1111 07:02:11.233366 46923 net.cpp:139] Memory required for data: 1077618868
I1111 07:02:11.233373 46923 layer_factory.hpp:77] Creating layer upscore2_upscore2_0_split
I1111 07:02:11.233382 46923 net.cpp:86] Creating Layer upscore2_upscore2_0_split
I1111 07:02:11.233389 46923 net.cpp:408] upscore2_upscore2_0_split <- upscore2
I1111 07:02:11.233397 46923 net.cpp:382] upscore2_upscore2_0_split -> upscore2_upscore2_0_split_0
I1111 07:02:11.233405 46923 net.cpp:382] upscore2_upscore2_0_split -> upscore2_upscore2_0_split_1
I1111 07:02:11.233450 46923 net.cpp:124] Setting up upscore2_upscore2_0_split
I1111 07:02:11.233459 46923 net.cpp:131] Top shape: 2 19 14 24 (12768)
I1111 07:02:11.233466 46923 net.cpp:131] Top shape: 2 19 14 24 (12768)
I1111 07:02:11.233472 46923 net.cpp:139] Memory required for data: 1077721012
I1111 07:02:11.233479 46923 layer_factory.hpp:77] Creating layer score_pool4
I1111 07:02:11.233487 46923 net.cpp:86] Creating Layer score_pool4
I1111 07:02:11.233494 46923 net.cpp:408] score_pool4 <- pool4_pool4_0_split_1
I1111 07:02:11.233502 46923 net.cpp:382] score_pool4 -> score_pool4
I1111 07:02:11.233795 46923 net.cpp:124] Setting up score_pool4
I1111 07:02:11.233805 46923 net.cpp:131] Top shape: 2 19 23 33 (28842)
I1111 07:02:11.233811 46923 net.cpp:139] Memory required for data: 1077836380
I1111 07:02:11.233820 46923 layer_factory.hpp:77] Creating layer score_pool4c
I1111 07:02:11.233841 46923 net.cpp:86] Creating Layer score_pool4c
I1111 07:02:11.233848 46923 net.cpp:408] score_pool4c <- score_pool4
I1111 07:02:11.233855 46923 net.cpp:408] score_pool4c <- upscore2_upscore2_0_split_0
I1111 07:02:11.233863 46923 net.cpp:382] score_pool4c -> score_pool4c
I1111 07:02:11.233990 46923 net.cpp:124] Setting up score_pool4c
I1111 07:02:11.233999 46923 net.cpp:131] Top shape: 2 19 14 24 (12768)
I1111 07:02:11.234005 46923 net.cpp:139] Memory required for data: 1077887452
I1111 07:02:11.234012 46923 layer_factory.hpp:77] Creating layer fuse_pool4
I1111 07:02:11.234022 46923 net.cpp:86] Creating Layer fuse_pool4
I1111 07:02:11.234036 46923 net.cpp:408] fuse_pool4 <- upscore2_upscore2_0_split_1
I1111 07:02:11.234043 46923 net.cpp:408] fuse_pool4 <- score_pool4c
I1111 07:02:11.234052 46923 net.cpp:382] fuse_pool4 -> fuse_pool4
I1111 07:02:11.234082 46923 net.cpp:124] Setting up fuse_pool4
I1111 07:02:11.234091 46923 net.cpp:131] Top shape: 2 19 14 24 (12768)
I1111 07:02:11.234097 46923 net.cpp:139] Memory required for data: 1077938524
I1111 07:02:11.234102 46923 layer_factory.hpp:77] Creating layer upscore_pool4
I1111 07:02:11.234112 46923 net.cpp:86] Creating Layer upscore_pool4
I1111 07:02:11.234118 46923 net.cpp:408] upscore_pool4 <- fuse_pool4
I1111 07:02:11.234127 46923 net.cpp:382] upscore_pool4 -> upscore_pool4
I1111 07:02:11.234362 46923 net.cpp:124] Setting up upscore_pool4
I1111 07:02:11.234372 46923 net.cpp:131] Top shape: 2 19 30 50 (57000)
I1111 07:02:11.234378 46923 net.cpp:139] Memory required for data: 1078166524
I1111 07:02:11.234385 46923 layer_factory.hpp:77] Creating layer upscore_pool4_upscore_pool4_0_split
I1111 07:02:11.234395 46923 net.cpp:86] Creating Layer upscore_pool4_upscore_pool4_0_split
I1111 07:02:11.234400 46923 net.cpp:408] upscore_pool4_upscore_pool4_0_split <- upscore_pool4
I1111 07:02:11.234408 46923 net.cpp:382] upscore_pool4_upscore_pool4_0_split -> upscore_pool4_upscore_pool4_0_split_0
I1111 07:02:11.234416 46923 net.cpp:382] upscore_pool4_upscore_pool4_0_split -> upscore_pool4_upscore_pool4_0_split_1
I1111 07:02:11.234462 46923 net.cpp:124] Setting up upscore_pool4_upscore_pool4_0_split
I1111 07:02:11.234469 46923 net.cpp:131] Top shape: 2 19 30 50 (57000)
I1111 07:02:11.234477 46923 net.cpp:131] Top shape: 2 19 30 50 (57000)
I1111 07:02:11.234483 46923 net.cpp:139] Memory required for data: 1078622524
I1111 07:02:11.234489 46923 layer_factory.hpp:77] Creating layer score_pool3
I1111 07:02:11.234499 46923 net.cpp:86] Creating Layer score_pool3
I1111 07:02:11.234506 46923 net.cpp:408] score_pool3 <- pool3_pool3_0_split_1
I1111 07:02:11.234515 46923 net.cpp:382] score_pool3 -> score_pool3
I1111 07:02:11.234812 46923 net.cpp:124] Setting up score_pool3
I1111 07:02:11.234822 46923 net.cpp:131] Top shape: 2 19 45 65 (111150)
I1111 07:02:11.234828 46923 net.cpp:139] Memory required for data: 1079067124
I1111 07:02:11.234836 46923 layer_factory.hpp:77] Creating layer score_pool3c
I1111 07:02:11.234844 46923 net.cpp:86] Creating Layer score_pool3c
I1111 07:02:11.234851 46923 net.cpp:408] score_pool3c <- score_pool3
I1111 07:02:11.234858 46923 net.cpp:408] score_pool3c <- upscore_pool4_upscore_pool4_0_split_0
I1111 07:02:11.234866 46923 net.cpp:382] score_pool3c -> score_pool3c
I1111 07:02:11.234992 46923 net.cpp:124] Setting up score_pool3c
I1111 07:02:11.235000 46923 net.cpp:131] Top shape: 2 19 30 50 (57000)
I1111 07:02:11.235007 46923 net.cpp:139] Memory required for data: 1079295124
I1111 07:02:11.235013 46923 layer_factory.hpp:77] Creating layer fuse_pool3
I1111 07:02:11.235021 46923 net.cpp:86] Creating Layer fuse_pool3
I1111 07:02:11.235028 46923 net.cpp:408] fuse_pool3 <- upscore_pool4_upscore_pool4_0_split_1
I1111 07:02:11.235035 46923 net.cpp:408] fuse_pool3 <- score_pool3c
I1111 07:02:11.235044 46923 net.cpp:382] fuse_pool3 -> fuse_pool3
I1111 07:02:11.235071 46923 net.cpp:124] Setting up fuse_pool3
I1111 07:02:11.235080 46923 net.cpp:131] Top shape: 2 19 30 50 (57000)
I1111 07:02:11.235086 46923 net.cpp:139] Memory required for data: 1079523124
I1111 07:02:11.235092 46923 layer_factory.hpp:77] Creating layer upscore8
I1111 07:02:11.235101 46923 net.cpp:86] Creating Layer upscore8
I1111 07:02:11.235108 46923 net.cpp:408] upscore8 <- fuse_pool3
I1111 07:02:11.235116 46923 net.cpp:382] upscore8 -> upscore8
I1111 07:02:11.235426 46923 net.cpp:124] Setting up upscore8
I1111 07:02:11.235437 46923 net.cpp:131] Top shape: 2 19 248 408 (3844992)
I1111 07:02:11.235443 46923 net.cpp:139] Memory required for data: 1094903092
I1111 07:02:11.235450 46923 layer_factory.hpp:77] Creating layer score
I1111 07:02:11.235460 46923 net.cpp:86] Creating Layer score
I1111 07:02:11.235469 46923 net.cpp:408] score <- upscore8
I1111 07:02:11.235477 46923 net.cpp:408] score <- data_data_0_split_1
I1111 07:02:11.235486 46923 net.cpp:382] score -> score
I1111 07:02:11.235600 46923 net.cpp:124] Setting up score
I1111 07:02:11.235610 46923 net.cpp:131] Top shape: 2 19 160 320 (1945600)
I1111 07:02:11.235615 46923 net.cpp:139] Memory required for data: 1102685492
I1111 07:02:11.235621 46923 layer_factory.hpp:77] Creating layer loss
I1111 07:02:11.235635 46923 net.cpp:86] Creating Layer loss
I1111 07:02:11.235642 46923 net.cpp:408] loss <- score
I1111 07:02:11.235649 46923 net.cpp:408] loss <- fakelabel
I1111 07:02:11.235657 46923 net.cpp:382] loss -> loss
I1111 07:02:11.235672 46923 layer_factory.hpp:77] Creating layer loss
…
