…
I1115 05:48:00.839926  1809 solver.cpp:92] Creating training net from train_net file: adv_train1.prototxt
I1115 05:48:00.842361  1809 net.cpp:53] Initializing net from parameters: 
state {
  phase: TRAIN
}
layer {
  name: "data1"
  type: "Python"
  top: "data1"
  top: "label"
  top: "fakelabel"
  python_param {
    module: "adv_mapillary_layer"
    layer: "MapillaryLayer"
    param_str: "{\'img_dir\': \'/l/vision/v5/chen478/Fall2018/mapillary/training/images/\', \'label_dir\': \'/l/vision/v5/chen478/Fall2018/fcn.mapillary/results/seg_res_train/\', \'seed\': 1337, \'mean\': (71.60167789, 82.09696889, 72.30608881)}"
  }
}
layer {
  name: "conv1"
  type: "Convolution"
  bottom: "data1"
  top: "conv1"
  convolution_param {
    num_output: 32
    pad: 0
    kernel_size: 3
    stride: 2
    weight_filler {
      type: "xavier"
    }
  }
}
layer {
  name: "bn1"
  type: "BatchNorm"
  bottom: "conv1"
  top: "bn1"
  batch_norm_param {
    use_global_stats: false
  }
}
layer {
  name: "scale1"
  type: "Scale"
  bottom: "bn1"
  top: "bn1"
  scale_param {
    bias_term: true
  }
}
layer {
  name: "relu1"
  type: "ReLU"
  bottom: "bn1"
  top: "bn1"
}
layer {
  name: "conv2"
  type: "Convolution"
  bottom: "bn1"
  top: "conv2"
  convolution_param {
    num_output: 64
    pad: 0
    kernel_size: 5
    stride: 2
    weight_filler {
      type: "xavier"
    }
  }
}
layer {
  name: "bn2"
  type: "BatchNorm"
  bottom: "conv2"
  top: "bn2"
  batch_norm_param {
    use_global_stats: false
  }
}
layer {
  name: "scale2"
  type: "Scale"
  bottom: "bn2"
  top: "bn2"
  scale_param {
    bias_term: true
  }
}
layer {
  name: "relu2"
  type: "ReLU"
  bottom: "bn2"
  top: "bn2"
}
layer {
  name: "conv3"
  type: "Convolution"
  bottom: "bn2"
  top: "conv3"
  convolution_param {
    num_output: 128
    pad: 0
    kernel_size: 5
    stride: 2
    weight_filler {
      type: "xavier"
    }
  }
}
layer {
  name: "bn3"
  type: "BatchNorm"
  bottom: "conv3"
  top: "bn3"
  batch_norm_param {
    use_global_stats: false
  }
}
layer {
  name: "scale3"
  type: "Scale"
  bottom: "bn3"
  top: "bn3"
  scale_param {
    bias_term: true
  }
}
layer {
  name: "relu3"
  type: "ReLU"
  bottom: "bn3"
  top: "bn3"
}
layer {
  name: "conv4"
  type: "Convolution"
  bottom: "bn3"
  top: "conv4"
  convolution_param {
    num_output: 256
    pad: 0
    kernel_size: 3
    stride: 1
    weight_filler {
      type: "xavier"
    }
  }
}
layer {
  name: "bn4"
  type: "BatchNorm"
  bottom: "conv4"
  top: "bn4"
  batch_norm_param {
    use_global_stats: false
  }
}
layer {
  name: "scale4"
  type: "Scale"
  bottom: "bn4"
  top: "bn4"
  scale_param {
    bias_term: true
  }
}
layer {
  name: "relu4"
  type: "ReLU"
  bottom: "bn4"
  top: "bn4"
}
layer {
  name: "embed_conv2"
  type: "Deconvolution"
  bottom: "bn4"
  top: "embed_conv2"
  convolution_param {
    num_output: 128
    pad: 0
    kernel_size: 3
    stride: 1
    weight_filler {
      type: "xavier"
    }
  }
}
layer {
  name: "embed_bn2"
  type: "BatchNorm"
  bottom: "embed_conv2"
  top: "embed_bn2"
  batch_norm_param {
    use_global_stats: false
  }
}
layer {
  name: "embed_scale2"
  type: "Scale"
  bottom: "embed_bn2"
  top: "embed_bn2"
  scale_param {
    bias_term: true
  }
}
layer {
  name: "embed_relu2"
  type: "ReLU"
  bottom: "embed_bn2"
  top: "embed_bn2"
}
layer {
  name: "concat1"
  type: "Concat"
  bottom: "bn3"
  bottom: "embed_bn2"
  top: "concat1"
  concat_param {
    axis: 1
  }
}
layer {
  name: "embed_conv3"
  type: "Deconvolution"
  bottom: "concat1"
  top: "embed_conv3"
  convolution_param {
    num_output: 64
    pad: 0
    kernel_size: 6
    stride: 2
    weight_filler {
      type: "xavier"
    }
  }
}
layer {
  name: "embed_bn3"
  type: "BatchNorm"
  bottom: "embed_conv3"
  top: "embed_bn3"
  batch_norm_param {
    use_global_stats: false
  }
}
layer {
  name: "embed_scale3"
  type: "Scale"
  bottom: "embed_bn3"
  top: "embed_bn3"
  scale_param {
    bias_term: true
  }
}
layer {
  name: "embed_relu3"
  type: "ReLU"
  bottom: "embed_bn3"
  top: "embed_bn3"
}
layer {
  name: "concat2"
  type: "Concat"
  bottom: "bn2"
  bottom: "embed_bn3"
  top: "concat2"
  concat_param {
    axis: 1
  }
}
layer {
  name: "embed_conv4"
  type: "Deconvolution"
  bottom: "concat2"
  top: "embed_conv4"
  convolution_param {
    num_output: 32
    pad: 0
    kernel_size: 5
    stride: 2
    weight_filler {
      type: "xavier"
    }
  }
}
layer {
  name: "embed_bn4"
  type: "BatchNorm"
  bottom: "embed_conv4"
  top: "embed_bn4"
  batch_norm_param {
    use_global_stats: false
  }
}
layer {
  name: "embed_scale4"
  type: "Scale"
  bottom: "embed_bn4"
  top: "embed_bn4"
  scale_param {
    bias_term: true
  }
}
layer {
  name: "embed_relu4"
  type: "ReLU"
  bottom: "embed_bn4"
  top: "embed_bn4"
}
layer {
  name: "concat3"
  type: "Concat"
  bottom: "bn1"
  bottom: "embed_bn4"
  top: "concat3"
  concat_param {
    axis: 1
  }
}
layer {
  name: "seg"
  type: "Deconvolution"
  bottom: "concat3"
  top: "seg"
  convolution_param {
    num_output: 19
    pad: 0
    kernel_size: 4
    stride: 2
    weight_filler {
      type: "xavier"
    }
  }
}
layer {
  name: "seg_bn"
  type: "BatchNorm"
  bottom: "seg"
  top: "seg_bn"
  batch_norm_param {
    use_global_stats: false
  }
}
layer {
  name: "seg_scale"
  type: "Scale"
  bottom: "seg_bn"
  top: "seg_bn"
  scale_param {
    bias_term: true
  }
}
layer {
  name: "reg_loss"
  type: "SoftmaxWithLoss"
  bottom: "seg_bn"
  bottom: "label"
  top: "reg_loss"
  loss_weight: 0.01
  loss_param {
    ignore_label: 255
    normalize: false
  }
}
layer {
  name: "embed_conv5"
  type: "Deconvolution"
  bottom: "concat3"
  top: "embed_conv5"
  convolution_param {
    num_output: 3
    pad: 0
    kernel_size: 4
    stride: 2
    weight_filler {
      type: "xavier"
    }
  }
}
layer {
  name: "embed_bn5"
  type: "BatchNorm"
  bottom: "embed_conv5"
  top: "embed_bn5"
  batch_norm_param {
    use_global_stats: false
  }
}
layer {
  name: "embed_scale5"
  type: "Scale"
  bottom: "embed_bn5"
  top: "embed_bn5"
  scale_param {
    bias_term: true
  }
}
layer {
  name: "mask"
  type: "RandVec"
  top: "mask"
  rand_vec_param {
    batch_size: 2
    dim: 3
    height: 160
    width: 320
  }
}
layer {
  name: "masked"
  type: "Eltwise"
  bottom: "embed_bn5"
  bottom: "mask"
  top: "masked"
  eltwise_param {
    operation: PROD
  }
}
layer {
  name: "data"
  type: "Eltwise"
  bottom: "data1"
  bottom: "masked"
  top: "data"
  eltwise_param {
    operation: SUM
  }
}
layer {
  name: "conv1_1"
  type: "Convolution"
  bottom: "data"
  top: "conv1_1"
  param {
    lr_mult: 0
    decay_mult: 1
  }
  param {
    lr_mult: 0
    decay_mult: 0
  }
  convolution_param {
    num_output: 64
    pad: 100
    kernel_size: 3
    stride: 1
  }
}
layer {
  name: "relu1_1"
  type: "ReLU"
  bottom: "conv1_1"
  top: "conv1_1"
}
layer {
  name: "conv1_2"
  type: "Convolution"
  bottom: "conv1_1"
  top: "conv1_2"
  param {
    lr_mult: 0
    decay_mult: 1
  }
  param {
    lr_mult: 0
    decay_mult: 0
  }
  convolution_param {
    num_output: 64
    pad: 1
    kernel_size: 3
    stride: 1
  }
}
layer {
  name: "relu1_2"
  type: "ReLU"
  bottom: "conv1_2"
  top: "conv1_2"
}
layer {
  name: "pool1"
  type: "Pooling"
  bottom: "conv1_2"
  top: "pool1"
  pooling_param {
    pool: MAX
    kernel_size: 2
    stride: 2
  }
}
layer {
  name: "conv2_1"
  type: "Convolution"
  bottom: "pool1"
  top: "conv2_1"
  param {
    lr_mult: 0
    decay_mult: 1
  }
  param {
    lr_mult: 0
    decay_mult: 0
  }
  convolution_param {
    num_output: 128
    pad: 1
    kernel_size: 3
    stride: 1
  }
}
layer {
  name: "relu2_1"
  type: "ReLU"
  bottom: "conv2_1"
  top: "conv2_1"
}
layer {
  name: "conv2_2"
  type: "Convolution"
  bottom: "conv2_1"
  top: "conv2_2"
  param {
    lr_mult: 0
    decay_mult: 1
  }
  param {
    lr_mult: 0
    decay_mult: 0
  }
  convolution_param {
    num_output: 128
    pad: 1
    kernel_size: 3
    stride: 1
  }
}
layer {
  name: "relu2_2"
  type: "ReLU"
  bottom: "conv2_2"
  top: "conv2_2"
}
layer {
  name: "pool2"
  type: "Pooling"
  bottom: "conv2_2"
  top: "pool2"
  pooling_param {
    pool: MAX
    kernel_size: 2
    stride: 2
  }
}
layer {
  name: "conv3_1"
  type: "Convolution"
  bottom: "pool2"
  top: "conv3_1"
  param {
    lr_mult: 0
    decay_mult: 1
  }
  param {
    lr_mult: 0
    decay_mult: 0
  }
  convolution_param {
    num_output: 256
    pad: 1
    kernel_size: 3
    stride: 1
  }
}
layer {
  name: "relu3_1"
  type: "ReLU"
  bottom: "conv3_1"
  top: "conv3_1"
}
layer {
  name: "conv3_2"
  type: "Convolution"
  bottom: "conv3_1"
  top: "conv3_2"
  param {
    lr_mult: 0
    decay_mult: 1
  }
  param {
    lr_mult: 0
    decay_mult: 0
  }
  convolution_param {
    num_output: 256
    pad: 1
    kernel_size: 3
    stride: 1
  }
}
layer {
  name: "relu3_2"
  type: "ReLU"
  bottom: "conv3_2"
  top: "conv3_2"
}
layer {
  name: "conv3_3"
  type: "Convolution"
  bottom: "conv3_2"
  top: "conv3_3"
  param {
    lr_mult: 0
    decay_mult: 1
  }
  param {
    lr_mult: 0
    decay_mult: 0
  }
  convolution_param {
    num_output: 256
    pad: 1
    kernel_size: 3
    stride: 1
  }
}
layer {
  name: "relu3_3"
  type: "ReLU"
  bottom: "conv3_3"
  top: "conv3_3"
}
layer {
  name: "pool3"
  type: "Pooling"
  bottom: "conv3_3"
  top: "pool3"
  pooling_param {
    pool: MAX
    kernel_size: 2
    stride: 2
  }
}
layer {
  name: "conv4_1"
  type: "Convolution"
  bottom: "pool3"
  top: "conv4_1"
  param {
    lr_mult: 0
    decay_mult: 1
  }
  param {
    lr_mult: 0
    decay_mult: 0
  }
  convolution_param {
    num_output: 512
    pad: 1
    kernel_size: 3
    stride: 1
  }
}
layer {
  name: "relu4_1"
  type: "ReLU"
  bottom: "conv4_1"
  top: "conv4_1"
}
layer {
  name: "conv4_2"
  type: "Convolution"
  bottom: "conv4_1"
  top: "conv4_2"
  param {
    lr_mult: 0
    decay_mult: 1
  }
  param {
    lr_mult: 0
    decay_mult: 0
  }
  convolution_param {
    num_output: 512
    pad: 1
    kernel_size: 3
    stride: 1
  }
}
layer {
  name: "relu4_2"
  type: "ReLU"
  bottom: "conv4_2"
  top: "conv4_2"
}
layer {
  name: "conv4_3"
  type: "Convolution"
  bottom: "conv4_2"
  top: "conv4_3"
  param {
    lr_mult: 0
    decay_mult: 1
  }
  param {
    lr_mult: 0
    decay_mult: 0
  }
  convolution_param {
    num_output: 512
    pad: 1
    kernel_size: 3
    stride: 1
  }
}
layer {
  name: "relu4_3"
  type: "ReLU"
  bottom: "conv4_3"
  top: "conv4_3"
}
layer {
  name: "pool4"
  type: "Pooling"
  bottom: "conv4_3"
  top: "pool4"
  pooling_param {
    pool: MAX
    kernel_size: 2
    stride: 2
  }
}
layer {
  name: "conv5_1"
  type: "Convolution"
  bottom: "pool4"
  top: "conv5_1"
  param {
    lr_mult: 0
    decay_mult: 1
  }
  param {
    lr_mult: 0
    decay_mult: 0
  }
  convolution_param {
    num_output: 512
    pad: 1
    kernel_size: 3
    stride: 1
  }
}
layer {
  name: "relu5_1"
  type: "ReLU"
  bottom: "conv5_1"
  top: "conv5_1"
}
layer {
  name: "conv5_2"
  type: "Convolution"
  bottom: "conv5_1"
  top: "conv5_2"
  param {
    lr_mult: 0
    decay_mult: 1
  }
  param {
    lr_mult: 0
    decay_mult: 0
  }
  convolution_param {
    num_output: 512
    pad: 1
    kernel_size: 3
    stride: 1
  }
}
layer {
  name: "relu5_2"
  type: "ReLU"
  bottom: "conv5_2"
  top: "conv5_2"
}
layer {
  name: "conv5_3"
  type: "Convolution"
  bottom: "conv5_2"
  top: "conv5_3"
  param {
    lr_mult: 0
    decay_mult: 1
  }
  param {
    lr_mult: 0
    decay_mult: 0
  }
  convolution_param {
    num_output: 512
    pad: 1
    kernel_size: 3
    stride: 1
  }
}
layer {
  name: "relu5_3"
  type: "ReLU"
  bottom: "conv5_3"
  top: "conv5_3"
}
layer {
  name: "pool5"
  type: "Pooling"
  bottom: "conv5_3"
  top: "pool5"
  pooling_param {
    pool: MAX
    kernel_size: 2
    stride: 2
  }
}
layer {
  name: "fc6"
  type: "Convolution"
  bottom: "pool5"
  top: "fc6"
  param {
    lr_mult: 0
    decay_mult: 1
  }
  param {
    lr_mult: 0
    decay_mult: 0
  }
  convolution_param {
    num_output: 4096
    pad: 0
    kernel_size: 7
    stride: 1
  }
}
layer {
  name: "relu6"
  type: "ReLU"
  bottom: "fc6"
  top: "fc6"
}
layer {
  name: "fc7"
  type: "Convolution"
  bottom: "fc6"
  top: "fc7"
  param {
    lr_mult: 0
    decay_mult: 1
  }
  param {
    lr_mult: 0
    decay_mult: 0
  }
  convolution_param {
    num_output: 4096
    pad: 0
    kernel_size: 1
    stride: 1
  }
}
layer {
  name: "relu7"
  type: "ReLU"
  bottom: "fc7"
  top: "fc7"
}
layer {
  name: "score_fr"
  type: "Convolution"
  bottom: "fc7"
  top: "score_fr"
  param {
    lr_mult: 0
    decay_mult: 1
  }
  param {
    lr_mult: 0
    decay_mult: 0
  }
  convolution_param {
    num_output: 19
    pad: 0
    kernel_size: 1
  }
}
layer {
  name: "upscore2"
  type: "Deconvolution"
  bottom: "score_fr"
  top: "upscore2"
  param {
    lr_mult: 0
    decay_mult: 1
  }
  convolution_param {
    num_output: 19
    bias_term: false
    kernel_size: 4
    stride: 2
  }
}
layer {
  name: "score_pool4"
  type: "Convolution"
  bottom: "pool4"
  top: "score_pool4"
  param {
    lr_mult: 0
    decay_mult: 1
  }
  param {
    lr_mult: 0
    decay_mult: 0
  }
  convolution_param {
    num_output: 19
    pad: 0
    kernel_size: 1
  }
}
layer {
  name: "score_pool4c"
  type: "Crop"
  bottom: "score_pool4"
  bottom: "upscore2"
  top: "score_pool4c"
  crop_param {
    axis: 2
    offset: 5
  }
}
layer {
  name: "fuse_pool4"
  type: "Eltwise"
  bottom: "upscore2"
  bottom: "score_pool4c"
  top: "fuse_pool4"
  eltwise_param {
    operation: SUM
  }
}
layer {
  name: "upscore_pool4"
  type: "Deconvolution"
  bottom: "fuse_pool4"
  top: "upscore_pool4"
  param {
    lr_mult: 0
    decay_mult: 1
  }
  convolution_param {
    num_output: 19
    bias_term: false
    kernel_size: 4
    stride: 2
  }
}
layer {
  name: "score_pool3"
  type: "Convolution"
  bottom: "pool3"
  top: "score_pool3"
  param {
    lr_mult: 0
    decay_mult: 1
  }
  param {
    lr_mult: 0
    decay_mult: 0
  }
  convolution_param {
    num_output: 19
    pad: 0
    kernel_size: 1
  }
}
layer {
  name: "score_pool3c"
  type: "Crop"
  bottom: "score_pool3"
  bottom: "upscore_pool4"
  top: "score_pool3c"
  crop_param {
    axis: 2
    offset: 9
  }
}
layer {
  name: "fuse_pool3"
  type: "Eltwise"
  bottom: "upscore_pool4"
  bottom: "score_pool3c"
  top: "fuse_pool3"
  eltwise_param {
    operation: SUM
  }
}
layer {
  name: "upscore8"
  type: "Deconvolution"
  bottom: "fuse_pool3"
  top: "upscore8"
  param {
    lr_mult: 0
    decay_mult: 1
  }
  convolution_param {
    num_output: 19
    bias_term: false
    kernel_size: 16
    stride: 8
  }
}
layer {
  name: "score"
  type: "Crop"
  bottom: "upscore8"
  bottom: "data"
  top: "score"
  crop_param {
    axis: 2
    offset: 31
  }
}
layer {
  name: "loss"
  type: "AdvSoftmaxWithLoss"
  bottom: "score"
  bottom: "fakelabel"
  top: "loss"
  loss_param {
    ignore_label: 255
    normalize: false
  }
  adv_softmax_with_loss_param {
    offset: 16
  }
}
I1115 05:48:00.842753  1809 layer_factory.hpp:77] Creating layer data1
I1115 05:48:00.845264  1809 net.cpp:86] Creating Layer data1
I1115 05:48:00.845280  1809 net.cpp:382] data1 -> data1
I1115 05:48:00.845299  1809 net.cpp:382] data1 -> label
I1115 05:48:00.845309  1809 net.cpp:382] data1 -> fakelabel
I1115 05:48:01.015671  1809 net.cpp:124] Setting up data1
I1115 05:48:01.015708  1809 net.cpp:131] Top shape: 2 3 160 320 (307200)
I1115 05:48:01.015717  1809 net.cpp:131] Top shape: 2 1 160 320 (102400)
I1115 05:48:01.015723  1809 net.cpp:131] Top shape: 2 160 320 (102400)
I1115 05:48:01.015729  1809 net.cpp:139] Memory required for data: 2048000
I1115 05:48:01.015739  1809 layer_factory.hpp:77] Creating layer data1_data1_0_split
I1115 05:48:01.015758  1809 net.cpp:86] Creating Layer data1_data1_0_split
I1115 05:48:01.015767  1809 net.cpp:408] data1_data1_0_split <- data1
I1115 05:48:01.015780  1809 net.cpp:382] data1_data1_0_split -> data1_data1_0_split_0
I1115 05:48:01.015815  1809 net.cpp:382] data1_data1_0_split -> data1_data1_0_split_1
I1115 05:48:01.015849  1809 net.cpp:124] Setting up data1_data1_0_split
I1115 05:48:01.015858  1809 net.cpp:131] Top shape: 2 3 160 320 (307200)
I1115 05:48:01.015864  1809 net.cpp:131] Top shape: 2 3 160 320 (307200)
I1115 05:48:01.015869  1809 net.cpp:139] Memory required for data: 4505600
I1115 05:48:01.015875  1809 layer_factory.hpp:77] Creating layer conv1
I1115 05:48:01.015893  1809 net.cpp:86] Creating Layer conv1
I1115 05:48:01.015899  1809 net.cpp:408] conv1 <- data1_data1_0_split_0
I1115 05:48:01.015906  1809 net.cpp:382] conv1 -> conv1
I1115 05:48:01.016144  1809 net.cpp:124] Setting up conv1
I1115 05:48:01.016153  1809 net.cpp:131] Top shape: 2 32 79 159 (803904)
I1115 05:48:01.016160  1809 net.cpp:139] Memory required for data: 7721216
I1115 05:48:01.016177  1809 layer_factory.hpp:77] Creating layer bn1
I1115 05:48:01.016188  1809 net.cpp:86] Creating Layer bn1
I1115 05:48:01.016193  1809 net.cpp:408] bn1 <- conv1
I1115 05:48:01.016201  1809 net.cpp:382] bn1 -> bn1
I1115 05:48:01.016331  1809 net.cpp:124] Setting up bn1
I1115 05:48:01.016340  1809 net.cpp:131] Top shape: 2 32 79 159 (803904)
I1115 05:48:01.016345  1809 net.cpp:139] Memory required for data: 10936832
I1115 05:48:01.016355  1809 layer_factory.hpp:77] Creating layer scale1
I1115 05:48:01.016367  1809 net.cpp:86] Creating Layer scale1
I1115 05:48:01.016373  1809 net.cpp:408] scale1 <- bn1
I1115 05:48:01.016379  1809 net.cpp:369] scale1 -> bn1 (in-place)
I1115 05:48:01.016414  1809 layer_factory.hpp:77] Creating layer scale1
I1115 05:48:01.016532  1809 net.cpp:124] Setting up scale1
I1115 05:48:01.016542  1809 net.cpp:131] Top shape: 2 32 79 159 (803904)
I1115 05:48:01.016547  1809 net.cpp:139] Memory required for data: 14152448
I1115 05:48:01.016556  1809 layer_factory.hpp:77] Creating layer relu1
I1115 05:48:01.016566  1809 net.cpp:86] Creating Layer relu1
I1115 05:48:01.016571  1809 net.cpp:408] relu1 <- bn1
I1115 05:48:01.016578  1809 net.cpp:369] relu1 -> bn1 (in-place)
I1115 05:48:01.016588  1809 net.cpp:124] Setting up relu1
I1115 05:48:01.016595  1809 net.cpp:131] Top shape: 2 32 79 159 (803904)
I1115 05:48:01.016600  1809 net.cpp:139] Memory required for data: 17368064
I1115 05:48:01.016607  1809 layer_factory.hpp:77] Creating layer bn1_relu1_0_split
I1115 05:48:01.016613  1809 net.cpp:86] Creating Layer bn1_relu1_0_split
I1115 05:48:01.016618  1809 net.cpp:408] bn1_relu1_0_split <- bn1
I1115 05:48:01.016625  1809 net.cpp:382] bn1_relu1_0_split -> bn1_relu1_0_split_0
I1115 05:48:01.016633  1809 net.cpp:382] bn1_relu1_0_split -> bn1_relu1_0_split_1
I1115 05:48:01.016659  1809 net.cpp:124] Setting up bn1_relu1_0_split
I1115 05:48:01.016667  1809 net.cpp:131] Top shape: 2 32 79 159 (803904)
I1115 05:48:01.016674  1809 net.cpp:131] Top shape: 2 32 79 159 (803904)
I1115 05:48:01.016680  1809 net.cpp:139] Memory required for data: 23799296
I1115 05:48:01.016685  1809 layer_factory.hpp:77] Creating layer conv2
I1115 05:48:01.016695  1809 net.cpp:86] Creating Layer conv2
I1115 05:48:01.016700  1809 net.cpp:408] conv2 <- bn1_relu1_0_split_0
I1115 05:48:01.016707  1809 net.cpp:382] conv2 -> conv2
I1115 05:48:01.017078  1809 net.cpp:124] Setting up conv2
I1115 05:48:01.017087  1809 net.cpp:131] Top shape: 2 64 38 78 (379392)
I1115 05:48:01.017092  1809 net.cpp:139] Memory required for data: 25316864
I1115 05:48:01.017102  1809 layer_factory.hpp:77] Creating layer bn2
I1115 05:48:01.017110  1809 net.cpp:86] Creating Layer bn2
I1115 05:48:01.017115  1809 net.cpp:408] bn2 <- conv2
I1115 05:48:01.017122  1809 net.cpp:382] bn2 -> bn2
I1115 05:48:01.017241  1809 net.cpp:124] Setting up bn2
I1115 05:48:01.017249  1809 net.cpp:131] Top shape: 2 64 38 78 (379392)
I1115 05:48:01.017254  1809 net.cpp:139] Memory required for data: 26834432
I1115 05:48:01.017262  1809 layer_factory.hpp:77] Creating layer scale2
I1115 05:48:01.017271  1809 net.cpp:86] Creating Layer scale2
I1115 05:48:01.017275  1809 net.cpp:408] scale2 <- bn2
I1115 05:48:01.017282  1809 net.cpp:369] scale2 -> bn2 (in-place)
I1115 05:48:01.017313  1809 layer_factory.hpp:77] Creating layer scale2
I1115 05:48:01.017383  1809 net.cpp:124] Setting up scale2
I1115 05:48:01.017391  1809 net.cpp:131] Top shape: 2 64 38 78 (379392)
I1115 05:48:01.017396  1809 net.cpp:139] Memory required for data: 28352000
I1115 05:48:01.017405  1809 layer_factory.hpp:77] Creating layer relu2
I1115 05:48:01.017411  1809 net.cpp:86] Creating Layer relu2
I1115 05:48:01.017416  1809 net.cpp:408] relu2 <- bn2
I1115 05:48:01.017422  1809 net.cpp:369] relu2 -> bn2 (in-place)
I1115 05:48:01.017429  1809 net.cpp:124] Setting up relu2
I1115 05:48:01.017436  1809 net.cpp:131] Top shape: 2 64 38 78 (379392)
I1115 05:48:01.017441  1809 net.cpp:139] Memory required for data: 29869568
I1115 05:48:01.017446  1809 layer_factory.hpp:77] Creating layer bn2_relu2_0_split
I1115 05:48:01.017452  1809 net.cpp:86] Creating Layer bn2_relu2_0_split
I1115 05:48:01.017457  1809 net.cpp:408] bn2_relu2_0_split <- bn2
I1115 05:48:01.017467  1809 net.cpp:382] bn2_relu2_0_split -> bn2_relu2_0_split_0
I1115 05:48:01.017491  1809 net.cpp:382] bn2_relu2_0_split -> bn2_relu2_0_split_1
I1115 05:48:01.017518  1809 net.cpp:124] Setting up bn2_relu2_0_split
I1115 05:48:01.017525  1809 net.cpp:131] Top shape: 2 64 38 78 (379392)
I1115 05:48:01.017531  1809 net.cpp:131] Top shape: 2 64 38 78 (379392)
I1115 05:48:01.017536  1809 net.cpp:139] Memory required for data: 32904704
I1115 05:48:01.017542  1809 layer_factory.hpp:77] Creating layer conv3
I1115 05:48:01.017551  1809 net.cpp:86] Creating Layer conv3
I1115 05:48:01.017557  1809 net.cpp:408] conv3 <- bn2_relu2_0_split_0
I1115 05:48:01.017565  1809 net.cpp:382] conv3 -> conv3
I1115 05:48:01.018641  1809 net.cpp:124] Setting up conv3
I1115 05:48:01.018651  1809 net.cpp:131] Top shape: 2 128 17 37 (161024)
I1115 05:48:01.018657  1809 net.cpp:139] Memory required for data: 33548800
I1115 05:48:01.018666  1809 layer_factory.hpp:77] Creating layer bn3
I1115 05:48:01.018673  1809 net.cpp:86] Creating Layer bn3
I1115 05:48:01.018679  1809 net.cpp:408] bn3 <- conv3
I1115 05:48:01.018687  1809 net.cpp:382] bn3 -> bn3
I1115 05:48:01.018842  1809 net.cpp:124] Setting up bn3
I1115 05:48:01.018849  1809 net.cpp:131] Top shape: 2 128 17 37 (161024)
I1115 05:48:01.018855  1809 net.cpp:139] Memory required for data: 34192896
I1115 05:48:01.018865  1809 layer_factory.hpp:77] Creating layer scale3
I1115 05:48:01.018872  1809 net.cpp:86] Creating Layer scale3
I1115 05:48:01.018878  1809 net.cpp:408] scale3 <- bn3
I1115 05:48:01.018884  1809 net.cpp:369] scale3 -> bn3 (in-place)
I1115 05:48:01.018913  1809 layer_factory.hpp:77] Creating layer scale3
I1115 05:48:01.018973  1809 net.cpp:124] Setting up scale3
I1115 05:48:01.018981  1809 net.cpp:131] Top shape: 2 128 17 37 (161024)
I1115 05:48:01.018986  1809 net.cpp:139] Memory required for data: 34836992
I1115 05:48:01.018993  1809 layer_factory.hpp:77] Creating layer relu3
I1115 05:48:01.019001  1809 net.cpp:86] Creating Layer relu3
I1115 05:48:01.019006  1809 net.cpp:408] relu3 <- bn3
I1115 05:48:01.019012  1809 net.cpp:369] relu3 -> bn3 (in-place)
I1115 05:48:01.019019  1809 net.cpp:124] Setting up relu3
I1115 05:48:01.019026  1809 net.cpp:131] Top shape: 2 128 17 37 (161024)
I1115 05:48:01.019031  1809 net.cpp:139] Memory required for data: 35481088
I1115 05:48:01.019037  1809 layer_factory.hpp:77] Creating layer bn3_relu3_0_split
I1115 05:48:01.019043  1809 net.cpp:86] Creating Layer bn3_relu3_0_split
I1115 05:48:01.019048  1809 net.cpp:408] bn3_relu3_0_split <- bn3
I1115 05:48:01.019054  1809 net.cpp:382] bn3_relu3_0_split -> bn3_relu3_0_split_0
I1115 05:48:01.019062  1809 net.cpp:382] bn3_relu3_0_split -> bn3_relu3_0_split_1
I1115 05:48:01.019086  1809 net.cpp:124] Setting up bn3_relu3_0_split
I1115 05:48:01.019093  1809 net.cpp:131] Top shape: 2 128 17 37 (161024)
I1115 05:48:01.019100  1809 net.cpp:131] Top shape: 2 128 17 37 (161024)
I1115 05:48:01.019105  1809 net.cpp:139] Memory required for data: 36769280
I1115 05:48:01.019110  1809 layer_factory.hpp:77] Creating layer conv4
I1115 05:48:01.019122  1809 net.cpp:86] Creating Layer conv4
I1115 05:48:01.019129  1809 net.cpp:408] conv4 <- bn3_relu3_0_split_0
I1115 05:48:01.019135  1809 net.cpp:382] conv4 -> conv4
I1115 05:48:01.021857  1809 net.cpp:124] Setting up conv4
I1115 05:48:01.021872  1809 net.cpp:131] Top shape: 2 256 15 35 (268800)
I1115 05:48:01.021878  1809 net.cpp:139] Memory required for data: 37844480
I1115 05:48:01.021885  1809 layer_factory.hpp:77] Creating layer bn4
I1115 05:48:01.021894  1809 net.cpp:86] Creating Layer bn4
I1115 05:48:01.021899  1809 net.cpp:408] bn4 <- conv4
I1115 05:48:01.021908  1809 net.cpp:382] bn4 -> bn4
I1115 05:48:01.022030  1809 net.cpp:124] Setting up bn4
I1115 05:48:01.022038  1809 net.cpp:131] Top shape: 2 256 15 35 (268800)
I1115 05:48:01.022044  1809 net.cpp:139] Memory required for data: 38919680
I1115 05:48:01.022053  1809 layer_factory.hpp:77] Creating layer scale4
I1115 05:48:01.022060  1809 net.cpp:86] Creating Layer scale4
I1115 05:48:01.022066  1809 net.cpp:408] scale4 <- bn4
I1115 05:48:01.022073  1809 net.cpp:369] scale4 -> bn4 (in-place)
I1115 05:48:01.022101  1809 layer_factory.hpp:77] Creating layer scale4
I1115 05:48:01.022167  1809 net.cpp:124] Setting up scale4
I1115 05:48:01.022176  1809 net.cpp:131] Top shape: 2 256 15 35 (268800)
I1115 05:48:01.022181  1809 net.cpp:139] Memory required for data: 39994880
I1115 05:48:01.022187  1809 layer_factory.hpp:77] Creating layer relu4
I1115 05:48:01.022195  1809 net.cpp:86] Creating Layer relu4
I1115 05:48:01.022200  1809 net.cpp:408] relu4 <- bn4
I1115 05:48:01.022207  1809 net.cpp:369] relu4 -> bn4 (in-place)
I1115 05:48:01.022214  1809 net.cpp:124] Setting up relu4
I1115 05:48:01.022220  1809 net.cpp:131] Top shape: 2 256 15 35 (268800)
I1115 05:48:01.022225  1809 net.cpp:139] Memory required for data: 41070080
I1115 05:48:01.022230  1809 layer_factory.hpp:77] Creating layer embed_conv2
I1115 05:48:01.022243  1809 net.cpp:86] Creating Layer embed_conv2
I1115 05:48:01.022248  1809 net.cpp:408] embed_conv2 <- bn4
I1115 05:48:01.022255  1809 net.cpp:382] embed_conv2 -> embed_conv2
I1115 05:48:01.024924  1809 net.cpp:124] Setting up embed_conv2
I1115 05:48:01.024938  1809 net.cpp:131] Top shape: 2 128 17 37 (161024)
I1115 05:48:01.024945  1809 net.cpp:139] Memory required for data: 41714176
I1115 05:48:01.024952  1809 layer_factory.hpp:77] Creating layer embed_bn2
I1115 05:48:01.024960  1809 net.cpp:86] Creating Layer embed_bn2
I1115 05:48:01.024966  1809 net.cpp:408] embed_bn2 <- embed_conv2
I1115 05:48:01.024973  1809 net.cpp:382] embed_bn2 -> embed_bn2
I1115 05:48:01.025094  1809 net.cpp:124] Setting up embed_bn2
I1115 05:48:01.025102  1809 net.cpp:131] Top shape: 2 128 17 37 (161024)
I1115 05:48:01.025108  1809 net.cpp:139] Memory required for data: 42358272
I1115 05:48:01.025118  1809 layer_factory.hpp:77] Creating layer embed_scale2
I1115 05:48:01.025126  1809 net.cpp:86] Creating Layer embed_scale2
I1115 05:48:01.025132  1809 net.cpp:408] embed_scale2 <- embed_bn2
I1115 05:48:01.025138  1809 net.cpp:369] embed_scale2 -> embed_bn2 (in-place)
I1115 05:48:01.025166  1809 layer_factory.hpp:77] Creating layer embed_scale2
I1115 05:48:01.025233  1809 net.cpp:124] Setting up embed_scale2
I1115 05:48:01.025239  1809 net.cpp:131] Top shape: 2 128 17 37 (161024)
I1115 05:48:01.025244  1809 net.cpp:139] Memory required for data: 43002368
I1115 05:48:01.025251  1809 layer_factory.hpp:77] Creating layer embed_relu2
I1115 05:48:01.025259  1809 net.cpp:86] Creating Layer embed_relu2
I1115 05:48:01.025264  1809 net.cpp:408] embed_relu2 <- embed_bn2
I1115 05:48:01.025270  1809 net.cpp:369] embed_relu2 -> embed_bn2 (in-place)
I1115 05:48:01.025277  1809 net.cpp:124] Setting up embed_relu2
I1115 05:48:01.025285  1809 net.cpp:131] Top shape: 2 128 17 37 (161024)
I1115 05:48:01.025290  1809 net.cpp:139] Memory required for data: 43646464
I1115 05:48:01.025295  1809 layer_factory.hpp:77] Creating layer concat1
I1115 05:48:01.025305  1809 net.cpp:86] Creating Layer concat1
I1115 05:48:01.025310  1809 net.cpp:408] concat1 <- bn3_relu3_0_split_1
I1115 05:48:01.025319  1809 net.cpp:408] concat1 <- embed_bn2
I1115 05:48:01.025326  1809 net.cpp:382] concat1 -> concat1
I1115 05:48:01.025349  1809 net.cpp:124] Setting up concat1
I1115 05:48:01.025357  1809 net.cpp:131] Top shape: 2 256 17 37 (322048)
I1115 05:48:01.025362  1809 net.cpp:139] Memory required for data: 44934656
I1115 05:48:01.025367  1809 layer_factory.hpp:77] Creating layer embed_conv3
I1115 05:48:01.025377  1809 net.cpp:86] Creating Layer embed_conv3
I1115 05:48:01.025382  1809 net.cpp:408] embed_conv3 <- concat1
I1115 05:48:01.025389  1809 net.cpp:382] embed_conv3 -> embed_conv3
I1115 05:48:01.029532  1809 net.cpp:124] Setting up embed_conv3
I1115 05:48:01.029548  1809 net.cpp:131] Top shape: 2 64 38 78 (379392)
I1115 05:48:01.029554  1809 net.cpp:139] Memory required for data: 46452224
I1115 05:48:01.029563  1809 layer_factory.hpp:77] Creating layer embed_bn3
I1115 05:48:01.029572  1809 net.cpp:86] Creating Layer embed_bn3
I1115 05:48:01.029578  1809 net.cpp:408] embed_bn3 <- embed_conv3
I1115 05:48:01.029585  1809 net.cpp:382] embed_bn3 -> embed_bn3
I1115 05:48:01.029722  1809 net.cpp:124] Setting up embed_bn3
I1115 05:48:01.029731  1809 net.cpp:131] Top shape: 2 64 38 78 (379392)
I1115 05:48:01.029736  1809 net.cpp:139] Memory required for data: 47969792
I1115 05:48:01.029747  1809 layer_factory.hpp:77] Creating layer embed_scale3
I1115 05:48:01.029754  1809 net.cpp:86] Creating Layer embed_scale3
I1115 05:48:01.029760  1809 net.cpp:408] embed_scale3 <- embed_bn3
I1115 05:48:01.029768  1809 net.cpp:369] embed_scale3 -> embed_bn3 (in-place)
I1115 05:48:01.029815  1809 layer_factory.hpp:77] Creating layer embed_scale3
I1115 05:48:01.029889  1809 net.cpp:124] Setting up embed_scale3
I1115 05:48:01.029897  1809 net.cpp:131] Top shape: 2 64 38 78 (379392)
I1115 05:48:01.029902  1809 net.cpp:139] Memory required for data: 49487360
I1115 05:48:01.029911  1809 layer_factory.hpp:77] Creating layer embed_relu3
I1115 05:48:01.029917  1809 net.cpp:86] Creating Layer embed_relu3
I1115 05:48:01.029923  1809 net.cpp:408] embed_relu3 <- embed_bn3
I1115 05:48:01.029929  1809 net.cpp:369] embed_relu3 -> embed_bn3 (in-place)
I1115 05:48:01.029937  1809 net.cpp:124] Setting up embed_relu3
I1115 05:48:01.029942  1809 net.cpp:131] Top shape: 2 64 38 78 (379392)
I1115 05:48:01.029947  1809 net.cpp:139] Memory required for data: 51004928
I1115 05:48:01.029953  1809 layer_factory.hpp:77] Creating layer concat2
I1115 05:48:01.029959  1809 net.cpp:86] Creating Layer concat2
I1115 05:48:01.029965  1809 net.cpp:408] concat2 <- bn2_relu2_0_split_1
I1115 05:48:01.029970  1809 net.cpp:408] concat2 <- embed_bn3
I1115 05:48:01.029978  1809 net.cpp:382] concat2 -> concat2
I1115 05:48:01.029996  1809 net.cpp:124] Setting up concat2
I1115 05:48:01.030004  1809 net.cpp:131] Top shape: 2 128 38 78 (758784)
I1115 05:48:01.030009  1809 net.cpp:139] Memory required for data: 54040064
I1115 05:48:01.030014  1809 layer_factory.hpp:77] Creating layer embed_conv4
I1115 05:48:01.030023  1809 net.cpp:86] Creating Layer embed_conv4
I1115 05:48:01.030028  1809 net.cpp:408] embed_conv4 <- concat2
I1115 05:48:01.030035  1809 net.cpp:382] embed_conv4 -> embed_conv4
I1115 05:48:01.030674  1809 net.cpp:124] Setting up embed_conv4
I1115 05:48:01.030684  1809 net.cpp:131] Top shape: 2 32 79 159 (803904)
I1115 05:48:01.030690  1809 net.cpp:139] Memory required for data: 57255680
I1115 05:48:01.030699  1809 layer_factory.hpp:77] Creating layer embed_bn4
I1115 05:48:01.030707  1809 net.cpp:86] Creating Layer embed_bn4
I1115 05:48:01.030714  1809 net.cpp:408] embed_bn4 <- embed_conv4
I1115 05:48:01.030720  1809 net.cpp:382] embed_bn4 -> embed_bn4
I1115 05:48:01.030876  1809 net.cpp:124] Setting up embed_bn4
I1115 05:48:01.030884  1809 net.cpp:131] Top shape: 2 32 79 159 (803904)
I1115 05:48:01.030889  1809 net.cpp:139] Memory required for data: 60471296
I1115 05:48:01.030897  1809 layer_factory.hpp:77] Creating layer embed_scale4
I1115 05:48:01.030905  1809 net.cpp:86] Creating Layer embed_scale4
I1115 05:48:01.030910  1809 net.cpp:408] embed_scale4 <- embed_bn4
I1115 05:48:01.030921  1809 net.cpp:369] embed_scale4 -> embed_bn4 (in-place)
I1115 05:48:01.030952  1809 layer_factory.hpp:77] Creating layer embed_scale4
I1115 05:48:01.031035  1809 net.cpp:124] Setting up embed_scale4
I1115 05:48:01.031044  1809 net.cpp:131] Top shape: 2 32 79 159 (803904)
I1115 05:48:01.031049  1809 net.cpp:139] Memory required for data: 63686912
I1115 05:48:01.031056  1809 layer_factory.hpp:77] Creating layer embed_relu4
I1115 05:48:01.031064  1809 net.cpp:86] Creating Layer embed_relu4
I1115 05:48:01.031069  1809 net.cpp:408] embed_relu4 <- embed_bn4
I1115 05:48:01.031075  1809 net.cpp:369] embed_relu4 -> embed_bn4 (in-place)
I1115 05:48:01.031082  1809 net.cpp:124] Setting up embed_relu4
I1115 05:48:01.031088  1809 net.cpp:131] Top shape: 2 32 79 159 (803904)
I1115 05:48:01.031093  1809 net.cpp:139] Memory required for data: 66902528
I1115 05:48:01.031098  1809 layer_factory.hpp:77] Creating layer concat3
I1115 05:48:01.031105  1809 net.cpp:86] Creating Layer concat3
I1115 05:48:01.031111  1809 net.cpp:408] concat3 <- bn1_relu1_0_split_1
I1115 05:48:01.031116  1809 net.cpp:408] concat3 <- embed_bn4
I1115 05:48:01.031122  1809 net.cpp:382] concat3 -> concat3
I1115 05:48:01.031141  1809 net.cpp:124] Setting up concat3
I1115 05:48:01.031148  1809 net.cpp:131] Top shape: 2 64 79 159 (1607808)
I1115 05:48:01.031153  1809 net.cpp:139] Memory required for data: 73333760
I1115 05:48:01.031158  1809 layer_factory.hpp:77] Creating layer concat3_concat3_0_split
I1115 05:48:01.031164  1809 net.cpp:86] Creating Layer concat3_concat3_0_split
I1115 05:48:01.031169  1809 net.cpp:408] concat3_concat3_0_split <- concat3
I1115 05:48:01.031177  1809 net.cpp:382] concat3_concat3_0_split -> concat3_concat3_0_split_0
I1115 05:48:01.031183  1809 net.cpp:382] concat3_concat3_0_split -> concat3_concat3_0_split_1
I1115 05:48:01.031208  1809 net.cpp:124] Setting up concat3_concat3_0_split
I1115 05:48:01.031215  1809 net.cpp:131] Top shape: 2 64 79 159 (1607808)
I1115 05:48:01.031221  1809 net.cpp:131] Top shape: 2 64 79 159 (1607808)
I1115 05:48:01.031226  1809 net.cpp:139] Memory required for data: 86196224
I1115 05:48:01.031231  1809 layer_factory.hpp:77] Creating layer seg
I1115 05:48:01.031240  1809 net.cpp:86] Creating Layer seg
I1115 05:48:01.031245  1809 net.cpp:408] seg <- concat3_concat3_0_split_0
I1115 05:48:01.031252  1809 net.cpp:382] seg -> seg
I1115 05:48:01.031517  1809 net.cpp:124] Setting up seg
I1115 05:48:01.031525  1809 net.cpp:131] Top shape: 2 19 160 320 (1945600)
I1115 05:48:01.031530  1809 net.cpp:139] Memory required for data: 93978624
I1115 05:48:01.031538  1809 layer_factory.hpp:77] Creating layer seg_bn
I1115 05:48:01.031545  1809 net.cpp:86] Creating Layer seg_bn
I1115 05:48:01.031550  1809 net.cpp:408] seg_bn <- seg
I1115 05:48:01.031558  1809 net.cpp:382] seg_bn -> seg_bn
I1115 05:48:01.031706  1809 net.cpp:124] Setting up seg_bn
I1115 05:48:01.031715  1809 net.cpp:131] Top shape: 2 19 160 320 (1945600)
I1115 05:48:01.031720  1809 net.cpp:139] Memory required for data: 101761024
I1115 05:48:01.031729  1809 layer_factory.hpp:77] Creating layer seg_scale
I1115 05:48:01.031736  1809 net.cpp:86] Creating Layer seg_scale
I1115 05:48:01.031742  1809 net.cpp:408] seg_scale <- seg_bn
I1115 05:48:01.031749  1809 net.cpp:369] seg_scale -> seg_bn (in-place)
I1115 05:48:01.031777  1809 layer_factory.hpp:77] Creating layer seg_scale
I1115 05:48:01.031900  1809 net.cpp:124] Setting up seg_scale
I1115 05:48:01.031909  1809 net.cpp:131] Top shape: 2 19 160 320 (1945600)
I1115 05:48:01.031914  1809 net.cpp:139] Memory required for data: 109543424
I1115 05:48:01.031921  1809 layer_factory.hpp:77] Creating layer reg_loss
I1115 05:48:01.031934  1809 net.cpp:86] Creating Layer reg_loss
I1115 05:48:01.031940  1809 net.cpp:408] reg_loss <- seg_bn
I1115 05:48:01.031946  1809 net.cpp:408] reg_loss <- label
I1115 05:48:01.031953  1809 net.cpp:382] reg_loss -> reg_loss
I1115 05:48:01.031967  1809 layer_factory.hpp:77] Creating layer reg_loss
I1115 05:48:01.036936  1809 net.cpp:124] Setting up reg_loss
I1115 05:48:01.036952  1809 net.cpp:131] Top shape: (1)
I1115 05:48:01.036960  1809 net.cpp:134]     with loss weight 0.01
I1115 05:48:01.036974  1809 net.cpp:139] Memory required for data: 109543428
I1115 05:48:01.036980  1809 layer_factory.hpp:77] Creating layer embed_conv5
I1115 05:48:01.036991  1809 net.cpp:86] Creating Layer embed_conv5
I1115 05:48:01.036998  1809 net.cpp:408] embed_conv5 <- concat3_concat3_0_split_1
I1115 05:48:01.037005  1809 net.cpp:382] embed_conv5 -> embed_conv5
I1115 05:48:01.037194  1809 net.cpp:124] Setting up embed_conv5
I1115 05:48:01.037204  1809 net.cpp:131] Top shape: 2 3 160 320 (307200)
I1115 05:48:01.037209  1809 net.cpp:139] Memory required for data: 110772228
I1115 05:48:01.037216  1809 layer_factory.hpp:77] Creating layer embed_bn5
I1115 05:48:01.037225  1809 net.cpp:86] Creating Layer embed_bn5
I1115 05:48:01.037230  1809 net.cpp:408] embed_bn5 <- embed_conv5
I1115 05:48:01.037236  1809 net.cpp:382] embed_bn5 -> embed_bn5
I1115 05:48:01.037389  1809 net.cpp:124] Setting up embed_bn5
I1115 05:48:01.037398  1809 net.cpp:131] Top shape: 2 3 160 320 (307200)
I1115 05:48:01.037403  1809 net.cpp:139] Memory required for data: 112001028
I1115 05:48:01.037412  1809 layer_factory.hpp:77] Creating layer embed_scale5
I1115 05:48:01.037420  1809 net.cpp:86] Creating Layer embed_scale5
I1115 05:48:01.037425  1809 net.cpp:408] embed_scale5 <- embed_bn5
I1115 05:48:01.037432  1809 net.cpp:369] embed_scale5 -> embed_bn5 (in-place)
I1115 05:48:01.037465  1809 layer_factory.hpp:77] Creating layer embed_scale5
I1115 05:48:01.038791  1809 net.cpp:124] Setting up embed_scale5
I1115 05:48:01.038805  1809 net.cpp:131] Top shape: 2 3 160 320 (307200)
I1115 05:48:01.038811  1809 net.cpp:139] Memory required for data: 113229828
I1115 05:48:01.038820  1809 layer_factory.hpp:77] Creating layer mask
I1115 05:48:01.038833  1809 net.cpp:86] Creating Layer mask
I1115 05:48:01.038841  1809 net.cpp:382] mask -> mask
I1115 05:48:01.038867  1809 net.cpp:124] Setting up mask
I1115 05:48:01.038874  1809 net.cpp:131] Top shape: 2 3 160 320 (307200)
I1115 05:48:01.038880  1809 net.cpp:139] Memory required for data: 114458628
I1115 05:48:01.038885  1809 layer_factory.hpp:77] Creating layer masked
I1115 05:48:01.038897  1809 net.cpp:86] Creating Layer masked
I1115 05:48:01.038902  1809 net.cpp:408] masked <- embed_bn5
I1115 05:48:01.038908  1809 net.cpp:408] masked <- mask
I1115 05:48:01.038915  1809 net.cpp:382] masked -> masked
I1115 05:48:01.038938  1809 net.cpp:124] Setting up masked
I1115 05:48:01.038945  1809 net.cpp:131] Top shape: 2 3 160 320 (307200)
I1115 05:48:01.038950  1809 net.cpp:139] Memory required for data: 115687428
I1115 05:48:01.038955  1809 layer_factory.hpp:77] Creating layer data
I1115 05:48:01.038964  1809 net.cpp:86] Creating Layer data
I1115 05:48:01.038969  1809 net.cpp:408] data <- data1_data1_0_split_1
I1115 05:48:01.038975  1809 net.cpp:408] data <- masked
I1115 05:48:01.038982  1809 net.cpp:382] data -> data
I1115 05:48:01.039000  1809 net.cpp:124] Setting up data
I1115 05:48:01.039006  1809 net.cpp:131] Top shape: 2 3 160 320 (307200)
I1115 05:48:01.039011  1809 net.cpp:139] Memory required for data: 116916228
I1115 05:48:01.039017  1809 layer_factory.hpp:77] Creating layer data_data_0_split
I1115 05:48:01.039024  1809 net.cpp:86] Creating Layer data_data_0_split
I1115 05:48:01.039029  1809 net.cpp:408] data_data_0_split <- data
I1115 05:48:01.039036  1809 net.cpp:382] data_data_0_split -> data_data_0_split_0
I1115 05:48:01.039043  1809 net.cpp:382] data_data_0_split -> data_data_0_split_1
I1115 05:48:01.039067  1809 net.cpp:124] Setting up data_data_0_split
I1115 05:48:01.039074  1809 net.cpp:131] Top shape: 2 3 160 320 (307200)
I1115 05:48:01.039080  1809 net.cpp:131] Top shape: 2 3 160 320 (307200)
I1115 05:48:01.039085  1809 net.cpp:139] Memory required for data: 119373828
I1115 05:48:01.039090  1809 layer_factory.hpp:77] Creating layer conv1_1
I1115 05:48:01.039099  1809 net.cpp:86] Creating Layer conv1_1
I1115 05:48:01.039104  1809 net.cpp:408] conv1_1 <- data_data_0_split_0
I1115 05:48:01.039111  1809 net.cpp:382] conv1_1 -> conv1_1
I1115 05:48:01.039361  1809 net.cpp:124] Setting up conv1_1
I1115 05:48:01.039371  1809 net.cpp:131] Top shape: 2 64 358 518 (23736832)
I1115 05:48:01.039376  1809 net.cpp:139] Memory required for data: 214321156
I1115 05:48:01.039387  1809 layer_factory.hpp:77] Creating layer relu1_1
I1115 05:48:01.039394  1809 net.cpp:86] Creating Layer relu1_1
I1115 05:48:01.039399  1809 net.cpp:408] relu1_1 <- conv1_1
I1115 05:48:01.039407  1809 net.cpp:369] relu1_1 -> conv1_1 (in-place)
I1115 05:48:01.039413  1809 net.cpp:124] Setting up relu1_1
I1115 05:48:01.039419  1809 net.cpp:131] Top shape: 2 64 358 518 (23736832)
I1115 05:48:01.039424  1809 net.cpp:139] Memory required for data: 309268484
I1115 05:48:01.039429  1809 layer_factory.hpp:77] Creating layer conv1_2
I1115 05:48:01.039438  1809 net.cpp:86] Creating Layer conv1_2
I1115 05:48:01.039443  1809 net.cpp:408] conv1_2 <- conv1_1
I1115 05:48:01.039450  1809 net.cpp:382] conv1_2 -> conv1_2
I1115 05:48:01.039749  1809 net.cpp:124] Setting up conv1_2
I1115 05:48:01.039777  1809 net.cpp:131] Top shape: 2 64 358 518 (23736832)
I1115 05:48:01.039782  1809 net.cpp:139] Memory required for data: 404215812
I1115 05:48:01.039789  1809 layer_factory.hpp:77] Creating layer relu1_2
I1115 05:48:01.039796  1809 net.cpp:86] Creating Layer relu1_2
I1115 05:48:01.039801  1809 net.cpp:408] relu1_2 <- conv1_2
I1115 05:48:01.039808  1809 net.cpp:369] relu1_2 -> conv1_2 (in-place)
I1115 05:48:01.039814  1809 net.cpp:124] Setting up relu1_2
I1115 05:48:01.039820  1809 net.cpp:131] Top shape: 2 64 358 518 (23736832)
I1115 05:48:01.039825  1809 net.cpp:139] Memory required for data: 499163140
I1115 05:48:01.039830  1809 layer_factory.hpp:77] Creating layer pool1
I1115 05:48:01.039839  1809 net.cpp:86] Creating Layer pool1
I1115 05:48:01.039844  1809 net.cpp:408] pool1 <- conv1_2
I1115 05:48:01.039850  1809 net.cpp:382] pool1 -> pool1
I1115 05:48:01.039883  1809 net.cpp:124] Setting up pool1
I1115 05:48:01.039891  1809 net.cpp:131] Top shape: 2 64 179 259 (5934208)
I1115 05:48:01.039896  1809 net.cpp:139] Memory required for data: 522899972
I1115 05:48:01.039901  1809 layer_factory.hpp:77] Creating layer conv2_1
I1115 05:48:01.039909  1809 net.cpp:86] Creating Layer conv2_1
I1115 05:48:01.039916  1809 net.cpp:408] conv2_1 <- pool1
I1115 05:48:01.039921  1809 net.cpp:382] conv2_1 -> conv2_1
I1115 05:48:01.041330  1809 net.cpp:124] Setting up conv2_1
I1115 05:48:01.041344  1809 net.cpp:131] Top shape: 2 128 179 259 (11868416)
I1115 05:48:01.041350  1809 net.cpp:139] Memory required for data: 570373636
I1115 05:48:01.041358  1809 layer_factory.hpp:77] Creating layer relu2_1
I1115 05:48:01.041366  1809 net.cpp:86] Creating Layer relu2_1
I1115 05:48:01.041373  1809 net.cpp:408] relu2_1 <- conv2_1
I1115 05:48:01.041380  1809 net.cpp:369] relu2_1 -> conv2_1 (in-place)
I1115 05:48:01.041388  1809 net.cpp:124] Setting up relu2_1
I1115 05:48:01.041394  1809 net.cpp:131] Top shape: 2 128 179 259 (11868416)
I1115 05:48:01.041399  1809 net.cpp:139] Memory required for data: 617847300
I1115 05:48:01.041405  1809 layer_factory.hpp:77] Creating layer conv2_2
I1115 05:48:01.041414  1809 net.cpp:86] Creating Layer conv2_2
I1115 05:48:01.041419  1809 net.cpp:408] conv2_2 <- conv2_1
I1115 05:48:01.041427  1809 net.cpp:382] conv2_2 -> conv2_2
I1115 05:48:01.041704  1809 net.cpp:124] Setting up conv2_2
I1115 05:48:01.041714  1809 net.cpp:131] Top shape: 2 128 179 259 (11868416)
I1115 05:48:01.041719  1809 net.cpp:139] Memory required for data: 665320964
I1115 05:48:01.041728  1809 layer_factory.hpp:77] Creating layer relu2_2
I1115 05:48:01.041734  1809 net.cpp:86] Creating Layer relu2_2
I1115 05:48:01.041740  1809 net.cpp:408] relu2_2 <- conv2_2
I1115 05:48:01.041748  1809 net.cpp:369] relu2_2 -> conv2_2 (in-place)
I1115 05:48:01.041754  1809 net.cpp:124] Setting up relu2_2
I1115 05:48:01.041760  1809 net.cpp:131] Top shape: 2 128 179 259 (11868416)
I1115 05:48:01.041766  1809 net.cpp:139] Memory required for data: 712794628
I1115 05:48:01.041771  1809 layer_factory.hpp:77] Creating layer pool2
I1115 05:48:01.041798  1809 net.cpp:86] Creating Layer pool2
I1115 05:48:01.041805  1809 net.cpp:408] pool2 <- conv2_2
I1115 05:48:01.041811  1809 net.cpp:382] pool2 -> pool2
I1115 05:48:01.041841  1809 net.cpp:124] Setting up pool2
I1115 05:48:01.041848  1809 net.cpp:131] Top shape: 2 128 90 130 (2995200)
I1115 05:48:01.041853  1809 net.cpp:139] Memory required for data: 724775428
I1115 05:48:01.041858  1809 layer_factory.hpp:77] Creating layer conv3_1
I1115 05:48:01.041867  1809 net.cpp:86] Creating Layer conv3_1
I1115 05:48:01.041872  1809 net.cpp:408] conv3_1 <- pool2
I1115 05:48:01.041879  1809 net.cpp:382] conv3_1 -> conv3_1
I1115 05:48:01.043382  1809 net.cpp:124] Setting up conv3_1
I1115 05:48:01.043396  1809 net.cpp:131] Top shape: 2 256 90 130 (5990400)
I1115 05:48:01.043401  1809 net.cpp:139] Memory required for data: 748737028
I1115 05:48:01.043409  1809 layer_factory.hpp:77] Creating layer relu3_1
I1115 05:48:01.043416  1809 net.cpp:86] Creating Layer relu3_1
I1115 05:48:01.043422  1809 net.cpp:408] relu3_1 <- conv3_1
I1115 05:48:01.043429  1809 net.cpp:369] relu3_1 -> conv3_1 (in-place)
I1115 05:48:01.043437  1809 net.cpp:124] Setting up relu3_1
I1115 05:48:01.043443  1809 net.cpp:131] Top shape: 2 256 90 130 (5990400)
I1115 05:48:01.043448  1809 net.cpp:139] Memory required for data: 772698628
I1115 05:48:01.043453  1809 layer_factory.hpp:77] Creating layer conv3_2
I1115 05:48:01.043468  1809 net.cpp:86] Creating Layer conv3_2
I1115 05:48:01.043491  1809 net.cpp:408] conv3_2 <- conv3_1
I1115 05:48:01.043498  1809 net.cpp:382] conv3_2 -> conv3_2
I1115 05:48:01.045331  1809 net.cpp:124] Setting up conv3_2
I1115 05:48:01.045346  1809 net.cpp:131] Top shape: 2 256 90 130 (5990400)
I1115 05:48:01.045352  1809 net.cpp:139] Memory required for data: 796660228
I1115 05:48:01.045361  1809 layer_factory.hpp:77] Creating layer relu3_2
I1115 05:48:01.045368  1809 net.cpp:86] Creating Layer relu3_2
I1115 05:48:01.045373  1809 net.cpp:408] relu3_2 <- conv3_2
I1115 05:48:01.045382  1809 net.cpp:369] relu3_2 -> conv3_2 (in-place)
I1115 05:48:01.045389  1809 net.cpp:124] Setting up relu3_2
I1115 05:48:01.045395  1809 net.cpp:131] Top shape: 2 256 90 130 (5990400)
I1115 05:48:01.045400  1809 net.cpp:139] Memory required for data: 820621828
I1115 05:48:01.045405  1809 layer_factory.hpp:77] Creating layer conv3_3
I1115 05:48:01.045414  1809 net.cpp:86] Creating Layer conv3_3
I1115 05:48:01.045419  1809 net.cpp:408] conv3_3 <- conv3_2
I1115 05:48:01.045428  1809 net.cpp:382] conv3_3 -> conv3_3
I1115 05:48:01.047310  1809 net.cpp:124] Setting up conv3_3
I1115 05:48:01.047324  1809 net.cpp:131] Top shape: 2 256 90 130 (5990400)
I1115 05:48:01.047330  1809 net.cpp:139] Memory required for data: 844583428
I1115 05:48:01.047338  1809 layer_factory.hpp:77] Creating layer relu3_3
I1115 05:48:01.047346  1809 net.cpp:86] Creating Layer relu3_3
I1115 05:48:01.047351  1809 net.cpp:408] relu3_3 <- conv3_3
I1115 05:48:01.047359  1809 net.cpp:369] relu3_3 -> conv3_3 (in-place)
I1115 05:48:01.047366  1809 net.cpp:124] Setting up relu3_3
I1115 05:48:01.047374  1809 net.cpp:131] Top shape: 2 256 90 130 (5990400)
I1115 05:48:01.047379  1809 net.cpp:139] Memory required for data: 868545028
I1115 05:48:01.047384  1809 layer_factory.hpp:77] Creating layer pool3
I1115 05:48:01.047392  1809 net.cpp:86] Creating Layer pool3
I1115 05:48:01.047397  1809 net.cpp:408] pool3 <- conv3_3
I1115 05:48:01.047405  1809 net.cpp:382] pool3 -> pool3
I1115 05:48:01.047435  1809 net.cpp:124] Setting up pool3
I1115 05:48:01.047442  1809 net.cpp:131] Top shape: 2 256 45 65 (1497600)
I1115 05:48:01.047447  1809 net.cpp:139] Memory required for data: 874535428
I1115 05:48:01.047452  1809 layer_factory.hpp:77] Creating layer pool3_pool3_0_split
I1115 05:48:01.047464  1809 net.cpp:86] Creating Layer pool3_pool3_0_split
I1115 05:48:01.047471  1809 net.cpp:408] pool3_pool3_0_split <- pool3
I1115 05:48:01.047477  1809 net.cpp:382] pool3_pool3_0_split -> pool3_pool3_0_split_0
I1115 05:48:01.047484  1809 net.cpp:382] pool3_pool3_0_split -> pool3_pool3_0_split_1
I1115 05:48:01.047511  1809 net.cpp:124] Setting up pool3_pool3_0_split
I1115 05:48:01.047521  1809 net.cpp:131] Top shape: 2 256 45 65 (1497600)
I1115 05:48:01.047528  1809 net.cpp:131] Top shape: 2 256 45 65 (1497600)
I1115 05:48:01.047533  1809 net.cpp:139] Memory required for data: 886516228
I1115 05:48:01.047538  1809 layer_factory.hpp:77] Creating layer conv4_1
I1115 05:48:01.047546  1809 net.cpp:86] Creating Layer conv4_1
I1115 05:48:01.047552  1809 net.cpp:408] conv4_1 <- pool3_pool3_0_split_0
I1115 05:48:01.047559  1809 net.cpp:382] conv4_1 -> conv4_1
I1115 05:48:01.051133  1809 net.cpp:124] Setting up conv4_1
I1115 05:48:01.051167  1809 net.cpp:131] Top shape: 2 512 45 65 (2995200)
I1115 05:48:01.051173  1809 net.cpp:139] Memory required for data: 898497028
I1115 05:48:01.051187  1809 layer_factory.hpp:77] Creating layer relu4_1
I1115 05:48:01.051199  1809 net.cpp:86] Creating Layer relu4_1
I1115 05:48:01.051208  1809 net.cpp:408] relu4_1 <- conv4_1
I1115 05:48:01.051218  1809 net.cpp:369] relu4_1 -> conv4_1 (in-place)
I1115 05:48:01.051231  1809 net.cpp:124] Setting up relu4_1
I1115 05:48:01.051239  1809 net.cpp:131] Top shape: 2 512 45 65 (2995200)
I1115 05:48:01.051244  1809 net.cpp:139] Memory required for data: 910477828
I1115 05:48:01.051249  1809 layer_factory.hpp:77] Creating layer conv4_2
I1115 05:48:01.051262  1809 net.cpp:86] Creating Layer conv4_2
I1115 05:48:01.051270  1809 net.cpp:408] conv4_2 <- conv4_1
I1115 05:48:01.051277  1809 net.cpp:382] conv4_2 -> conv4_2
I1115 05:48:01.056490  1809 net.cpp:124] Setting up conv4_2
I1115 05:48:01.056509  1809 net.cpp:131] Top shape: 2 512 45 65 (2995200)
I1115 05:48:01.056514  1809 net.cpp:139] Memory required for data: 922458628
I1115 05:48:01.056524  1809 layer_factory.hpp:77] Creating layer relu4_2
I1115 05:48:01.056535  1809 net.cpp:86] Creating Layer relu4_2
I1115 05:48:01.056540  1809 net.cpp:408] relu4_2 <- conv4_2
I1115 05:48:01.056550  1809 net.cpp:369] relu4_2 -> conv4_2 (in-place)
I1115 05:48:01.056558  1809 net.cpp:124] Setting up relu4_2
I1115 05:48:01.056565  1809 net.cpp:131] Top shape: 2 512 45 65 (2995200)
I1115 05:48:01.056571  1809 net.cpp:139] Memory required for data: 934439428
I1115 05:48:01.056576  1809 layer_factory.hpp:77] Creating layer conv4_3
I1115 05:48:01.056587  1809 net.cpp:86] Creating Layer conv4_3
I1115 05:48:01.056593  1809 net.cpp:408] conv4_3 <- conv4_2
I1115 05:48:01.056602  1809 net.cpp:382] conv4_3 -> conv4_3
I1115 05:48:01.061451  1809 net.cpp:124] Setting up conv4_3
I1115 05:48:01.061473  1809 net.cpp:131] Top shape: 2 512 45 65 (2995200)
I1115 05:48:01.061480  1809 net.cpp:139] Memory required for data: 946420228
I1115 05:48:01.061488  1809 layer_factory.hpp:77] Creating layer relu4_3
I1115 05:48:01.061497  1809 net.cpp:86] Creating Layer relu4_3
I1115 05:48:01.061503  1809 net.cpp:408] relu4_3 <- conv4_3
I1115 05:48:01.061512  1809 net.cpp:369] relu4_3 -> conv4_3 (in-place)
I1115 05:48:01.061520  1809 net.cpp:124] Setting up relu4_3
I1115 05:48:01.061527  1809 net.cpp:131] Top shape: 2 512 45 65 (2995200)
I1115 05:48:01.061533  1809 net.cpp:139] Memory required for data: 958401028
I1115 05:48:01.061538  1809 layer_factory.hpp:77] Creating layer pool4
I1115 05:48:01.061548  1809 net.cpp:86] Creating Layer pool4
I1115 05:48:01.061554  1809 net.cpp:408] pool4 <- conv4_3
I1115 05:48:01.061563  1809 net.cpp:382] pool4 -> pool4
I1115 05:48:01.061600  1809 net.cpp:124] Setting up pool4
I1115 05:48:01.061609  1809 net.cpp:131] Top shape: 2 512 23 33 (777216)
I1115 05:48:01.061614  1809 net.cpp:139] Memory required for data: 961509892
I1115 05:48:01.061619  1809 layer_factory.hpp:77] Creating layer pool4_pool4_0_split
I1115 05:48:01.061628  1809 net.cpp:86] Creating Layer pool4_pool4_0_split
I1115 05:48:01.061635  1809 net.cpp:408] pool4_pool4_0_split <- pool4
I1115 05:48:01.061641  1809 net.cpp:382] pool4_pool4_0_split -> pool4_pool4_0_split_0
I1115 05:48:01.061650  1809 net.cpp:382] pool4_pool4_0_split -> pool4_pool4_0_split_1
I1115 05:48:01.061677  1809 net.cpp:124] Setting up pool4_pool4_0_split
I1115 05:48:01.061686  1809 net.cpp:131] Top shape: 2 512 23 33 (777216)
I1115 05:48:01.061697  1809 net.cpp:131] Top shape: 2 512 23 33 (777216)
I1115 05:48:01.061702  1809 net.cpp:139] Memory required for data: 967727620
I1115 05:48:01.061707  1809 layer_factory.hpp:77] Creating layer conv5_1
I1115 05:48:01.061717  1809 net.cpp:86] Creating Layer conv5_1
I1115 05:48:01.061723  1809 net.cpp:408] conv5_1 <- pool4_pool4_0_split_0
I1115 05:48:01.061733  1809 net.cpp:382] conv5_1 -> conv5_1
I1115 05:48:01.068298  1809 net.cpp:124] Setting up conv5_1
I1115 05:48:01.068315  1809 net.cpp:131] Top shape: 2 512 23 33 (777216)
I1115 05:48:01.068321  1809 net.cpp:139] Memory required for data: 970836484
I1115 05:48:01.068331  1809 layer_factory.hpp:77] Creating layer relu5_1
I1115 05:48:01.068339  1809 net.cpp:86] Creating Layer relu5_1
I1115 05:48:01.068346  1809 net.cpp:408] relu5_1 <- conv5_1
I1115 05:48:01.068353  1809 net.cpp:369] relu5_1 -> conv5_1 (in-place)
I1115 05:48:01.068362  1809 net.cpp:124] Setting up relu5_1
I1115 05:48:01.068369  1809 net.cpp:131] Top shape: 2 512 23 33 (777216)
I1115 05:48:01.068374  1809 net.cpp:139] Memory required for data: 973945348
I1115 05:48:01.068380  1809 layer_factory.hpp:77] Creating layer conv5_2
I1115 05:48:01.068390  1809 net.cpp:86] Creating Layer conv5_2
I1115 05:48:01.068397  1809 net.cpp:408] conv5_2 <- conv5_1
I1115 05:48:01.068404  1809 net.cpp:382] conv5_2 -> conv5_2
I1115 05:48:01.074188  1809 net.cpp:124] Setting up conv5_2
I1115 05:48:01.074204  1809 net.cpp:131] Top shape: 2 512 23 33 (777216)
I1115 05:48:01.074210  1809 net.cpp:139] Memory required for data: 977054212
I1115 05:48:01.074218  1809 layer_factory.hpp:77] Creating layer relu5_2
I1115 05:48:01.074229  1809 net.cpp:86] Creating Layer relu5_2
I1115 05:48:01.074234  1809 net.cpp:408] relu5_2 <- conv5_2
I1115 05:48:01.074242  1809 net.cpp:369] relu5_2 -> conv5_2 (in-place)
I1115 05:48:01.074250  1809 net.cpp:124] Setting up relu5_2
I1115 05:48:01.074257  1809 net.cpp:131] Top shape: 2 512 23 33 (777216)
I1115 05:48:01.074262  1809 net.cpp:139] Memory required for data: 980163076
I1115 05:48:01.074268  1809 layer_factory.hpp:77] Creating layer conv5_3
I1115 05:48:01.074280  1809 net.cpp:86] Creating Layer conv5_3
I1115 05:48:01.074285  1809 net.cpp:408] conv5_3 <- conv5_2
I1115 05:48:01.074292  1809 net.cpp:382] conv5_3 -> conv5_3
I1115 05:48:01.080061  1809 net.cpp:124] Setting up conv5_3
I1115 05:48:01.080077  1809 net.cpp:131] Top shape: 2 512 23 33 (777216)
I1115 05:48:01.080083  1809 net.cpp:139] Memory required for data: 983271940
I1115 05:48:01.080092  1809 layer_factory.hpp:77] Creating layer relu5_3
I1115 05:48:01.080102  1809 net.cpp:86] Creating Layer relu5_3
I1115 05:48:01.080108  1809 net.cpp:408] relu5_3 <- conv5_3
I1115 05:48:01.080116  1809 net.cpp:369] relu5_3 -> conv5_3 (in-place)
I1115 05:48:01.080126  1809 net.cpp:124] Setting up relu5_3
I1115 05:48:01.080132  1809 net.cpp:131] Top shape: 2 512 23 33 (777216)
I1115 05:48:01.080137  1809 net.cpp:139] Memory required for data: 986380804
I1115 05:48:01.080142  1809 layer_factory.hpp:77] Creating layer pool5
I1115 05:48:01.080152  1809 net.cpp:86] Creating Layer pool5
I1115 05:48:01.080158  1809 net.cpp:408] pool5 <- conv5_3
I1115 05:48:01.080166  1809 net.cpp:382] pool5 -> pool5
I1115 05:48:01.080209  1809 net.cpp:124] Setting up pool5
I1115 05:48:01.080217  1809 net.cpp:131] Top shape: 2 512 12 17 (208896)
I1115 05:48:01.080222  1809 net.cpp:139] Memory required for data: 987216388
I1115 05:48:01.080229  1809 layer_factory.hpp:77] Creating layer fc6
I1115 05:48:01.080238  1809 net.cpp:86] Creating Layer fc6
I1115 05:48:01.080245  1809 net.cpp:408] fc6 <- pool5
I1115 05:48:01.080253  1809 net.cpp:382] fc6 -> fc6
I1115 05:48:01.360069  1809 net.cpp:124] Setting up fc6
I1115 05:48:01.360116  1809 net.cpp:131] Top shape: 2 4096 6 11 (540672)
I1115 05:48:01.360121  1809 net.cpp:139] Memory required for data: 989379076
I1115 05:48:01.360133  1809 layer_factory.hpp:77] Creating layer relu6
I1115 05:48:01.360148  1809 net.cpp:86] Creating Layer relu6
I1115 05:48:01.360157  1809 net.cpp:408] relu6 <- fc6
I1115 05:48:01.360175  1809 net.cpp:369] relu6 -> fc6 (in-place)
I1115 05:48:01.360188  1809 net.cpp:124] Setting up relu6
I1115 05:48:01.360195  1809 net.cpp:131] Top shape: 2 4096 6 11 (540672)
I1115 05:48:01.360200  1809 net.cpp:139] Memory required for data: 991541764
I1115 05:48:01.360206  1809 layer_factory.hpp:77] Creating layer fc7
I1115 05:48:01.360219  1809 net.cpp:86] Creating Layer fc7
I1115 05:48:01.360225  1809 net.cpp:408] fc7 <- fc6
I1115 05:48:01.360234  1809 net.cpp:382] fc7 -> fc7
I1115 05:48:01.406728  1809 net.cpp:124] Setting up fc7
I1115 05:48:01.406775  1809 net.cpp:131] Top shape: 2 4096 6 11 (540672)
I1115 05:48:01.406781  1809 net.cpp:139] Memory required for data: 993704452
I1115 05:48:01.406793  1809 layer_factory.hpp:77] Creating layer relu7
I1115 05:48:01.406810  1809 net.cpp:86] Creating Layer relu7
I1115 05:48:01.406817  1809 net.cpp:408] relu7 <- fc7
I1115 05:48:01.406828  1809 net.cpp:369] relu7 -> fc7 (in-place)
I1115 05:48:01.406841  1809 net.cpp:124] Setting up relu7
I1115 05:48:01.406848  1809 net.cpp:131] Top shape: 2 4096 6 11 (540672)
I1115 05:48:01.406853  1809 net.cpp:139] Memory required for data: 995867140
I1115 05:48:01.406859  1809 layer_factory.hpp:77] Creating layer score_fr
I1115 05:48:01.406873  1809 net.cpp:86] Creating Layer score_fr
I1115 05:48:01.406879  1809 net.cpp:408] score_fr <- fc7
I1115 05:48:01.406888  1809 net.cpp:382] score_fr -> score_fr
I1115 05:48:01.407197  1809 net.cpp:124] Setting up score_fr
I1115 05:48:01.407210  1809 net.cpp:131] Top shape: 2 19 6 11 (2508)
I1115 05:48:01.407215  1809 net.cpp:139] Memory required for data: 995877172
I1115 05:48:01.407224  1809 layer_factory.hpp:77] Creating layer upscore2
I1115 05:48:01.407236  1809 net.cpp:86] Creating Layer upscore2
I1115 05:48:01.407243  1809 net.cpp:408] upscore2 <- score_fr
I1115 05:48:01.407253  1809 net.cpp:382] upscore2 -> upscore2
I1115 05:48:01.407394  1809 net.cpp:124] Setting up upscore2
I1115 05:48:01.407404  1809 net.cpp:131] Top shape: 2 19 14 24 (12768)
I1115 05:48:01.407410  1809 net.cpp:139] Memory required for data: 995928244
I1115 05:48:01.407418  1809 layer_factory.hpp:77] Creating layer upscore2_upscore2_0_split
I1115 05:48:01.407428  1809 net.cpp:86] Creating Layer upscore2_upscore2_0_split
I1115 05:48:01.407434  1809 net.cpp:408] upscore2_upscore2_0_split <- upscore2
I1115 05:48:01.407443  1809 net.cpp:382] upscore2_upscore2_0_split -> upscore2_upscore2_0_split_0
I1115 05:48:01.407451  1809 net.cpp:382] upscore2_upscore2_0_split -> upscore2_upscore2_0_split_1
I1115 05:48:01.407503  1809 net.cpp:124] Setting up upscore2_upscore2_0_split
I1115 05:48:01.407512  1809 net.cpp:131] Top shape: 2 19 14 24 (12768)
I1115 05:48:01.407518  1809 net.cpp:131] Top shape: 2 19 14 24 (12768)
I1115 05:48:01.407523  1809 net.cpp:139] Memory required for data: 996030388
I1115 05:48:01.407528  1809 layer_factory.hpp:77] Creating layer score_pool4
I1115 05:48:01.407537  1809 net.cpp:86] Creating Layer score_pool4
I1115 05:48:01.407543  1809 net.cpp:408] score_pool4 <- pool4_pool4_0_split_1
I1115 05:48:01.407552  1809 net.cpp:382] score_pool4 -> score_pool4
I1115 05:48:01.407708  1809 net.cpp:124] Setting up score_pool4
I1115 05:48:01.407718  1809 net.cpp:131] Top shape: 2 19 23 33 (28842)
I1115 05:48:01.407723  1809 net.cpp:139] Memory required for data: 996145756
I1115 05:48:01.407732  1809 layer_factory.hpp:77] Creating layer score_pool4c
I1115 05:48:01.407752  1809 net.cpp:86] Creating Layer score_pool4c
I1115 05:48:01.407759  1809 net.cpp:408] score_pool4c <- score_pool4
I1115 05:48:01.407765  1809 net.cpp:408] score_pool4c <- upscore2_upscore2_0_split_0
I1115 05:48:01.407773  1809 net.cpp:382] score_pool4c -> score_pool4c
I1115 05:48:01.407852  1809 net.cpp:124] Setting up score_pool4c
I1115 05:48:01.407861  1809 net.cpp:131] Top shape: 2 19 14 24 (12768)
I1115 05:48:01.407866  1809 net.cpp:139] Memory required for data: 996196828
I1115 05:48:01.407872  1809 layer_factory.hpp:77] Creating layer fuse_pool4
I1115 05:48:01.407881  1809 net.cpp:86] Creating Layer fuse_pool4
I1115 05:48:01.407896  1809 net.cpp:408] fuse_pool4 <- upscore2_upscore2_0_split_1
I1115 05:48:01.407902  1809 net.cpp:408] fuse_pool4 <- score_pool4c
I1115 05:48:01.407909  1809 net.cpp:382] fuse_pool4 -> fuse_pool4
I1115 05:48:01.407930  1809 net.cpp:124] Setting up fuse_pool4
I1115 05:48:01.407939  1809 net.cpp:131] Top shape: 2 19 14 24 (12768)
I1115 05:48:01.407944  1809 net.cpp:139] Memory required for data: 996247900
I1115 05:48:01.407949  1809 layer_factory.hpp:77] Creating layer upscore_pool4
I1115 05:48:01.407959  1809 net.cpp:86] Creating Layer upscore_pool4
I1115 05:48:01.407965  1809 net.cpp:408] upscore_pool4 <- fuse_pool4
I1115 05:48:01.407974  1809 net.cpp:382] upscore_pool4 -> upscore_pool4
I1115 05:48:01.408100  1809 net.cpp:124] Setting up upscore_pool4
I1115 05:48:01.408110  1809 net.cpp:131] Top shape: 2 19 30 50 (57000)
I1115 05:48:01.408115  1809 net.cpp:139] Memory required for data: 996475900
I1115 05:48:01.408123  1809 layer_factory.hpp:77] Creating layer upscore_pool4_upscore_pool4_0_split
I1115 05:48:01.408131  1809 net.cpp:86] Creating Layer upscore_pool4_upscore_pool4_0_split
I1115 05:48:01.408136  1809 net.cpp:408] upscore_pool4_upscore_pool4_0_split <- upscore_pool4
I1115 05:48:01.408144  1809 net.cpp:382] upscore_pool4_upscore_pool4_0_split -> upscore_pool4_upscore_pool4_0_split_0
I1115 05:48:01.408152  1809 net.cpp:382] upscore_pool4_upscore_pool4_0_split -> upscore_pool4_upscore_pool4_0_split_1
I1115 05:48:01.408180  1809 net.cpp:124] Setting up upscore_pool4_upscore_pool4_0_split
I1115 05:48:01.408188  1809 net.cpp:131] Top shape: 2 19 30 50 (57000)
I1115 05:48:01.408195  1809 net.cpp:131] Top shape: 2 19 30 50 (57000)
I1115 05:48:01.408200  1809 net.cpp:139] Memory required for data: 996931900
I1115 05:48:01.408205  1809 layer_factory.hpp:77] Creating layer score_pool3
I1115 05:48:01.408215  1809 net.cpp:86] Creating Layer score_pool3
I1115 05:48:01.408219  1809 net.cpp:408] score_pool3 <- pool3_pool3_0_split_1
I1115 05:48:01.408227  1809 net.cpp:382] score_pool3 -> score_pool3
I1115 05:48:01.408385  1809 net.cpp:124] Setting up score_pool3
I1115 05:48:01.408396  1809 net.cpp:131] Top shape: 2 19 45 65 (111150)
I1115 05:48:01.408401  1809 net.cpp:139] Memory required for data: 997376500
I1115 05:48:01.408408  1809 layer_factory.hpp:77] Creating layer score_pool3c
I1115 05:48:01.408418  1809 net.cpp:86] Creating Layer score_pool3c
I1115 05:48:01.408423  1809 net.cpp:408] score_pool3c <- score_pool3
I1115 05:48:01.408430  1809 net.cpp:408] score_pool3c <- upscore_pool4_upscore_pool4_0_split_0
I1115 05:48:01.408437  1809 net.cpp:382] score_pool3c -> score_pool3c
I1115 05:48:01.408509  1809 net.cpp:124] Setting up score_pool3c
I1115 05:48:01.408517  1809 net.cpp:131] Top shape: 2 19 30 50 (57000)
I1115 05:48:01.408522  1809 net.cpp:139] Memory required for data: 997604500
I1115 05:48:01.408529  1809 layer_factory.hpp:77] Creating layer fuse_pool3
I1115 05:48:01.408535  1809 net.cpp:86] Creating Layer fuse_pool3
I1115 05:48:01.408541  1809 net.cpp:408] fuse_pool3 <- upscore_pool4_upscore_pool4_0_split_1
I1115 05:48:01.408547  1809 net.cpp:408] fuse_pool3 <- score_pool3c
I1115 05:48:01.408555  1809 net.cpp:382] fuse_pool3 -> fuse_pool3
I1115 05:48:01.408576  1809 net.cpp:124] Setting up fuse_pool3
I1115 05:48:01.408583  1809 net.cpp:131] Top shape: 2 19 30 50 (57000)
I1115 05:48:01.408588  1809 net.cpp:139] Memory required for data: 997832500
I1115 05:48:01.408594  1809 layer_factory.hpp:77] Creating layer upscore8
I1115 05:48:01.408603  1809 net.cpp:86] Creating Layer upscore8
I1115 05:48:01.408609  1809 net.cpp:408] upscore8 <- fuse_pool3
I1115 05:48:01.408617  1809 net.cpp:382] upscore8 -> upscore8
I1115 05:48:01.408819  1809 net.cpp:124] Setting up upscore8
I1115 05:48:01.408829  1809 net.cpp:131] Top shape: 2 19 248 408 (3844992)
I1115 05:48:01.408834  1809 net.cpp:139] Memory required for data: 1013212468
I1115 05:48:01.408841  1809 layer_factory.hpp:77] Creating layer score
I1115 05:48:01.408849  1809 net.cpp:86] Creating Layer score
I1115 05:48:01.408855  1809 net.cpp:408] score <- upscore8
I1115 05:48:01.408865  1809 net.cpp:408] score <- data_data_0_split_1
I1115 05:48:01.408874  1809 net.cpp:382] score -> score
I1115 05:48:01.408941  1809 net.cpp:124] Setting up score
I1115 05:48:01.408949  1809 net.cpp:131] Top shape: 2 19 160 320 (1945600)
I1115 05:48:01.408954  1809 net.cpp:139] Memory required for data: 1020994868
I1115 05:48:01.408960  1809 layer_factory.hpp:77] Creating layer loss
I1115 05:48:01.408974  1809 net.cpp:86] Creating Layer loss
I1115 05:48:01.408980  1809 net.cpp:408] loss <- score
I1115 05:48:01.408987  1809 net.cpp:408] loss <- fakelabel
I1115 05:48:01.408994  1809 net.cpp:382] loss -> loss
I1115 05:48:01.409009  1809 layer_factory.hpp:77] Creating layer loss
…
