…
I1114 15:57:15.770110 42195 solver.cpp:92] Creating training net from train_net file: adv_train.prototxt
I1114 15:57:15.772132 42195 net.cpp:53] Initializing net from parameters: 
state {
  phase: TRAIN
}
layer {
  name: "data1"
  type: "Python"
  top: "data1"
  top: "label"
  top: "fakelabel"
  python_param {
    module: "adv_mapillary_layer"
    layer: "MapillaryLayer"
    param_str: "{\'img_dir\': \'/l/vision/v5/chen478/Fall2018/mapillary/training/images/\', \'label_dir\': \'/l/vision/v5/chen478/Fall2018/fcn.mapillary/results/seg_res_train/\', \'seed\': 1337, \'mean\': (71.60167789, 82.09696889, 72.30608881)}"
  }
}
layer {
  name: "conv1"
  type: "Convolution"
  bottom: "data1"
  top: "conv1"
  convolution_param {
    num_output: 64
    pad: 0
    kernel_size: 3
    stride: 2
    weight_filler {
      type: "xavier"
    }
  }
}
layer {
  name: "bn1"
  type: "BatchNorm"
  bottom: "conv1"
  top: "bn1"
  batch_norm_param {
    use_global_stats: false
  }
}
layer {
  name: "scale1"
  type: "Scale"
  bottom: "bn1"
  top: "bn1"
  scale_param {
    bias_term: true
  }
}
layer {
  name: "relu1"
  type: "ReLU"
  bottom: "bn1"
  top: "bn1"
}
layer {
  name: "conv2"
  type: "Convolution"
  bottom: "bn1"
  top: "conv2"
  convolution_param {
    num_output: 128
    pad: 0
    kernel_size: 5
    stride: 2
    weight_filler {
      type: "xavier"
    }
  }
}
layer {
  name: "bn2"
  type: "BatchNorm"
  bottom: "conv2"
  top: "bn2"
  batch_norm_param {
    use_global_stats: false
  }
}
layer {
  name: "scale2"
  type: "Scale"
  bottom: "bn2"
  top: "bn2"
  scale_param {
    bias_term: true
  }
}
layer {
  name: "relu2"
  type: "ReLU"
  bottom: "bn2"
  top: "bn2"
}
layer {
  name: "conv3"
  type: "Convolution"
  bottom: "bn2"
  top: "conv3"
  convolution_param {
    num_output: 256
    pad: 0
    kernel_size: 5
    stride: 2
    weight_filler {
      type: "xavier"
    }
  }
}
layer {
  name: "bn3"
  type: "BatchNorm"
  bottom: "conv3"
  top: "bn3"
  batch_norm_param {
    use_global_stats: false
  }
}
layer {
  name: "scale3"
  type: "Scale"
  bottom: "bn3"
  top: "bn3"
  scale_param {
    bias_term: true
  }
}
layer {
  name: "relu3"
  type: "ReLU"
  bottom: "bn3"
  top: "bn3"
}
layer {
  name: "conv4"
  type: "Convolution"
  bottom: "bn3"
  top: "conv4"
  convolution_param {
    num_output: 512
    pad: 0
    kernel_size: 3
    stride: 1
    weight_filler {
      type: "xavier"
    }
  }
}
layer {
  name: "bn4"
  type: "BatchNorm"
  bottom: "conv4"
  top: "bn4"
  batch_norm_param {
    use_global_stats: false
  }
}
layer {
  name: "scale4"
  type: "Scale"
  bottom: "bn4"
  top: "bn4"
  scale_param {
    bias_term: true
  }
}
layer {
  name: "relu4"
  type: "ReLU"
  bottom: "bn4"
  top: "bn4"
}
layer {
  name: "embed_conv2"
  type: "Deconvolution"
  bottom: "bn4"
  top: "embed_conv2"
  convolution_param {
    num_output: 256
    pad: 0
    kernel_size: 3
    stride: 1
    weight_filler {
      type: "xavier"
    }
  }
}
layer {
  name: "embed_bn2"
  type: "BatchNorm"
  bottom: "embed_conv2"
  top: "embed_bn2"
  batch_norm_param {
    use_global_stats: false
  }
}
layer {
  name: "embed_scale2"
  type: "Scale"
  bottom: "embed_bn2"
  top: "embed_bn2"
  scale_param {
    bias_term: true
  }
}
layer {
  name: "embed_relu2"
  type: "ReLU"
  bottom: "embed_bn2"
  top: "embed_bn2"
}
layer {
  name: "concat1"
  type: "Concat"
  bottom: "bn3"
  bottom: "embed_bn2"
  top: "concat1"
  concat_param {
    axis: 1
  }
}
layer {
  name: "embed_conv3"
  type: "Deconvolution"
  bottom: "concat1"
  top: "embed_conv3"
  convolution_param {
    num_output: 128
    pad: 0
    kernel_size: 6
    stride: 2
    weight_filler {
      type: "xavier"
    }
  }
}
layer {
  name: "embed_bn3"
  type: "BatchNorm"
  bottom: "embed_conv3"
  top: "embed_bn3"
  batch_norm_param {
    use_global_stats: false
  }
}
layer {
  name: "embed_scale3"
  type: "Scale"
  bottom: "embed_bn3"
  top: "embed_bn3"
  scale_param {
    bias_term: true
  }
}
layer {
  name: "embed_relu3"
  type: "ReLU"
  bottom: "embed_bn3"
  top: "embed_bn3"
}
layer {
  name: "concat2"
  type: "Concat"
  bottom: "bn2"
  bottom: "embed_bn3"
  top: "concat2"
  concat_param {
    axis: 1
  }
}
layer {
  name: "embed_conv4"
  type: "Deconvolution"
  bottom: "concat2"
  top: "embed_conv4"
  convolution_param {
    num_output: 64
    pad: 0
    kernel_size: 5
    stride: 2
    weight_filler {
      type: "xavier"
    }
  }
}
layer {
  name: "embed_bn4"
  type: "BatchNorm"
  bottom: "embed_conv4"
  top: "embed_bn4"
  batch_norm_param {
    use_global_stats: false
  }
}
layer {
  name: "embed_scale4"
  type: "Scale"
  bottom: "embed_bn4"
  top: "embed_bn4"
  scale_param {
    bias_term: true
  }
}
layer {
  name: "embed_relu4"
  type: "ReLU"
  bottom: "embed_bn4"
  top: "embed_bn4"
}
layer {
  name: "concat3"
  type: "Concat"
  bottom: "bn1"
  bottom: "embed_bn4"
  top: "concat3"
  concat_param {
    axis: 1
  }
}
layer {
  name: "seg"
  type: "Deconvolution"
  bottom: "concat3"
  top: "seg"
  convolution_param {
    num_output: 19
    pad: 0
    kernel_size: 4
    stride: 2
    weight_filler {
      type: "xavier"
    }
  }
}
layer {
  name: "seg_bn"
  type: "BatchNorm"
  bottom: "seg"
  top: "seg_bn"
  batch_norm_param {
    use_global_stats: false
  }
}
layer {
  name: "seg_scale"
  type: "Scale"
  bottom: "seg_bn"
  top: "seg_bn"
  scale_param {
    bias_term: true
  }
}
layer {
  name: "reg_loss"
  type: "SoftmaxWithLoss"
  bottom: "seg_bn"
  bottom: "label"
  top: "reg_loss"
  loss_weight: 0.01
  loss_param {
    ignore_label: 255
    normalize: false
  }
}
layer {
  name: "embed_conv5"
  type: "Deconvolution"
  bottom: "concat3"
  top: "embed_conv5"
  convolution_param {
    num_output: 3
    pad: 0
    kernel_size: 4
    stride: 2
    weight_filler {
      type: "xavier"
    }
  }
}
layer {
  name: "embed_bn5"
  type: "BatchNorm"
  bottom: "embed_conv5"
  top: "embed_bn5"
  batch_norm_param {
    use_global_stats: false
  }
}
layer {
  name: "embed_scale5"
  type: "Scale"
  bottom: "embed_bn5"
  top: "embed_bn5"
  scale_param {
    bias_term: true
  }
}
layer {
  name: "mask"
  type: "RandVec"
  top: "mask"
  rand_vec_param {
    batch_size: 2
    dim: 3
    height: 160
    width: 320
  }
}
layer {
  name: "masked"
  type: "Eltwise"
  bottom: "embed_bn5"
  bottom: "mask"
  top: "masked"
  eltwise_param {
    operation: PROD
  }
}
layer {
  name: "data"
  type: "Eltwise"
  bottom: "data1"
  bottom: "masked"
  top: "data"
  eltwise_param {
    operation: SUM
  }
}
layer {
  name: "conv1_1"
  type: "Convolution"
  bottom: "data"
  top: "conv1_1"
  param {
    lr_mult: 0
    decay_mult: 1
  }
  param {
    lr_mult: 0
    decay_mult: 0
  }
  convolution_param {
    num_output: 64
    pad: 100
    kernel_size: 3
    stride: 1
  }
}
layer {
  name: "relu1_1"
  type: "ReLU"
  bottom: "conv1_1"
  top: "conv1_1"
}
layer {
  name: "conv1_2"
  type: "Convolution"
  bottom: "conv1_1"
  top: "conv1_2"
  param {
    lr_mult: 0
    decay_mult: 1
  }
  param {
    lr_mult: 0
    decay_mult: 0
  }
  convolution_param {
    num_output: 64
    pad: 1
    kernel_size: 3
    stride: 1
  }
}
layer {
  name: "relu1_2"
  type: "ReLU"
  bottom: "conv1_2"
  top: "conv1_2"
}
layer {
  name: "pool1"
  type: "Pooling"
  bottom: "conv1_2"
  top: "pool1"
  pooling_param {
    pool: MAX
    kernel_size: 2
    stride: 2
  }
}
layer {
  name: "conv2_1"
  type: "Convolution"
  bottom: "pool1"
  top: "conv2_1"
  param {
    lr_mult: 0
    decay_mult: 1
  }
  param {
    lr_mult: 0
    decay_mult: 0
  }
  convolution_param {
    num_output: 128
    pad: 1
    kernel_size: 3
    stride: 1
  }
}
layer {
  name: "relu2_1"
  type: "ReLU"
  bottom: "conv2_1"
  top: "conv2_1"
}
layer {
  name: "conv2_2"
  type: "Convolution"
  bottom: "conv2_1"
  top: "conv2_2"
  param {
    lr_mult: 0
    decay_mult: 1
  }
  param {
    lr_mult: 0
    decay_mult: 0
  }
  convolution_param {
    num_output: 128
    pad: 1
    kernel_size: 3
    stride: 1
  }
}
layer {
  name: "relu2_2"
  type: "ReLU"
  bottom: "conv2_2"
  top: "conv2_2"
}
layer {
  name: "pool2"
  type: "Pooling"
  bottom: "conv2_2"
  top: "pool2"
  pooling_param {
    pool: MAX
    kernel_size: 2
    stride: 2
  }
}
layer {
  name: "conv3_1"
  type: "Convolution"
  bottom: "pool2"
  top: "conv3_1"
  param {
    lr_mult: 0
    decay_mult: 1
  }
  param {
    lr_mult: 0
    decay_mult: 0
  }
  convolution_param {
    num_output: 256
    pad: 1
    kernel_size: 3
    stride: 1
  }
}
layer {
  name: "relu3_1"
  type: "ReLU"
  bottom: "conv3_1"
  top: "conv3_1"
}
layer {
  name: "conv3_2"
  type: "Convolution"
  bottom: "conv3_1"
  top: "conv3_2"
  param {
    lr_mult: 0
    decay_mult: 1
  }
  param {
    lr_mult: 0
    decay_mult: 0
  }
  convolution_param {
    num_output: 256
    pad: 1
    kernel_size: 3
    stride: 1
  }
}
layer {
  name: "relu3_2"
  type: "ReLU"
  bottom: "conv3_2"
  top: "conv3_2"
}
layer {
  name: "conv3_3"
  type: "Convolution"
  bottom: "conv3_2"
  top: "conv3_3"
  param {
    lr_mult: 0
    decay_mult: 1
  }
  param {
    lr_mult: 0
    decay_mult: 0
  }
  convolution_param {
    num_output: 256
    pad: 1
    kernel_size: 3
    stride: 1
  }
}
layer {
  name: "relu3_3"
  type: "ReLU"
  bottom: "conv3_3"
  top: "conv3_3"
}
layer {
  name: "pool3"
  type: "Pooling"
  bottom: "conv3_3"
  top: "pool3"
  pooling_param {
    pool: MAX
    kernel_size: 2
    stride: 2
  }
}
layer {
  name: "conv4_1"
  type: "Convolution"
  bottom: "pool3"
  top: "conv4_1"
  param {
    lr_mult: 0
    decay_mult: 1
  }
  param {
    lr_mult: 0
    decay_mult: 0
  }
  convolution_param {
    num_output: 512
    pad: 1
    kernel_size: 3
    stride: 1
  }
}
layer {
  name: "relu4_1"
  type: "ReLU"
  bottom: "conv4_1"
  top: "conv4_1"
}
layer {
  name: "conv4_2"
  type: "Convolution"
  bottom: "conv4_1"
  top: "conv4_2"
  param {
    lr_mult: 0
    decay_mult: 1
  }
  param {
    lr_mult: 0
    decay_mult: 0
  }
  convolution_param {
    num_output: 512
    pad: 1
    kernel_size: 3
    stride: 1
  }
}
layer {
  name: "relu4_2"
  type: "ReLU"
  bottom: "conv4_2"
  top: "conv4_2"
}
layer {
  name: "conv4_3"
  type: "Convolution"
  bottom: "conv4_2"
  top: "conv4_3"
  param {
    lr_mult: 0
    decay_mult: 1
  }
  param {
    lr_mult: 0
    decay_mult: 0
  }
  convolution_param {
    num_output: 512
    pad: 1
    kernel_size: 3
    stride: 1
  }
}
layer {
  name: "relu4_3"
  type: "ReLU"
  bottom: "conv4_3"
  top: "conv4_3"
}
layer {
  name: "pool4"
  type: "Pooling"
  bottom: "conv4_3"
  top: "pool4"
  pooling_param {
    pool: MAX
    kernel_size: 2
    stride: 2
  }
}
layer {
  name: "conv5_1"
  type: "Convolution"
  bottom: "pool4"
  top: "conv5_1"
  param {
    lr_mult: 0
    decay_mult: 1
  }
  param {
    lr_mult: 0
    decay_mult: 0
  }
  convolution_param {
    num_output: 512
    pad: 1
    kernel_size: 3
    stride: 1
  }
}
layer {
  name: "relu5_1"
  type: "ReLU"
  bottom: "conv5_1"
  top: "conv5_1"
}
layer {
  name: "conv5_2"
  type: "Convolution"
  bottom: "conv5_1"
  top: "conv5_2"
  param {
    lr_mult: 0
    decay_mult: 1
  }
  param {
    lr_mult: 0
    decay_mult: 0
  }
  convolution_param {
    num_output: 512
    pad: 1
    kernel_size: 3
    stride: 1
  }
}
layer {
  name: "relu5_2"
  type: "ReLU"
  bottom: "conv5_2"
  top: "conv5_2"
}
layer {
  name: "conv5_3"
  type: "Convolution"
  bottom: "conv5_2"
  top: "conv5_3"
  param {
    lr_mult: 0
    decay_mult: 1
  }
  param {
    lr_mult: 0
    decay_mult: 0
  }
  convolution_param {
    num_output: 512
    pad: 1
    kernel_size: 3
    stride: 1
  }
}
layer {
  name: "relu5_3"
  type: "ReLU"
  bottom: "conv5_3"
  top: "conv5_3"
}
layer {
  name: "pool5"
  type: "Pooling"
  bottom: "conv5_3"
  top: "pool5"
  pooling_param {
    pool: MAX
    kernel_size: 2
    stride: 2
  }
}
layer {
  name: "fc6"
  type: "Convolution"
  bottom: "pool5"
  top: "fc6"
  param {
    lr_mult: 0
    decay_mult: 1
  }
  param {
    lr_mult: 0
    decay_mult: 0
  }
  convolution_param {
    num_output: 4096
    pad: 0
    kernel_size: 7
    stride: 1
  }
}
layer {
  name: "relu6"
  type: "ReLU"
  bottom: "fc6"
  top: "fc6"
}
layer {
  name: "fc7"
  type: "Convolution"
  bottom: "fc6"
  top: "fc7"
  param {
    lr_mult: 0
    decay_mult: 1
  }
  param {
    lr_mult: 0
    decay_mult: 0
  }
  convolution_param {
    num_output: 4096
    pad: 0
    kernel_size: 1
    stride: 1
  }
}
layer {
  name: "relu7"
  type: "ReLU"
  bottom: "fc7"
  top: "fc7"
}
layer {
  name: "score_fr"
  type: "Convolution"
  bottom: "fc7"
  top: "score_fr"
  param {
    lr_mult: 0
    decay_mult: 1
  }
  param {
    lr_mult: 0
    decay_mult: 0
  }
  convolution_param {
    num_output: 19
    pad: 0
    kernel_size: 1
  }
}
layer {
  name: "upscore2"
  type: "Deconvolution"
  bottom: "score_fr"
  top: "upscore2"
  param {
    lr_mult: 0
    decay_mult: 1
  }
  convolution_param {
    num_output: 19
    bias_term: false
    kernel_size: 4
    stride: 2
  }
}
layer {
  name: "score_pool4"
  type: "Convolution"
  bottom: "pool4"
  top: "score_pool4"
  param {
    lr_mult: 0
    decay_mult: 1
  }
  param {
    lr_mult: 0
    decay_mult: 0
  }
  convolution_param {
    num_output: 19
    pad: 0
    kernel_size: 1
  }
}
layer {
  name: "score_pool4c"
  type: "Crop"
  bottom: "score_pool4"
  bottom: "upscore2"
  top: "score_pool4c"
  crop_param {
    axis: 2
    offset: 5
  }
}
layer {
  name: "fuse_pool4"
  type: "Eltwise"
  bottom: "upscore2"
  bottom: "score_pool4c"
  top: "fuse_pool4"
  eltwise_param {
    operation: SUM
  }
}
layer {
  name: "upscore_pool4"
  type: "Deconvolution"
  bottom: "fuse_pool4"
  top: "upscore_pool4"
  param {
    lr_mult: 0
    decay_mult: 1
  }
  convolution_param {
    num_output: 19
    bias_term: false
    kernel_size: 4
    stride: 2
  }
}
layer {
  name: "score_pool3"
  type: "Convolution"
  bottom: "pool3"
  top: "score_pool3"
  param {
    lr_mult: 0
    decay_mult: 1
  }
  param {
    lr_mult: 0
    decay_mult: 0
  }
  convolution_param {
    num_output: 19
    pad: 0
    kernel_size: 1
  }
}
layer {
  name: "score_pool3c"
  type: "Crop"
  bottom: "score_pool3"
  bottom: "upscore_pool4"
  top: "score_pool3c"
  crop_param {
    axis: 2
    offset: 9
  }
}
layer {
  name: "fuse_pool3"
  type: "Eltwise"
  bottom: "upscore_pool4"
  bottom: "score_pool3c"
  top: "fuse_pool3"
  eltwise_param {
    operation: SUM
  }
}
layer {
  name: "upscore8"
  type: "Deconvolution"
  bottom: "fuse_pool3"
  top: "upscore8"
  param {
    lr_mult: 0
    decay_mult: 1
  }
  convolution_param {
    num_output: 19
    bias_term: false
    kernel_size: 16
    stride: 8
  }
}
layer {
  name: "score"
  type: "Crop"
  bottom: "upscore8"
  bottom: "data"
  top: "score"
  crop_param {
    axis: 2
    offset: 31
  }
}
layer {
  name: "loss"
  type: "AdvSoftmaxWithLoss"
  bottom: "score"
  bottom: "fakelabel"
  top: "loss"
  loss_param {
    ignore_label: 255
    normalize: false
  }
  adv_softmax_with_loss_param {
    offset: 16
  }
}
I1114 15:57:15.772529 42195 layer_factory.hpp:77] Creating layer data1
I1114 15:57:15.774063 42195 net.cpp:86] Creating Layer data1
I1114 15:57:15.774078 42195 net.cpp:382] data1 -> data1
I1114 15:57:15.774096 42195 net.cpp:382] data1 -> label
I1114 15:57:15.774106 42195 net.cpp:382] data1 -> fakelabel
I1114 15:57:15.945703 42195 net.cpp:124] Setting up data1
I1114 15:57:15.945750 42195 net.cpp:131] Top shape: 2 3 160 320 (307200)
I1114 15:57:15.945760 42195 net.cpp:131] Top shape: 2 1 160 320 (102400)
I1114 15:57:15.945766 42195 net.cpp:131] Top shape: 2 160 320 (102400)
I1114 15:57:15.945772 42195 net.cpp:139] Memory required for data: 2048000
I1114 15:57:15.945783 42195 layer_factory.hpp:77] Creating layer data1_data1_0_split
I1114 15:57:15.945802 42195 net.cpp:86] Creating Layer data1_data1_0_split
I1114 15:57:15.945812 42195 net.cpp:408] data1_data1_0_split <- data1
I1114 15:57:15.945825 42195 net.cpp:382] data1_data1_0_split -> data1_data1_0_split_0
I1114 15:57:15.945845 42195 net.cpp:382] data1_data1_0_split -> data1_data1_0_split_1
I1114 15:57:15.945883 42195 net.cpp:124] Setting up data1_data1_0_split
I1114 15:57:15.945894 42195 net.cpp:131] Top shape: 2 3 160 320 (307200)
I1114 15:57:15.945900 42195 net.cpp:131] Top shape: 2 3 160 320 (307200)
I1114 15:57:15.945906 42195 net.cpp:139] Memory required for data: 4505600
I1114 15:57:15.945914 42195 layer_factory.hpp:77] Creating layer conv1
I1114 15:57:15.945933 42195 net.cpp:86] Creating Layer conv1
I1114 15:57:15.945940 42195 net.cpp:408] conv1 <- data1_data1_0_split_0
I1114 15:57:15.945950 42195 net.cpp:382] conv1 -> conv1
I1114 15:57:15.946228 42195 net.cpp:124] Setting up conv1
I1114 15:57:15.946241 42195 net.cpp:131] Top shape: 2 64 79 159 (1607808)
I1114 15:57:15.946249 42195 net.cpp:139] Memory required for data: 10936832
I1114 15:57:15.946269 42195 layer_factory.hpp:77] Creating layer bn1
I1114 15:57:15.946282 42195 net.cpp:86] Creating Layer bn1
I1114 15:57:15.946290 42195 net.cpp:408] bn1 <- conv1
I1114 15:57:15.946297 42195 net.cpp:382] bn1 -> bn1
I1114 15:57:15.946444 42195 net.cpp:124] Setting up bn1
I1114 15:57:15.946455 42195 net.cpp:131] Top shape: 2 64 79 159 (1607808)
I1114 15:57:15.946468 42195 net.cpp:139] Memory required for data: 17368064
I1114 15:57:15.946482 42195 layer_factory.hpp:77] Creating layer scale1
I1114 15:57:15.946509 42195 net.cpp:86] Creating Layer scale1
I1114 15:57:15.946516 42195 net.cpp:408] scale1 <- bn1
I1114 15:57:15.946524 42195 net.cpp:369] scale1 -> bn1 (in-place)
I1114 15:57:15.946564 42195 layer_factory.hpp:77] Creating layer scale1
I1114 15:57:15.946673 42195 net.cpp:124] Setting up scale1
I1114 15:57:15.946684 42195 net.cpp:131] Top shape: 2 64 79 159 (1607808)
I1114 15:57:15.946691 42195 net.cpp:139] Memory required for data: 23799296
I1114 15:57:15.946698 42195 layer_factory.hpp:77] Creating layer relu1
I1114 15:57:15.946709 42195 net.cpp:86] Creating Layer relu1
I1114 15:57:15.946715 42195 net.cpp:408] relu1 <- bn1
I1114 15:57:15.946723 42195 net.cpp:369] relu1 -> bn1 (in-place)
I1114 15:57:15.946733 42195 net.cpp:124] Setting up relu1
I1114 15:57:15.946741 42195 net.cpp:131] Top shape: 2 64 79 159 (1607808)
I1114 15:57:15.946748 42195 net.cpp:139] Memory required for data: 30230528
I1114 15:57:15.946753 42195 layer_factory.hpp:77] Creating layer bn1_relu1_0_split
I1114 15:57:15.946761 42195 net.cpp:86] Creating Layer bn1_relu1_0_split
I1114 15:57:15.946768 42195 net.cpp:408] bn1_relu1_0_split <- bn1
I1114 15:57:15.946774 42195 net.cpp:382] bn1_relu1_0_split -> bn1_relu1_0_split_0
I1114 15:57:15.946784 42195 net.cpp:382] bn1_relu1_0_split -> bn1_relu1_0_split_1
I1114 15:57:15.946812 42195 net.cpp:124] Setting up bn1_relu1_0_split
I1114 15:57:15.946821 42195 net.cpp:131] Top shape: 2 64 79 159 (1607808)
I1114 15:57:15.946830 42195 net.cpp:131] Top shape: 2 64 79 159 (1607808)
I1114 15:57:15.946835 42195 net.cpp:139] Memory required for data: 43092992
I1114 15:57:15.946841 42195 layer_factory.hpp:77] Creating layer conv2
I1114 15:57:15.946852 42195 net.cpp:86] Creating Layer conv2
I1114 15:57:15.946858 42195 net.cpp:408] conv2 <- bn1_relu1_0_split_0
I1114 15:57:15.946866 42195 net.cpp:382] conv2 -> conv2
I1114 15:57:15.948035 42195 net.cpp:124] Setting up conv2
I1114 15:57:15.948045 42195 net.cpp:131] Top shape: 2 128 38 78 (758784)
I1114 15:57:15.948051 42195 net.cpp:139] Memory required for data: 46128128
I1114 15:57:15.948062 42195 layer_factory.hpp:77] Creating layer bn2
I1114 15:57:15.948072 42195 net.cpp:86] Creating Layer bn2
I1114 15:57:15.948078 42195 net.cpp:408] bn2 <- conv2
I1114 15:57:15.948086 42195 net.cpp:382] bn2 -> bn2
I1114 15:57:15.948213 42195 net.cpp:124] Setting up bn2
I1114 15:57:15.948223 42195 net.cpp:131] Top shape: 2 128 38 78 (758784)
I1114 15:57:15.948230 42195 net.cpp:139] Memory required for data: 49163264
I1114 15:57:15.948240 42195 layer_factory.hpp:77] Creating layer scale2
I1114 15:57:15.948248 42195 net.cpp:86] Creating Layer scale2
I1114 15:57:15.948254 42195 net.cpp:408] scale2 <- bn2
I1114 15:57:15.948262 42195 net.cpp:369] scale2 -> bn2 (in-place)
I1114 15:57:15.948297 42195 layer_factory.hpp:77] Creating layer scale2
I1114 15:57:15.948375 42195 net.cpp:124] Setting up scale2
I1114 15:57:15.948385 42195 net.cpp:131] Top shape: 2 128 38 78 (758784)
I1114 15:57:15.948391 42195 net.cpp:139] Memory required for data: 52198400
I1114 15:57:15.948400 42195 layer_factory.hpp:77] Creating layer relu2
I1114 15:57:15.948408 42195 net.cpp:86] Creating Layer relu2
I1114 15:57:15.948415 42195 net.cpp:408] relu2 <- bn2
I1114 15:57:15.948421 42195 net.cpp:369] relu2 -> bn2 (in-place)
I1114 15:57:15.948429 42195 net.cpp:124] Setting up relu2
I1114 15:57:15.948436 42195 net.cpp:131] Top shape: 2 128 38 78 (758784)
I1114 15:57:15.948442 42195 net.cpp:139] Memory required for data: 55233536
I1114 15:57:15.948448 42195 layer_factory.hpp:77] Creating layer bn2_relu2_0_split
I1114 15:57:15.948457 42195 net.cpp:86] Creating Layer bn2_relu2_0_split
I1114 15:57:15.948467 42195 net.cpp:408] bn2_relu2_0_split <- bn2
I1114 15:57:15.948483 42195 net.cpp:382] bn2_relu2_0_split -> bn2_relu2_0_split_0
I1114 15:57:15.948493 42195 net.cpp:382] bn2_relu2_0_split -> bn2_relu2_0_split_1
I1114 15:57:15.948520 42195 net.cpp:124] Setting up bn2_relu2_0_split
I1114 15:57:15.948529 42195 net.cpp:131] Top shape: 2 128 38 78 (758784)
I1114 15:57:15.948536 42195 net.cpp:131] Top shape: 2 128 38 78 (758784)
I1114 15:57:15.948542 42195 net.cpp:139] Memory required for data: 61303808
I1114 15:57:15.948549 42195 layer_factory.hpp:77] Creating layer conv3
I1114 15:57:15.948559 42195 net.cpp:86] Creating Layer conv3
I1114 15:57:15.948566 42195 net.cpp:408] conv3 <- bn2_relu2_0_split_0
I1114 15:57:15.948575 42195 net.cpp:382] conv3 -> conv3
I1114 15:57:15.954339 42195 net.cpp:124] Setting up conv3
I1114 15:57:15.954360 42195 net.cpp:131] Top shape: 2 256 17 37 (322048)
I1114 15:57:15.954366 42195 net.cpp:139] Memory required for data: 62592000
I1114 15:57:15.954376 42195 layer_factory.hpp:77] Creating layer bn3
I1114 15:57:15.954387 42195 net.cpp:86] Creating Layer bn3
I1114 15:57:15.954394 42195 net.cpp:408] bn3 <- conv3
I1114 15:57:15.954402 42195 net.cpp:382] bn3 -> bn3
I1114 15:57:15.954547 42195 net.cpp:124] Setting up bn3
I1114 15:57:15.954557 42195 net.cpp:131] Top shape: 2 256 17 37 (322048)
I1114 15:57:15.954563 42195 net.cpp:139] Memory required for data: 63880192
I1114 15:57:15.954576 42195 layer_factory.hpp:77] Creating layer scale3
I1114 15:57:15.954586 42195 net.cpp:86] Creating Layer scale3
I1114 15:57:15.954592 42195 net.cpp:408] scale3 <- bn3
I1114 15:57:15.954600 42195 net.cpp:369] scale3 -> bn3 (in-place)
I1114 15:57:15.954632 42195 layer_factory.hpp:77] Creating layer scale3
I1114 15:57:15.954708 42195 net.cpp:124] Setting up scale3
I1114 15:57:15.954717 42195 net.cpp:131] Top shape: 2 256 17 37 (322048)
I1114 15:57:15.954723 42195 net.cpp:139] Memory required for data: 65168384
I1114 15:57:15.954732 42195 layer_factory.hpp:77] Creating layer relu3
I1114 15:57:15.954742 42195 net.cpp:86] Creating Layer relu3
I1114 15:57:15.954748 42195 net.cpp:408] relu3 <- bn3
I1114 15:57:15.954756 42195 net.cpp:369] relu3 -> bn3 (in-place)
I1114 15:57:15.954766 42195 net.cpp:124] Setting up relu3
I1114 15:57:15.954773 42195 net.cpp:131] Top shape: 2 256 17 37 (322048)
I1114 15:57:15.954779 42195 net.cpp:139] Memory required for data: 66456576
I1114 15:57:15.954785 42195 layer_factory.hpp:77] Creating layer bn3_relu3_0_split
I1114 15:57:15.954794 42195 net.cpp:86] Creating Layer bn3_relu3_0_split
I1114 15:57:15.954800 42195 net.cpp:408] bn3_relu3_0_split <- bn3
I1114 15:57:15.954808 42195 net.cpp:382] bn3_relu3_0_split -> bn3_relu3_0_split_0
I1114 15:57:15.954818 42195 net.cpp:382] bn3_relu3_0_split -> bn3_relu3_0_split_1
I1114 15:57:15.954847 42195 net.cpp:124] Setting up bn3_relu3_0_split
I1114 15:57:15.954856 42195 net.cpp:131] Top shape: 2 256 17 37 (322048)
I1114 15:57:15.954864 42195 net.cpp:131] Top shape: 2 256 17 37 (322048)
I1114 15:57:15.954870 42195 net.cpp:139] Memory required for data: 69032960
I1114 15:57:15.954876 42195 layer_factory.hpp:77] Creating layer conv4
I1114 15:57:15.954893 42195 net.cpp:86] Creating Layer conv4
I1114 15:57:15.954900 42195 net.cpp:408] conv4 <- bn3_relu3_0_split_0
I1114 15:57:15.954908 42195 net.cpp:382] conv4 -> conv4
I1114 15:57:15.962402 42195 net.cpp:124] Setting up conv4
I1114 15:57:15.962429 42195 net.cpp:131] Top shape: 2 512 15 35 (537600)
I1114 15:57:15.962435 42195 net.cpp:139] Memory required for data: 71183360
I1114 15:57:15.962445 42195 layer_factory.hpp:77] Creating layer bn4
I1114 15:57:15.962457 42195 net.cpp:86] Creating Layer bn4
I1114 15:57:15.962471 42195 net.cpp:408] bn4 <- conv4
I1114 15:57:15.962481 42195 net.cpp:382] bn4 -> bn4
I1114 15:57:15.962618 42195 net.cpp:124] Setting up bn4
I1114 15:57:15.962628 42195 net.cpp:131] Top shape: 2 512 15 35 (537600)
I1114 15:57:15.962635 42195 net.cpp:139] Memory required for data: 73333760
I1114 15:57:15.962646 42195 layer_factory.hpp:77] Creating layer scale4
I1114 15:57:15.962657 42195 net.cpp:86] Creating Layer scale4
I1114 15:57:15.962663 42195 net.cpp:408] scale4 <- bn4
I1114 15:57:15.962671 42195 net.cpp:369] scale4 -> bn4 (in-place)
I1114 15:57:15.962708 42195 layer_factory.hpp:77] Creating layer scale4
I1114 15:57:15.962783 42195 net.cpp:124] Setting up scale4
I1114 15:57:15.962793 42195 net.cpp:131] Top shape: 2 512 15 35 (537600)
I1114 15:57:15.962800 42195 net.cpp:139] Memory required for data: 75484160
I1114 15:57:15.962808 42195 layer_factory.hpp:77] Creating layer relu4
I1114 15:57:15.962818 42195 net.cpp:86] Creating Layer relu4
I1114 15:57:15.962826 42195 net.cpp:408] relu4 <- bn4
I1114 15:57:15.962833 42195 net.cpp:369] relu4 -> bn4 (in-place)
I1114 15:57:15.962842 42195 net.cpp:124] Setting up relu4
I1114 15:57:15.962851 42195 net.cpp:131] Top shape: 2 512 15 35 (537600)
I1114 15:57:15.962857 42195 net.cpp:139] Memory required for data: 77634560
I1114 15:57:15.962862 42195 layer_factory.hpp:77] Creating layer embed_conv2
I1114 15:57:15.962882 42195 net.cpp:86] Creating Layer embed_conv2
I1114 15:57:15.962888 42195 net.cpp:408] embed_conv2 <- bn4
I1114 15:57:15.962896 42195 net.cpp:382] embed_conv2 -> embed_conv2
I1114 15:57:15.973395 42195 net.cpp:124] Setting up embed_conv2
I1114 15:57:15.973428 42195 net.cpp:131] Top shape: 2 256 17 37 (322048)
I1114 15:57:15.973434 42195 net.cpp:139] Memory required for data: 78922752
I1114 15:57:15.973446 42195 layer_factory.hpp:77] Creating layer embed_bn2
I1114 15:57:15.973464 42195 net.cpp:86] Creating Layer embed_bn2
I1114 15:57:15.973474 42195 net.cpp:408] embed_bn2 <- embed_conv2
I1114 15:57:15.973484 42195 net.cpp:382] embed_bn2 -> embed_bn2
I1114 15:57:15.973629 42195 net.cpp:124] Setting up embed_bn2
I1114 15:57:15.973639 42195 net.cpp:131] Top shape: 2 256 17 37 (322048)
I1114 15:57:15.973645 42195 net.cpp:139] Memory required for data: 80210944
I1114 15:57:15.973660 42195 layer_factory.hpp:77] Creating layer embed_scale2
I1114 15:57:15.973672 42195 net.cpp:86] Creating Layer embed_scale2
I1114 15:57:15.973680 42195 net.cpp:408] embed_scale2 <- embed_bn2
I1114 15:57:15.973687 42195 net.cpp:369] embed_scale2 -> embed_bn2 (in-place)
I1114 15:57:15.973726 42195 layer_factory.hpp:77] Creating layer embed_scale2
I1114 15:57:15.973803 42195 net.cpp:124] Setting up embed_scale2
I1114 15:57:15.973812 42195 net.cpp:131] Top shape: 2 256 17 37 (322048)
I1114 15:57:15.973817 42195 net.cpp:139] Memory required for data: 81499136
I1114 15:57:15.973826 42195 layer_factory.hpp:77] Creating layer embed_relu2
I1114 15:57:15.973835 42195 net.cpp:86] Creating Layer embed_relu2
I1114 15:57:15.973841 42195 net.cpp:408] embed_relu2 <- embed_bn2
I1114 15:57:15.973850 42195 net.cpp:369] embed_relu2 -> embed_bn2 (in-place)
I1114 15:57:15.973857 42195 net.cpp:124] Setting up embed_relu2
I1114 15:57:15.973865 42195 net.cpp:131] Top shape: 2 256 17 37 (322048)
I1114 15:57:15.973871 42195 net.cpp:139] Memory required for data: 82787328
I1114 15:57:15.973877 42195 layer_factory.hpp:77] Creating layer concat1
I1114 15:57:15.973888 42195 net.cpp:86] Creating Layer concat1
I1114 15:57:15.973896 42195 net.cpp:408] concat1 <- bn3_relu3_0_split_1
I1114 15:57:15.973909 42195 net.cpp:408] concat1 <- embed_bn2
I1114 15:57:15.973917 42195 net.cpp:382] concat1 -> concat1
I1114 15:57:15.973945 42195 net.cpp:124] Setting up concat1
I1114 15:57:15.973954 42195 net.cpp:131] Top shape: 2 512 17 37 (644096)
I1114 15:57:15.973960 42195 net.cpp:139] Memory required for data: 85363712
I1114 15:57:15.973966 42195 layer_factory.hpp:77] Creating layer embed_conv3
I1114 15:57:15.973980 42195 net.cpp:86] Creating Layer embed_conv3
I1114 15:57:15.973986 42195 net.cpp:408] embed_conv3 <- concat1
I1114 15:57:15.973995 42195 net.cpp:382] embed_conv3 -> embed_conv3
I1114 15:57:15.990221 42195 net.cpp:124] Setting up embed_conv3
I1114 15:57:15.990262 42195 net.cpp:131] Top shape: 2 128 38 78 (758784)
I1114 15:57:15.990269 42195 net.cpp:139] Memory required for data: 88398848
I1114 15:57:15.990283 42195 layer_factory.hpp:77] Creating layer embed_bn3
I1114 15:57:15.990298 42195 net.cpp:86] Creating Layer embed_bn3
I1114 15:57:15.990308 42195 net.cpp:408] embed_bn3 <- embed_conv3
I1114 15:57:15.990319 42195 net.cpp:382] embed_bn3 -> embed_bn3
I1114 15:57:15.990469 42195 net.cpp:124] Setting up embed_bn3
I1114 15:57:15.990479 42195 net.cpp:131] Top shape: 2 128 38 78 (758784)
I1114 15:57:15.990485 42195 net.cpp:139] Memory required for data: 91433984
I1114 15:57:15.990495 42195 layer_factory.hpp:77] Creating layer embed_scale3
I1114 15:57:15.990507 42195 net.cpp:86] Creating Layer embed_scale3
I1114 15:57:15.990514 42195 net.cpp:408] embed_scale3 <- embed_bn3
I1114 15:57:15.990522 42195 net.cpp:369] embed_scale3 -> embed_bn3 (in-place)
I1114 15:57:15.990563 42195 layer_factory.hpp:77] Creating layer embed_scale3
I1114 15:57:15.990645 42195 net.cpp:124] Setting up embed_scale3
I1114 15:57:15.990655 42195 net.cpp:131] Top shape: 2 128 38 78 (758784)
I1114 15:57:15.990661 42195 net.cpp:139] Memory required for data: 94469120
I1114 15:57:15.990670 42195 layer_factory.hpp:77] Creating layer embed_relu3
I1114 15:57:15.990680 42195 net.cpp:86] Creating Layer embed_relu3
I1114 15:57:15.990687 42195 net.cpp:408] embed_relu3 <- embed_bn3
I1114 15:57:15.990694 42195 net.cpp:369] embed_relu3 -> embed_bn3 (in-place)
I1114 15:57:15.990703 42195 net.cpp:124] Setting up embed_relu3
I1114 15:57:15.990711 42195 net.cpp:131] Top shape: 2 128 38 78 (758784)
I1114 15:57:15.990717 42195 net.cpp:139] Memory required for data: 97504256
I1114 15:57:15.990723 42195 layer_factory.hpp:77] Creating layer concat2
I1114 15:57:15.990732 42195 net.cpp:86] Creating Layer concat2
I1114 15:57:15.990739 42195 net.cpp:408] concat2 <- bn2_relu2_0_split_1
I1114 15:57:15.990746 42195 net.cpp:408] concat2 <- embed_bn3
I1114 15:57:15.990756 42195 net.cpp:382] concat2 -> concat2
I1114 15:57:15.990778 42195 net.cpp:124] Setting up concat2
I1114 15:57:15.990787 42195 net.cpp:131] Top shape: 2 256 38 78 (1517568)
I1114 15:57:15.990793 42195 net.cpp:139] Memory required for data: 103574528
I1114 15:57:15.990799 42195 layer_factory.hpp:77] Creating layer embed_conv4
I1114 15:57:15.990813 42195 net.cpp:86] Creating Layer embed_conv4
I1114 15:57:15.990820 42195 net.cpp:408] embed_conv4 <- concat2
I1114 15:57:15.990828 42195 net.cpp:382] embed_conv4 -> embed_conv4
I1114 15:57:15.993921 42195 net.cpp:124] Setting up embed_conv4
I1114 15:57:15.993937 42195 net.cpp:131] Top shape: 2 64 79 159 (1607808)
I1114 15:57:15.993943 42195 net.cpp:139] Memory required for data: 110005760
I1114 15:57:15.993953 42195 layer_factory.hpp:77] Creating layer embed_bn4
I1114 15:57:15.993965 42195 net.cpp:86] Creating Layer embed_bn4
I1114 15:57:15.993973 42195 net.cpp:408] embed_bn4 <- embed_conv4
I1114 15:57:15.993981 42195 net.cpp:382] embed_bn4 -> embed_bn4
I1114 15:57:15.994133 42195 net.cpp:124] Setting up embed_bn4
I1114 15:57:15.994143 42195 net.cpp:131] Top shape: 2 64 79 159 (1607808)
I1114 15:57:15.994149 42195 net.cpp:139] Memory required for data: 116436992
I1114 15:57:15.994159 42195 layer_factory.hpp:77] Creating layer embed_scale4
I1114 15:57:15.994170 42195 net.cpp:86] Creating Layer embed_scale4
I1114 15:57:15.994176 42195 net.cpp:408] embed_scale4 <- embed_bn4
I1114 15:57:15.994189 42195 net.cpp:369] embed_scale4 -> embed_bn4 (in-place)
I1114 15:57:15.994225 42195 layer_factory.hpp:77] Creating layer embed_scale4
I1114 15:57:15.994321 42195 net.cpp:124] Setting up embed_scale4
I1114 15:57:15.994333 42195 net.cpp:131] Top shape: 2 64 79 159 (1607808)
I1114 15:57:15.994338 42195 net.cpp:139] Memory required for data: 122868224
I1114 15:57:15.994346 42195 layer_factory.hpp:77] Creating layer embed_relu4
I1114 15:57:15.994355 42195 net.cpp:86] Creating Layer embed_relu4
I1114 15:57:15.994361 42195 net.cpp:408] embed_relu4 <- embed_bn4
I1114 15:57:15.994369 42195 net.cpp:369] embed_relu4 -> embed_bn4 (in-place)
I1114 15:57:15.994377 42195 net.cpp:124] Setting up embed_relu4
I1114 15:57:15.994385 42195 net.cpp:131] Top shape: 2 64 79 159 (1607808)
I1114 15:57:15.994390 42195 net.cpp:139] Memory required for data: 129299456
I1114 15:57:15.994396 42195 layer_factory.hpp:77] Creating layer concat3
I1114 15:57:15.994405 42195 net.cpp:86] Creating Layer concat3
I1114 15:57:15.994411 42195 net.cpp:408] concat3 <- bn1_relu1_0_split_1
I1114 15:57:15.994418 42195 net.cpp:408] concat3 <- embed_bn4
I1114 15:57:15.994426 42195 net.cpp:382] concat3 -> concat3
I1114 15:57:15.994447 42195 net.cpp:124] Setting up concat3
I1114 15:57:15.994457 42195 net.cpp:131] Top shape: 2 128 79 159 (3215616)
I1114 15:57:15.994467 42195 net.cpp:139] Memory required for data: 142161920
I1114 15:57:15.994473 42195 layer_factory.hpp:77] Creating layer concat3_concat3_0_split
I1114 15:57:15.994482 42195 net.cpp:86] Creating Layer concat3_concat3_0_split
I1114 15:57:15.994488 42195 net.cpp:408] concat3_concat3_0_split <- concat3
I1114 15:57:15.994495 42195 net.cpp:382] concat3_concat3_0_split -> concat3_concat3_0_split_0
I1114 15:57:15.994503 42195 net.cpp:382] concat3_concat3_0_split -> concat3_concat3_0_split_1
I1114 15:57:15.994532 42195 net.cpp:124] Setting up concat3_concat3_0_split
I1114 15:57:15.994541 42195 net.cpp:131] Top shape: 2 128 79 159 (3215616)
I1114 15:57:15.994549 42195 net.cpp:131] Top shape: 2 128 79 159 (3215616)
I1114 15:57:15.994554 42195 net.cpp:139] Memory required for data: 167886848
I1114 15:57:15.994560 42195 layer_factory.hpp:77] Creating layer seg
I1114 15:57:15.994570 42195 net.cpp:86] Creating Layer seg
I1114 15:57:15.994577 42195 net.cpp:408] seg <- concat3_concat3_0_split_0
I1114 15:57:15.994585 42195 net.cpp:382] seg -> seg
I1114 15:57:15.994982 42195 net.cpp:124] Setting up seg
I1114 15:57:15.994992 42195 net.cpp:131] Top shape: 2 19 160 320 (1945600)
I1114 15:57:15.994998 42195 net.cpp:139] Memory required for data: 175669248
I1114 15:57:15.995007 42195 layer_factory.hpp:77] Creating layer seg_bn
I1114 15:57:15.995016 42195 net.cpp:86] Creating Layer seg_bn
I1114 15:57:15.995023 42195 net.cpp:408] seg_bn <- seg
I1114 15:57:15.995031 42195 net.cpp:382] seg_bn -> seg_bn
I1114 15:57:15.995223 42195 net.cpp:124] Setting up seg_bn
I1114 15:57:15.995234 42195 net.cpp:131] Top shape: 2 19 160 320 (1945600)
I1114 15:57:15.995240 42195 net.cpp:139] Memory required for data: 183451648
I1114 15:57:15.995251 42195 layer_factory.hpp:77] Creating layer seg_scale
I1114 15:57:15.995260 42195 net.cpp:86] Creating Layer seg_scale
I1114 15:57:15.995266 42195 net.cpp:408] seg_scale <- seg_bn
I1114 15:57:15.995275 42195 net.cpp:369] seg_scale -> seg_bn (in-place)
I1114 15:57:15.995308 42195 layer_factory.hpp:77] Creating layer seg_scale
I1114 15:57:15.996490 42195 net.cpp:124] Setting up seg_scale
I1114 15:57:15.996505 42195 net.cpp:131] Top shape: 2 19 160 320 (1945600)
I1114 15:57:15.996511 42195 net.cpp:139] Memory required for data: 191234048
I1114 15:57:15.996521 42195 layer_factory.hpp:77] Creating layer reg_loss
I1114 15:57:15.996536 42195 net.cpp:86] Creating Layer reg_loss
I1114 15:57:15.996543 42195 net.cpp:408] reg_loss <- seg_bn
I1114 15:57:15.996551 42195 net.cpp:408] reg_loss <- label
I1114 15:57:15.996559 42195 net.cpp:382] reg_loss -> reg_loss
I1114 15:57:15.996577 42195 layer_factory.hpp:77] Creating layer reg_loss
I1114 15:57:16.001188 42195 net.cpp:124] Setting up reg_loss
I1114 15:57:16.001209 42195 net.cpp:131] Top shape: (1)
I1114 15:57:16.001215 42195 net.cpp:134]     with loss weight 0.01
I1114 15:57:16.001232 42195 net.cpp:139] Memory required for data: 191234052
I1114 15:57:16.001240 42195 layer_factory.hpp:77] Creating layer embed_conv5
I1114 15:57:16.001252 42195 net.cpp:86] Creating Layer embed_conv5
I1114 15:57:16.001260 42195 net.cpp:408] embed_conv5 <- concat3_concat3_0_split_1
I1114 15:57:16.001268 42195 net.cpp:382] embed_conv5 -> embed_conv5
I1114 15:57:16.001502 42195 net.cpp:124] Setting up embed_conv5
I1114 15:57:16.001513 42195 net.cpp:131] Top shape: 2 3 160 320 (307200)
I1114 15:57:16.001519 42195 net.cpp:139] Memory required for data: 192462852
I1114 15:57:16.001528 42195 layer_factory.hpp:77] Creating layer embed_bn5
I1114 15:57:16.001538 42195 net.cpp:86] Creating Layer embed_bn5
I1114 15:57:16.001545 42195 net.cpp:408] embed_bn5 <- embed_conv5
I1114 15:57:16.001554 42195 net.cpp:382] embed_bn5 -> embed_bn5
I1114 15:57:16.001729 42195 net.cpp:124] Setting up embed_bn5
I1114 15:57:16.001739 42195 net.cpp:131] Top shape: 2 3 160 320 (307200)
I1114 15:57:16.001745 42195 net.cpp:139] Memory required for data: 193691652
I1114 15:57:16.001755 42195 layer_factory.hpp:77] Creating layer embed_scale5
I1114 15:57:16.001765 42195 net.cpp:86] Creating Layer embed_scale5
I1114 15:57:16.001771 42195 net.cpp:408] embed_scale5 <- embed_bn5
I1114 15:57:16.001780 42195 net.cpp:369] embed_scale5 -> embed_bn5 (in-place)
I1114 15:57:16.001812 42195 layer_factory.hpp:77] Creating layer embed_scale5
I1114 15:57:16.001955 42195 net.cpp:124] Setting up embed_scale5
I1114 15:57:16.001966 42195 net.cpp:131] Top shape: 2 3 160 320 (307200)
I1114 15:57:16.001972 42195 net.cpp:139] Memory required for data: 194920452
I1114 15:57:16.001981 42195 layer_factory.hpp:77] Creating layer mask
I1114 15:57:16.001993 42195 net.cpp:86] Creating Layer mask
I1114 15:57:16.002002 42195 net.cpp:382] mask -> mask
I1114 15:57:16.002027 42195 net.cpp:124] Setting up mask
I1114 15:57:16.002036 42195 net.cpp:131] Top shape: 2 3 160 320 (307200)
I1114 15:57:16.002041 42195 net.cpp:139] Memory required for data: 196149252
I1114 15:57:16.002048 42195 layer_factory.hpp:77] Creating layer masked
I1114 15:57:16.002060 42195 net.cpp:86] Creating Layer masked
I1114 15:57:16.002066 42195 net.cpp:408] masked <- embed_bn5
I1114 15:57:16.002074 42195 net.cpp:408] masked <- mask
I1114 15:57:16.002081 42195 net.cpp:382] masked -> masked
I1114 15:57:16.002106 42195 net.cpp:124] Setting up masked
I1114 15:57:16.002115 42195 net.cpp:131] Top shape: 2 3 160 320 (307200)
I1114 15:57:16.002121 42195 net.cpp:139] Memory required for data: 197378052
I1114 15:57:16.002127 42195 layer_factory.hpp:77] Creating layer data
I1114 15:57:16.002135 42195 net.cpp:86] Creating Layer data
I1114 15:57:16.002142 42195 net.cpp:408] data <- data1_data1_0_split_1
I1114 15:57:16.002149 42195 net.cpp:408] data <- masked
I1114 15:57:16.002157 42195 net.cpp:382] data -> data
I1114 15:57:16.002177 42195 net.cpp:124] Setting up data
I1114 15:57:16.002187 42195 net.cpp:131] Top shape: 2 3 160 320 (307200)
I1114 15:57:16.002192 42195 net.cpp:139] Memory required for data: 198606852
I1114 15:57:16.002198 42195 layer_factory.hpp:77] Creating layer data_data_0_split
I1114 15:57:16.002207 42195 net.cpp:86] Creating Layer data_data_0_split
I1114 15:57:16.002213 42195 net.cpp:408] data_data_0_split <- data
I1114 15:57:16.002221 42195 net.cpp:382] data_data_0_split -> data_data_0_split_0
I1114 15:57:16.002229 42195 net.cpp:382] data_data_0_split -> data_data_0_split_1
I1114 15:57:16.002257 42195 net.cpp:124] Setting up data_data_0_split
I1114 15:57:16.002266 42195 net.cpp:131] Top shape: 2 3 160 320 (307200)
I1114 15:57:16.002274 42195 net.cpp:131] Top shape: 2 3 160 320 (307200)
I1114 15:57:16.002279 42195 net.cpp:139] Memory required for data: 201064452
I1114 15:57:16.002285 42195 layer_factory.hpp:77] Creating layer conv1_1
I1114 15:57:16.002295 42195 net.cpp:86] Creating Layer conv1_1
I1114 15:57:16.002302 42195 net.cpp:408] conv1_1 <- data_data_0_split_0
I1114 15:57:16.002315 42195 net.cpp:382] conv1_1 -> conv1_1
I1114 15:57:16.002600 42195 net.cpp:124] Setting up conv1_1
I1114 15:57:16.002612 42195 net.cpp:131] Top shape: 2 64 358 518 (23736832)
I1114 15:57:16.002619 42195 net.cpp:139] Memory required for data: 296011780
I1114 15:57:16.002633 42195 layer_factory.hpp:77] Creating layer relu1_1
I1114 15:57:16.002642 42195 net.cpp:86] Creating Layer relu1_1
I1114 15:57:16.002648 42195 net.cpp:408] relu1_1 <- conv1_1
I1114 15:57:16.002656 42195 net.cpp:369] relu1_1 -> conv1_1 (in-place)
I1114 15:57:16.002665 42195 net.cpp:124] Setting up relu1_1
I1114 15:57:16.002671 42195 net.cpp:131] Top shape: 2 64 358 518 (23736832)
I1114 15:57:16.002677 42195 net.cpp:139] Memory required for data: 390959108
I1114 15:57:16.002684 42195 layer_factory.hpp:77] Creating layer conv1_2
I1114 15:57:16.002694 42195 net.cpp:86] Creating Layer conv1_2
I1114 15:57:16.002701 42195 net.cpp:408] conv1_2 <- conv1_1
I1114 15:57:16.002709 42195 net.cpp:382] conv1_2 -> conv1_2
I1114 15:57:16.009711 42195 net.cpp:124] Setting up conv1_2
I1114 15:57:16.009730 42195 net.cpp:131] Top shape: 2 64 358 518 (23736832)
I1114 15:57:16.009737 42195 net.cpp:139] Memory required for data: 485906436
I1114 15:57:16.009747 42195 layer_factory.hpp:77] Creating layer relu1_2
I1114 15:57:16.009758 42195 net.cpp:86] Creating Layer relu1_2
I1114 15:57:16.009765 42195 net.cpp:408] relu1_2 <- conv1_2
I1114 15:57:16.009774 42195 net.cpp:369] relu1_2 -> conv1_2 (in-place)
I1114 15:57:16.009784 42195 net.cpp:124] Setting up relu1_2
I1114 15:57:16.009793 42195 net.cpp:131] Top shape: 2 64 358 518 (23736832)
I1114 15:57:16.009799 42195 net.cpp:139] Memory required for data: 580853764
I1114 15:57:16.009804 42195 layer_factory.hpp:77] Creating layer pool1
I1114 15:57:16.009814 42195 net.cpp:86] Creating Layer pool1
I1114 15:57:16.009821 42195 net.cpp:408] pool1 <- conv1_2
I1114 15:57:16.009830 42195 net.cpp:382] pool1 -> pool1
I1114 15:57:16.009877 42195 net.cpp:124] Setting up pool1
I1114 15:57:16.009888 42195 net.cpp:131] Top shape: 2 64 179 259 (5934208)
I1114 15:57:16.009894 42195 net.cpp:139] Memory required for data: 604590596
I1114 15:57:16.009901 42195 layer_factory.hpp:77] Creating layer conv2_1
I1114 15:57:16.009912 42195 net.cpp:86] Creating Layer conv2_1
I1114 15:57:16.009918 42195 net.cpp:408] conv2_1 <- pool1
I1114 15:57:16.009927 42195 net.cpp:382] conv2_1 -> conv2_1
I1114 15:57:16.010183 42195 net.cpp:124] Setting up conv2_1
I1114 15:57:16.010195 42195 net.cpp:131] Top shape: 2 128 179 259 (11868416)
I1114 15:57:16.010200 42195 net.cpp:139] Memory required for data: 652064260
I1114 15:57:16.010210 42195 layer_factory.hpp:77] Creating layer relu2_1
I1114 15:57:16.010218 42195 net.cpp:86] Creating Layer relu2_1
I1114 15:57:16.010226 42195 net.cpp:408] relu2_1 <- conv2_1
I1114 15:57:16.010233 42195 net.cpp:369] relu2_1 -> conv2_1 (in-place)
I1114 15:57:16.010241 42195 net.cpp:124] Setting up relu2_1
I1114 15:57:16.010249 42195 net.cpp:131] Top shape: 2 128 179 259 (11868416)
I1114 15:57:16.010255 42195 net.cpp:139] Memory required for data: 699537924
I1114 15:57:16.010262 42195 layer_factory.hpp:77] Creating layer conv2_2
I1114 15:57:16.010272 42195 net.cpp:86] Creating Layer conv2_2
I1114 15:57:16.010277 42195 net.cpp:408] conv2_2 <- conv2_1
I1114 15:57:16.010285 42195 net.cpp:382] conv2_2 -> conv2_2
I1114 15:57:16.010566 42195 net.cpp:124] Setting up conv2_2
I1114 15:57:16.010577 42195 net.cpp:131] Top shape: 2 128 179 259 (11868416)
I1114 15:57:16.010582 42195 net.cpp:139] Memory required for data: 747011588
I1114 15:57:16.010591 42195 layer_factory.hpp:77] Creating layer relu2_2
I1114 15:57:16.010599 42195 net.cpp:86] Creating Layer relu2_2
I1114 15:57:16.010605 42195 net.cpp:408] relu2_2 <- conv2_2
I1114 15:57:16.010613 42195 net.cpp:369] relu2_2 -> conv2_2 (in-place)
I1114 15:57:16.010622 42195 net.cpp:124] Setting up relu2_2
I1114 15:57:16.010629 42195 net.cpp:131] Top shape: 2 128 179 259 (11868416)
I1114 15:57:16.010635 42195 net.cpp:139] Memory required for data: 794485252
I1114 15:57:16.010641 42195 layer_factory.hpp:77] Creating layer pool2
I1114 15:57:16.010654 42195 net.cpp:86] Creating Layer pool2
I1114 15:57:16.010661 42195 net.cpp:408] pool2 <- conv2_2
I1114 15:57:16.010670 42195 net.cpp:382] pool2 -> pool2
I1114 15:57:16.010702 42195 net.cpp:124] Setting up pool2
I1114 15:57:16.010712 42195 net.cpp:131] Top shape: 2 128 90 130 (2995200)
I1114 15:57:16.010718 42195 net.cpp:139] Memory required for data: 806466052
I1114 15:57:16.010725 42195 layer_factory.hpp:77] Creating layer conv3_1
I1114 15:57:16.010735 42195 net.cpp:86] Creating Layer conv3_1
I1114 15:57:16.010742 42195 net.cpp:408] conv3_1 <- pool2
I1114 15:57:16.010751 42195 net.cpp:382] conv3_1 -> conv3_1
I1114 15:57:16.012259 42195 net.cpp:124] Setting up conv3_1
I1114 15:57:16.012274 42195 net.cpp:131] Top shape: 2 256 90 130 (5990400)
I1114 15:57:16.012280 42195 net.cpp:139] Memory required for data: 830427652
I1114 15:57:16.012290 42195 layer_factory.hpp:77] Creating layer relu3_1
I1114 15:57:16.012300 42195 net.cpp:86] Creating Layer relu3_1
I1114 15:57:16.012306 42195 net.cpp:408] relu3_1 <- conv3_1
I1114 15:57:16.012315 42195 net.cpp:369] relu3_1 -> conv3_1 (in-place)
I1114 15:57:16.012324 42195 net.cpp:124] Setting up relu3_1
I1114 15:57:16.012332 42195 net.cpp:131] Top shape: 2 256 90 130 (5990400)
I1114 15:57:16.012338 42195 net.cpp:139] Memory required for data: 854389252
I1114 15:57:16.012344 42195 layer_factory.hpp:77] Creating layer conv3_2
I1114 15:57:16.012356 42195 net.cpp:86] Creating Layer conv3_2
I1114 15:57:16.012362 42195 net.cpp:408] conv3_2 <- conv3_1
I1114 15:57:16.012372 42195 net.cpp:382] conv3_2 -> conv3_2
I1114 15:57:16.019099 42195 net.cpp:124] Setting up conv3_2
I1114 15:57:16.019117 42195 net.cpp:131] Top shape: 2 256 90 130 (5990400)
I1114 15:57:16.019124 42195 net.cpp:139] Memory required for data: 878350852
I1114 15:57:16.019134 42195 layer_factory.hpp:77] Creating layer relu3_2
I1114 15:57:16.019143 42195 net.cpp:86] Creating Layer relu3_2
I1114 15:57:16.019150 42195 net.cpp:408] relu3_2 <- conv3_2
I1114 15:57:16.019157 42195 net.cpp:369] relu3_2 -> conv3_2 (in-place)
I1114 15:57:16.019167 42195 net.cpp:124] Setting up relu3_2
I1114 15:57:16.019176 42195 net.cpp:131] Top shape: 2 256 90 130 (5990400)
I1114 15:57:16.019181 42195 net.cpp:139] Memory required for data: 902312452
I1114 15:57:16.019187 42195 layer_factory.hpp:77] Creating layer conv3_3
I1114 15:57:16.019199 42195 net.cpp:86] Creating Layer conv3_3
I1114 15:57:16.019206 42195 net.cpp:408] conv3_3 <- conv3_2
I1114 15:57:16.019213 42195 net.cpp:382] conv3_3 -> conv3_3
I1114 15:57:16.021020 42195 net.cpp:124] Setting up conv3_3
I1114 15:57:16.021036 42195 net.cpp:131] Top shape: 2 256 90 130 (5990400)
I1114 15:57:16.021044 42195 net.cpp:139] Memory required for data: 926274052
I1114 15:57:16.021052 42195 layer_factory.hpp:77] Creating layer relu3_3
I1114 15:57:16.021061 42195 net.cpp:86] Creating Layer relu3_3
I1114 15:57:16.021068 42195 net.cpp:408] relu3_3 <- conv3_3
I1114 15:57:16.021076 42195 net.cpp:369] relu3_3 -> conv3_3 (in-place)
I1114 15:57:16.021085 42195 net.cpp:124] Setting up relu3_3
I1114 15:57:16.021093 42195 net.cpp:131] Top shape: 2 256 90 130 (5990400)
I1114 15:57:16.021100 42195 net.cpp:139] Memory required for data: 950235652
I1114 15:57:16.021106 42195 layer_factory.hpp:77] Creating layer pool3
I1114 15:57:16.021117 42195 net.cpp:86] Creating Layer pool3
I1114 15:57:16.021123 42195 net.cpp:408] pool3 <- conv3_3
I1114 15:57:16.021132 42195 net.cpp:382] pool3 -> pool3
I1114 15:57:16.021167 42195 net.cpp:124] Setting up pool3
I1114 15:57:16.021176 42195 net.cpp:131] Top shape: 2 256 45 65 (1497600)
I1114 15:57:16.021183 42195 net.cpp:139] Memory required for data: 956226052
I1114 15:57:16.021189 42195 layer_factory.hpp:77] Creating layer pool3_pool3_0_split
I1114 15:57:16.021198 42195 net.cpp:86] Creating Layer pool3_pool3_0_split
I1114 15:57:16.021204 42195 net.cpp:408] pool3_pool3_0_split <- pool3
I1114 15:57:16.021212 42195 net.cpp:382] pool3_pool3_0_split -> pool3_pool3_0_split_0
I1114 15:57:16.021220 42195 net.cpp:382] pool3_pool3_0_split -> pool3_pool3_0_split_1
I1114 15:57:16.021255 42195 net.cpp:124] Setting up pool3_pool3_0_split
I1114 15:57:16.021265 42195 net.cpp:131] Top shape: 2 256 45 65 (1497600)
I1114 15:57:16.021272 42195 net.cpp:131] Top shape: 2 256 45 65 (1497600)
I1114 15:57:16.021277 42195 net.cpp:139] Memory required for data: 968206852
I1114 15:57:16.021284 42195 layer_factory.hpp:77] Creating layer conv4_1
I1114 15:57:16.021294 42195 net.cpp:86] Creating Layer conv4_1
I1114 15:57:16.021301 42195 net.cpp:408] conv4_1 <- pool3_pool3_0_split_0
I1114 15:57:16.021309 42195 net.cpp:382] conv4_1 -> conv4_1
I1114 15:57:16.028358 42195 net.cpp:124] Setting up conv4_1
I1114 15:57:16.028398 42195 net.cpp:131] Top shape: 2 512 45 65 (2995200)
I1114 15:57:16.028403 42195 net.cpp:139] Memory required for data: 980187652
I1114 15:57:16.028414 42195 layer_factory.hpp:77] Creating layer relu4_1
I1114 15:57:16.028429 42195 net.cpp:86] Creating Layer relu4_1
I1114 15:57:16.028436 42195 net.cpp:408] relu4_1 <- conv4_1
I1114 15:57:16.028445 42195 net.cpp:369] relu4_1 -> conv4_1 (in-place)
I1114 15:57:16.028457 42195 net.cpp:124] Setting up relu4_1
I1114 15:57:16.028468 42195 net.cpp:131] Top shape: 2 512 45 65 (2995200)
I1114 15:57:16.028475 42195 net.cpp:139] Memory required for data: 992168452
I1114 15:57:16.028481 42195 layer_factory.hpp:77] Creating layer conv4_2
I1114 15:57:16.028492 42195 net.cpp:86] Creating Layer conv4_2
I1114 15:57:16.028498 42195 net.cpp:408] conv4_2 <- conv4_1
I1114 15:57:16.028506 42195 net.cpp:382] conv4_2 -> conv4_2
I1114 15:57:16.034515 42195 net.cpp:124] Setting up conv4_2
I1114 15:57:16.034531 42195 net.cpp:131] Top shape: 2 512 45 65 (2995200)
I1114 15:57:16.034538 42195 net.cpp:139] Memory required for data: 1004149252
I1114 15:57:16.034546 42195 layer_factory.hpp:77] Creating layer relu4_2
I1114 15:57:16.034555 42195 net.cpp:86] Creating Layer relu4_2
I1114 15:57:16.034561 42195 net.cpp:408] relu4_2 <- conv4_2
I1114 15:57:16.034569 42195 net.cpp:369] relu4_2 -> conv4_2 (in-place)
I1114 15:57:16.034577 42195 net.cpp:124] Setting up relu4_2
I1114 15:57:16.034584 42195 net.cpp:131] Top shape: 2 512 45 65 (2995200)
I1114 15:57:16.034590 42195 net.cpp:139] Memory required for data: 1016130052
I1114 15:57:16.034595 42195 layer_factory.hpp:77] Creating layer conv4_3
I1114 15:57:16.034605 42195 net.cpp:86] Creating Layer conv4_3
I1114 15:57:16.034610 42195 net.cpp:408] conv4_3 <- conv4_2
I1114 15:57:16.034618 42195 net.cpp:382] conv4_3 -> conv4_3
I1114 15:57:16.040485 42195 net.cpp:124] Setting up conv4_3
I1114 15:57:16.040501 42195 net.cpp:131] Top shape: 2 512 45 65 (2995200)
I1114 15:57:16.040508 42195 net.cpp:139] Memory required for data: 1028110852
I1114 15:57:16.040518 42195 layer_factory.hpp:77] Creating layer relu4_3
I1114 15:57:16.040525 42195 net.cpp:86] Creating Layer relu4_3
I1114 15:57:16.040532 42195 net.cpp:408] relu4_3 <- conv4_3
I1114 15:57:16.040539 42195 net.cpp:369] relu4_3 -> conv4_3 (in-place)
I1114 15:57:16.040549 42195 net.cpp:124] Setting up relu4_3
I1114 15:57:16.040555 42195 net.cpp:131] Top shape: 2 512 45 65 (2995200)
I1114 15:57:16.040561 42195 net.cpp:139] Memory required for data: 1040091652
I1114 15:57:16.040567 42195 layer_factory.hpp:77] Creating layer pool4
I1114 15:57:16.040576 42195 net.cpp:86] Creating Layer pool4
I1114 15:57:16.040582 42195 net.cpp:408] pool4 <- conv4_3
I1114 15:57:16.040591 42195 net.cpp:382] pool4 -> pool4
I1114 15:57:16.040625 42195 net.cpp:124] Setting up pool4
I1114 15:57:16.040635 42195 net.cpp:131] Top shape: 2 512 23 33 (777216)
I1114 15:57:16.040640 42195 net.cpp:139] Memory required for data: 1043200516
I1114 15:57:16.040647 42195 layer_factory.hpp:77] Creating layer pool4_pool4_0_split
I1114 15:57:16.040655 42195 net.cpp:86] Creating Layer pool4_pool4_0_split
I1114 15:57:16.040661 42195 net.cpp:408] pool4_pool4_0_split <- pool4
I1114 15:57:16.040669 42195 net.cpp:382] pool4_pool4_0_split -> pool4_pool4_0_split_0
I1114 15:57:16.040678 42195 net.cpp:382] pool4_pool4_0_split -> pool4_pool4_0_split_1
I1114 15:57:16.040705 42195 net.cpp:124] Setting up pool4_pool4_0_split
I1114 15:57:16.040719 42195 net.cpp:131] Top shape: 2 512 23 33 (777216)
I1114 15:57:16.040725 42195 net.cpp:131] Top shape: 2 512 23 33 (777216)
I1114 15:57:16.040730 42195 net.cpp:139] Memory required for data: 1049418244
I1114 15:57:16.040736 42195 layer_factory.hpp:77] Creating layer conv5_1
I1114 15:57:16.040746 42195 net.cpp:86] Creating Layer conv5_1
I1114 15:57:16.040753 42195 net.cpp:408] conv5_1 <- pool4_pool4_0_split_0
I1114 15:57:16.040762 42195 net.cpp:382] conv5_1 -> conv5_1
I1114 15:57:16.046644 42195 net.cpp:124] Setting up conv5_1
I1114 15:57:16.046661 42195 net.cpp:131] Top shape: 2 512 23 33 (777216)
I1114 15:57:16.046669 42195 net.cpp:139] Memory required for data: 1052527108
I1114 15:57:16.046677 42195 layer_factory.hpp:77] Creating layer relu5_1
I1114 15:57:16.046685 42195 net.cpp:86] Creating Layer relu5_1
I1114 15:57:16.046692 42195 net.cpp:408] relu5_1 <- conv5_1
I1114 15:57:16.046700 42195 net.cpp:369] relu5_1 -> conv5_1 (in-place)
I1114 15:57:16.046708 42195 net.cpp:124] Setting up relu5_1
I1114 15:57:16.046716 42195 net.cpp:131] Top shape: 2 512 23 33 (777216)
I1114 15:57:16.046721 42195 net.cpp:139] Memory required for data: 1055635972
I1114 15:57:16.046728 42195 layer_factory.hpp:77] Creating layer conv5_2
I1114 15:57:16.046738 42195 net.cpp:86] Creating Layer conv5_2
I1114 15:57:16.046744 42195 net.cpp:408] conv5_2 <- conv5_1
I1114 15:57:16.046752 42195 net.cpp:382] conv5_2 -> conv5_2
I1114 15:57:16.052597 42195 net.cpp:124] Setting up conv5_2
I1114 15:57:16.052613 42195 net.cpp:131] Top shape: 2 512 23 33 (777216)
I1114 15:57:16.052619 42195 net.cpp:139] Memory required for data: 1058744836
I1114 15:57:16.052628 42195 layer_factory.hpp:77] Creating layer relu5_2
I1114 15:57:16.052637 42195 net.cpp:86] Creating Layer relu5_2
I1114 15:57:16.052644 42195 net.cpp:408] relu5_2 <- conv5_2
I1114 15:57:16.052651 42195 net.cpp:369] relu5_2 -> conv5_2 (in-place)
I1114 15:57:16.052660 42195 net.cpp:124] Setting up relu5_2
I1114 15:57:16.052667 42195 net.cpp:131] Top shape: 2 512 23 33 (777216)
I1114 15:57:16.052673 42195 net.cpp:139] Memory required for data: 1061853700
I1114 15:57:16.052680 42195 layer_factory.hpp:77] Creating layer conv5_3
I1114 15:57:16.052690 42195 net.cpp:86] Creating Layer conv5_3
I1114 15:57:16.052695 42195 net.cpp:408] conv5_3 <- conv5_2
I1114 15:57:16.052703 42195 net.cpp:382] conv5_3 -> conv5_3
I1114 15:57:16.058526 42195 net.cpp:124] Setting up conv5_3
I1114 15:57:16.058542 42195 net.cpp:131] Top shape: 2 512 23 33 (777216)
I1114 15:57:16.058549 42195 net.cpp:139] Memory required for data: 1064962564
I1114 15:57:16.058557 42195 layer_factory.hpp:77] Creating layer relu5_3
I1114 15:57:16.058567 42195 net.cpp:86] Creating Layer relu5_3
I1114 15:57:16.058573 42195 net.cpp:408] relu5_3 <- conv5_3
I1114 15:57:16.058581 42195 net.cpp:369] relu5_3 -> conv5_3 (in-place)
I1114 15:57:16.058590 42195 net.cpp:124] Setting up relu5_3
I1114 15:57:16.058598 42195 net.cpp:131] Top shape: 2 512 23 33 (777216)
I1114 15:57:16.058604 42195 net.cpp:139] Memory required for data: 1068071428
I1114 15:57:16.058609 42195 layer_factory.hpp:77] Creating layer pool5
I1114 15:57:16.058617 42195 net.cpp:86] Creating Layer pool5
I1114 15:57:16.058624 42195 net.cpp:408] pool5 <- conv5_3
I1114 15:57:16.058632 42195 net.cpp:382] pool5 -> pool5
I1114 15:57:16.058665 42195 net.cpp:124] Setting up pool5
I1114 15:57:16.058674 42195 net.cpp:131] Top shape: 2 512 12 17 (208896)
I1114 15:57:16.058681 42195 net.cpp:139] Memory required for data: 1068907012
I1114 15:57:16.058686 42195 layer_factory.hpp:77] Creating layer fc6
I1114 15:57:16.058696 42195 net.cpp:86] Creating Layer fc6
I1114 15:57:16.058702 42195 net.cpp:408] fc6 <- pool5
I1114 15:57:16.058710 42195 net.cpp:382] fc6 -> fc6
I1114 15:57:16.342902 42195 net.cpp:124] Setting up fc6
I1114 15:57:16.342947 42195 net.cpp:131] Top shape: 2 4096 6 11 (540672)
I1114 15:57:16.342954 42195 net.cpp:139] Memory required for data: 1071069700
I1114 15:57:16.342967 42195 layer_factory.hpp:77] Creating layer relu6
I1114 15:57:16.342979 42195 net.cpp:86] Creating Layer relu6
I1114 15:57:16.343000 42195 net.cpp:408] relu6 <- fc6
I1114 15:57:16.343010 42195 net.cpp:369] relu6 -> fc6 (in-place)
I1114 15:57:16.343024 42195 net.cpp:124] Setting up relu6
I1114 15:57:16.343032 42195 net.cpp:131] Top shape: 2 4096 6 11 (540672)
I1114 15:57:16.343039 42195 net.cpp:139] Memory required for data: 1073232388
I1114 15:57:16.343044 42195 layer_factory.hpp:77] Creating layer fc7
I1114 15:57:16.343056 42195 net.cpp:86] Creating Layer fc7
I1114 15:57:16.343062 42195 net.cpp:408] fc7 <- fc6
I1114 15:57:16.343071 42195 net.cpp:382] fc7 -> fc7
I1114 15:57:16.389803 42195 net.cpp:124] Setting up fc7
I1114 15:57:16.389849 42195 net.cpp:131] Top shape: 2 4096 6 11 (540672)
I1114 15:57:16.389855 42195 net.cpp:139] Memory required for data: 1075395076
I1114 15:57:16.389868 42195 layer_factory.hpp:77] Creating layer relu7
I1114 15:57:16.389881 42195 net.cpp:86] Creating Layer relu7
I1114 15:57:16.389889 42195 net.cpp:408] relu7 <- fc7
I1114 15:57:16.389899 42195 net.cpp:369] relu7 -> fc7 (in-place)
I1114 15:57:16.389911 42195 net.cpp:124] Setting up relu7
I1114 15:57:16.389919 42195 net.cpp:131] Top shape: 2 4096 6 11 (540672)
I1114 15:57:16.389925 42195 net.cpp:139] Memory required for data: 1077557764
I1114 15:57:16.389931 42195 layer_factory.hpp:77] Creating layer score_fr
I1114 15:57:16.389943 42195 net.cpp:86] Creating Layer score_fr
I1114 15:57:16.389950 42195 net.cpp:408] score_fr <- fc7
I1114 15:57:16.389959 42195 net.cpp:382] score_fr -> score_fr
I1114 15:57:16.390241 42195 net.cpp:124] Setting up score_fr
I1114 15:57:16.390254 42195 net.cpp:131] Top shape: 2 19 6 11 (2508)
I1114 15:57:16.390259 42195 net.cpp:139] Memory required for data: 1077567796
I1114 15:57:16.390267 42195 layer_factory.hpp:77] Creating layer upscore2
I1114 15:57:16.390278 42195 net.cpp:86] Creating Layer upscore2
I1114 15:57:16.390285 42195 net.cpp:408] upscore2 <- score_fr
I1114 15:57:16.390292 42195 net.cpp:382] upscore2 -> upscore2
I1114 15:57:16.390429 42195 net.cpp:124] Setting up upscore2
I1114 15:57:16.390439 42195 net.cpp:131] Top shape: 2 19 14 24 (12768)
I1114 15:57:16.390445 42195 net.cpp:139] Memory required for data: 1077618868
I1114 15:57:16.390452 42195 layer_factory.hpp:77] Creating layer upscore2_upscore2_0_split
I1114 15:57:16.390465 42195 net.cpp:86] Creating Layer upscore2_upscore2_0_split
I1114 15:57:16.390472 42195 net.cpp:408] upscore2_upscore2_0_split <- upscore2
I1114 15:57:16.390480 42195 net.cpp:382] upscore2_upscore2_0_split -> upscore2_upscore2_0_split_0
I1114 15:57:16.390491 42195 net.cpp:382] upscore2_upscore2_0_split -> upscore2_upscore2_0_split_1
I1114 15:57:16.390520 42195 net.cpp:124] Setting up upscore2_upscore2_0_split
I1114 15:57:16.390529 42195 net.cpp:131] Top shape: 2 19 14 24 (12768)
I1114 15:57:16.390537 42195 net.cpp:131] Top shape: 2 19 14 24 (12768)
I1114 15:57:16.390542 42195 net.cpp:139] Memory required for data: 1077721012
I1114 15:57:16.390547 42195 layer_factory.hpp:77] Creating layer score_pool4
I1114 15:57:16.390558 42195 net.cpp:86] Creating Layer score_pool4
I1114 15:57:16.390564 42195 net.cpp:408] score_pool4 <- pool4_pool4_0_split_1
I1114 15:57:16.390573 42195 net.cpp:382] score_pool4 -> score_pool4
I1114 15:57:16.390740 42195 net.cpp:124] Setting up score_pool4
I1114 15:57:16.390750 42195 net.cpp:131] Top shape: 2 19 23 33 (28842)
I1114 15:57:16.390755 42195 net.cpp:139] Memory required for data: 1077836380
I1114 15:57:16.390764 42195 layer_factory.hpp:77] Creating layer score_pool4c
I1114 15:57:16.390784 42195 net.cpp:86] Creating Layer score_pool4c
I1114 15:57:16.390790 42195 net.cpp:408] score_pool4c <- score_pool4
I1114 15:57:16.390799 42195 net.cpp:408] score_pool4c <- upscore2_upscore2_0_split_0
I1114 15:57:16.390805 42195 net.cpp:382] score_pool4c -> score_pool4c
I1114 15:57:16.390882 42195 net.cpp:124] Setting up score_pool4c
I1114 15:57:16.390892 42195 net.cpp:131] Top shape: 2 19 14 24 (12768)
I1114 15:57:16.390897 42195 net.cpp:139] Memory required for data: 1077887452
I1114 15:57:16.390902 42195 layer_factory.hpp:77] Creating layer fuse_pool4
I1114 15:57:16.390913 42195 net.cpp:86] Creating Layer fuse_pool4
I1114 15:57:16.390926 42195 net.cpp:408] fuse_pool4 <- upscore2_upscore2_0_split_1
I1114 15:57:16.390934 42195 net.cpp:408] fuse_pool4 <- score_pool4c
I1114 15:57:16.390942 42195 net.cpp:382] fuse_pool4 -> fuse_pool4
I1114 15:57:16.390964 42195 net.cpp:124] Setting up fuse_pool4
I1114 15:57:16.390974 42195 net.cpp:131] Top shape: 2 19 14 24 (12768)
I1114 15:57:16.390978 42195 net.cpp:139] Memory required for data: 1077938524
I1114 15:57:16.390985 42195 layer_factory.hpp:77] Creating layer upscore_pool4
I1114 15:57:16.390995 42195 net.cpp:86] Creating Layer upscore_pool4
I1114 15:57:16.391000 42195 net.cpp:408] upscore_pool4 <- fuse_pool4
I1114 15:57:16.391010 42195 net.cpp:382] upscore_pool4 -> upscore_pool4
I1114 15:57:16.391142 42195 net.cpp:124] Setting up upscore_pool4
I1114 15:57:16.391152 42195 net.cpp:131] Top shape: 2 19 30 50 (57000)
I1114 15:57:16.391157 42195 net.cpp:139] Memory required for data: 1078166524
I1114 15:57:16.391165 42195 layer_factory.hpp:77] Creating layer upscore_pool4_upscore_pool4_0_split
I1114 15:57:16.391173 42195 net.cpp:86] Creating Layer upscore_pool4_upscore_pool4_0_split
I1114 15:57:16.391180 42195 net.cpp:408] upscore_pool4_upscore_pool4_0_split <- upscore_pool4
I1114 15:57:16.391187 42195 net.cpp:382] upscore_pool4_upscore_pool4_0_split -> upscore_pool4_upscore_pool4_0_split_0
I1114 15:57:16.391196 42195 net.cpp:382] upscore_pool4_upscore_pool4_0_split -> upscore_pool4_upscore_pool4_0_split_1
I1114 15:57:16.391225 42195 net.cpp:124] Setting up upscore_pool4_upscore_pool4_0_split
I1114 15:57:16.391234 42195 net.cpp:131] Top shape: 2 19 30 50 (57000)
I1114 15:57:16.391242 42195 net.cpp:131] Top shape: 2 19 30 50 (57000)
I1114 15:57:16.391247 42195 net.cpp:139] Memory required for data: 1078622524
I1114 15:57:16.391253 42195 layer_factory.hpp:77] Creating layer score_pool3
I1114 15:57:16.391263 42195 net.cpp:86] Creating Layer score_pool3
I1114 15:57:16.391268 42195 net.cpp:408] score_pool3 <- pool3_pool3_0_split_1
I1114 15:57:16.391278 42195 net.cpp:382] score_pool3 -> score_pool3
I1114 15:57:16.391449 42195 net.cpp:124] Setting up score_pool3
I1114 15:57:16.391459 42195 net.cpp:131] Top shape: 2 19 45 65 (111150)
I1114 15:57:16.391469 42195 net.cpp:139] Memory required for data: 1079067124
I1114 15:57:16.391477 42195 layer_factory.hpp:77] Creating layer score_pool3c
I1114 15:57:16.391486 42195 net.cpp:86] Creating Layer score_pool3c
I1114 15:57:16.391494 42195 net.cpp:408] score_pool3c <- score_pool3
I1114 15:57:16.391500 42195 net.cpp:408] score_pool3c <- upscore_pool4_upscore_pool4_0_split_0
I1114 15:57:16.391508 42195 net.cpp:382] score_pool3c -> score_pool3c
I1114 15:57:16.391583 42195 net.cpp:124] Setting up score_pool3c
I1114 15:57:16.391592 42195 net.cpp:131] Top shape: 2 19 30 50 (57000)
I1114 15:57:16.391598 42195 net.cpp:139] Memory required for data: 1079295124
I1114 15:57:16.391604 42195 layer_factory.hpp:77] Creating layer fuse_pool3
I1114 15:57:16.391613 42195 net.cpp:86] Creating Layer fuse_pool3
I1114 15:57:16.391618 42195 net.cpp:408] fuse_pool3 <- upscore_pool4_upscore_pool4_0_split_1
I1114 15:57:16.391625 42195 net.cpp:408] fuse_pool3 <- score_pool3c
I1114 15:57:16.391633 42195 net.cpp:382] fuse_pool3 -> fuse_pool3
I1114 15:57:16.391654 42195 net.cpp:124] Setting up fuse_pool3
I1114 15:57:16.391662 42195 net.cpp:131] Top shape: 2 19 30 50 (57000)
I1114 15:57:16.391669 42195 net.cpp:139] Memory required for data: 1079523124
I1114 15:57:16.391674 42195 layer_factory.hpp:77] Creating layer upscore8
I1114 15:57:16.391683 42195 net.cpp:86] Creating Layer upscore8
I1114 15:57:16.391690 42195 net.cpp:408] upscore8 <- fuse_pool3
I1114 15:57:16.391697 42195 net.cpp:382] upscore8 -> upscore8
I1114 15:57:16.391922 42195 net.cpp:124] Setting up upscore8
I1114 15:57:16.391933 42195 net.cpp:131] Top shape: 2 19 248 408 (3844992)
I1114 15:57:16.391938 42195 net.cpp:139] Memory required for data: 1094903092
I1114 15:57:16.391947 42195 layer_factory.hpp:77] Creating layer score
I1114 15:57:16.391955 42195 net.cpp:86] Creating Layer score
I1114 15:57:16.391965 42195 net.cpp:408] score <- upscore8
I1114 15:57:16.391973 42195 net.cpp:408] score <- data_data_0_split_1
I1114 15:57:16.391981 42195 net.cpp:382] score -> score
I1114 15:57:16.392052 42195 net.cpp:124] Setting up score
I1114 15:57:16.392061 42195 net.cpp:131] Top shape: 2 19 160 320 (1945600)
I1114 15:57:16.392067 42195 net.cpp:139] Memory required for data: 1102685492
I1114 15:57:16.392073 42195 layer_factory.hpp:77] Creating layer loss
I1114 15:57:16.392086 42195 net.cpp:86] Creating Layer loss
I1114 15:57:16.392092 42195 net.cpp:408] loss <- score
I1114 15:57:16.392099 42195 net.cpp:408] loss <- fakelabel
I1114 15:57:16.392108 42195 net.cpp:382] loss -> loss
I1114 15:57:16.392122 42195 layer_factory.hpp:77] Creating layer loss
…
