…
I1111 06:29:25.227335 11452 solver.cpp:92] Creating training net from train_net file: adv_train.prototxt
I1111 06:29:25.229259 11452 net.cpp:53] Initializing net from parameters: 
state {
  phase: TRAIN
}
layer {
  name: "data1"
  type: "Python"
  top: "data1"
  top: "label"
  top: "fakelabel"
  python_param {
    module: "adv_mapillary_layer"
    layer: "MapillaryLayer"
    param_str: "{\'img_dir\': \'/l/vision/v5/chen478/Fall2018/mapillary/training/images/\', \'label_dir\': \'/l/vision/v5/chen478/Fall2018/fcn.mapillary/results/seg_res_train/\', \'seed\': 1337, \'mean\': (71.60167789, 82.09696889, 72.30608881)}"
  }
}
layer {
  name: "conv1"
  type: "Convolution"
  bottom: "data1"
  top: "conv1"
  convolution_param {
    num_output: 64
    pad: 0
    kernel_size: 3
    stride: 2
    weight_filler {
      type: "xavier"
    }
  }
}
layer {
  name: "bn1"
  type: "BatchNorm"
  bottom: "conv1"
  top: "bn1"
  batch_norm_param {
    use_global_stats: false
  }
}
layer {
  name: "scale1"
  type: "Scale"
  bottom: "bn1"
  top: "bn1"
  scale_param {
    bias_term: true
  }
}
layer {
  name: "relu1"
  type: "ReLU"
  bottom: "bn1"
  top: "bn1"
}
layer {
  name: "conv2"
  type: "Convolution"
  bottom: "bn1"
  top: "conv2"
  convolution_param {
    num_output: 128
    pad: 0
    kernel_size: 5
    stride: 2
    weight_filler {
      type: "xavier"
    }
  }
}
layer {
  name: "bn2"
  type: "BatchNorm"
  bottom: "conv2"
  top: "bn2"
  batch_norm_param {
    use_global_stats: false
  }
}
layer {
  name: "scale2"
  type: "Scale"
  bottom: "bn2"
  top: "bn2"
  scale_param {
    bias_term: true
  }
}
layer {
  name: "relu2"
  type: "ReLU"
  bottom: "bn2"
  top: "bn2"
}
layer {
  name: "conv3"
  type: "Convolution"
  bottom: "bn2"
  top: "conv3"
  convolution_param {
    num_output: 256
    pad: 0
    kernel_size: 5
    stride: 2
    weight_filler {
      type: "xavier"
    }
  }
}
layer {
  name: "bn3"
  type: "BatchNorm"
  bottom: "conv3"
  top: "bn3"
  batch_norm_param {
    use_global_stats: false
  }
}
layer {
  name: "scale3"
  type: "Scale"
  bottom: "bn3"
  top: "bn3"
  scale_param {
    bias_term: true
  }
}
layer {
  name: "relu3"
  type: "ReLU"
  bottom: "bn3"
  top: "bn3"
}
layer {
  name: "conv4"
  type: "Convolution"
  bottom: "bn3"
  top: "conv4"
  convolution_param {
    num_output: 512
    pad: 0
    kernel_size: 3
    stride: 1
    weight_filler {
      type: "xavier"
    }
  }
}
layer {
  name: "bn4"
  type: "BatchNorm"
  bottom: "conv4"
  top: "bn4"
  batch_norm_param {
    use_global_stats: false
  }
}
layer {
  name: "scale4"
  type: "Scale"
  bottom: "bn4"
  top: "bn4"
  scale_param {
    bias_term: true
  }
}
layer {
  name: "relu4"
  type: "ReLU"
  bottom: "bn4"
  top: "bn4"
}
layer {
  name: "embed_conv2"
  type: "Deconvolution"
  bottom: "bn4"
  top: "embed_conv2"
  convolution_param {
    num_output: 256
    pad: 0
    kernel_size: 3
    stride: 1
    weight_filler {
      type: "xavier"
    }
  }
}
layer {
  name: "embed_bn2"
  type: "BatchNorm"
  bottom: "embed_conv2"
  top: "embed_bn2"
  batch_norm_param {
    use_global_stats: false
  }
}
layer {
  name: "embed_scale2"
  type: "Scale"
  bottom: "embed_bn2"
  top: "embed_bn2"
  scale_param {
    bias_term: true
  }
}
layer {
  name: "embed_relu2"
  type: "ReLU"
  bottom: "embed_bn2"
  top: "embed_bn2"
}
layer {
  name: "concat1"
  type: "Concat"
  bottom: "bn3"
  bottom: "embed_bn2"
  top: "concat1"
  concat_param {
    axis: 1
  }
}
layer {
  name: "embed_conv3"
  type: "Deconvolution"
  bottom: "concat1"
  top: "embed_conv3"
  convolution_param {
    num_output: 128
    pad: 0
    kernel_size: 6
    stride: 2
    weight_filler {
      type: "xavier"
    }
  }
}
layer {
  name: "embed_bn3"
  type: "BatchNorm"
  bottom: "embed_conv3"
  top: "embed_bn3"
  batch_norm_param {
    use_global_stats: false
  }
}
layer {
  name: "embed_scale3"
  type: "Scale"
  bottom: "embed_bn3"
  top: "embed_bn3"
  scale_param {
    bias_term: true
  }
}
layer {
  name: "embed_relu3"
  type: "ReLU"
  bottom: "embed_bn3"
  top: "embed_bn3"
}
layer {
  name: "concat2"
  type: "Concat"
  bottom: "bn2"
  bottom: "embed_bn3"
  top: "concat2"
  concat_param {
    axis: 1
  }
}
layer {
  name: "embed_conv4"
  type: "Deconvolution"
  bottom: "concat2"
  top: "embed_conv4"
  convolution_param {
    num_output: 64
    pad: 0
    kernel_size: 5
    stride: 2
    weight_filler {
      type: "xavier"
    }
  }
}
layer {
  name: "embed_bn4"
  type: "BatchNorm"
  bottom: "embed_conv4"
  top: "embed_bn4"
  batch_norm_param {
    use_global_stats: false
  }
}
layer {
  name: "embed_scale4"
  type: "Scale"
  bottom: "embed_bn4"
  top: "embed_bn4"
  scale_param {
    bias_term: true
  }
}
layer {
  name: "embed_relu4"
  type: "ReLU"
  bottom: "embed_bn4"
  top: "embed_bn4"
}
layer {
  name: "concat3"
  type: "Concat"
  bottom: "bn1"
  bottom: "embed_bn4"
  top: "concat3"
  concat_param {
    axis: 1
  }
}
layer {
  name: "seg"
  type: "Deconvolution"
  bottom: "concat3"
  top: "seg"
  convolution_param {
    num_output: 19
    pad: 0
    kernel_size: 4
    stride: 2
    weight_filler {
      type: "xavier"
    }
  }
}
layer {
  name: "seg_bn"
  type: "BatchNorm"
  bottom: "seg"
  top: "seg_bn"
  batch_norm_param {
    use_global_stats: false
  }
}
layer {
  name: "seg_scale"
  type: "Scale"
  bottom: "seg_bn"
  top: "seg_bn"
  scale_param {
    bias_term: true
  }
}
layer {
  name: "reg_loss"
  type: "SoftmaxWithLoss"
  bottom: "seg_bn"
  bottom: "label"
  top: "reg_loss"
  loss_weight: 0.01
  loss_param {
    ignore_label: 255
    normalize: false
  }
}
layer {
  name: "embed_conv5"
  type: "Deconvolution"
  bottom: "concat3"
  top: "embed_conv5"
  convolution_param {
    num_output: 3
    pad: 0
    kernel_size: 4
    stride: 2
    weight_filler {
      type: "xavier"
    }
  }
}
layer {
  name: "embed_bn5"
  type: "BatchNorm"
  bottom: "embed_conv5"
  top: "embed_bn5"
  batch_norm_param {
    use_global_stats: false
  }
}
layer {
  name: "embed_scale5"
  type: "Scale"
  bottom: "embed_bn5"
  top: "embed_bn5"
  scale_param {
    bias_term: true
  }
}
layer {
  name: "mask"
  type: "RandVec"
  top: "mask"
  rand_vec_param {
    batch_size: 2
    dim: 3
    height: 160
    width: 320
  }
}
layer {
  name: "masked"
  type: "Eltwise"
  bottom: "embed_bn5"
  bottom: "mask"
  top: "masked"
  eltwise_param {
    operation: PROD
  }
}
layer {
  name: "data"
  type: "Eltwise"
  bottom: "data1"
  bottom: "masked"
  top: "data"
  eltwise_param {
    operation: SUM
  }
}
layer {
  name: "conv1_1"
  type: "Convolution"
  bottom: "data"
  top: "conv1_1"
  param {
    lr_mult: 0
    decay_mult: 1
  }
  param {
    lr_mult: 0
    decay_mult: 0
  }
  convolution_param {
    num_output: 64
    pad: 100
    kernel_size: 3
    stride: 1
  }
}
layer {
  name: "relu1_1"
  type: "ReLU"
  bottom: "conv1_1"
  top: "conv1_1"
}
layer {
  name: "conv1_2"
  type: "Convolution"
  bottom: "conv1_1"
  top: "conv1_2"
  param {
    lr_mult: 0
    decay_mult: 1
  }
  param {
    lr_mult: 0
    decay_mult: 0
  }
  convolution_param {
    num_output: 64
    pad: 1
    kernel_size: 3
    stride: 1
  }
}
layer {
  name: "relu1_2"
  type: "ReLU"
  bottom: "conv1_2"
  top: "conv1_2"
}
layer {
  name: "pool1"
  type: "Pooling"
  bottom: "conv1_2"
  top: "pool1"
  pooling_param {
    pool: MAX
    kernel_size: 2
    stride: 2
  }
}
layer {
  name: "conv2_1"
  type: "Convolution"
  bottom: "pool1"
  top: "conv2_1"
  param {
    lr_mult: 0
    decay_mult: 1
  }
  param {
    lr_mult: 0
    decay_mult: 0
  }
  convolution_param {
    num_output: 128
    pad: 1
    kernel_size: 3
    stride: 1
  }
}
layer {
  name: "relu2_1"
  type: "ReLU"
  bottom: "conv2_1"
  top: "conv2_1"
}
layer {
  name: "conv2_2"
  type: "Convolution"
  bottom: "conv2_1"
  top: "conv2_2"
  param {
    lr_mult: 0
    decay_mult: 1
  }
  param {
    lr_mult: 0
    decay_mult: 0
  }
  convolution_param {
    num_output: 128
    pad: 1
    kernel_size: 3
    stride: 1
  }
}
layer {
  name: "relu2_2"
  type: "ReLU"
  bottom: "conv2_2"
  top: "conv2_2"
}
layer {
  name: "pool2"
  type: "Pooling"
  bottom: "conv2_2"
  top: "pool2"
  pooling_param {
    pool: MAX
    kernel_size: 2
    stride: 2
  }
}
layer {
  name: "conv3_1"
  type: "Convolution"
  bottom: "pool2"
  top: "conv3_1"
  param {
    lr_mult: 0
    decay_mult: 1
  }
  param {
    lr_mult: 0
    decay_mult: 0
  }
  convolution_param {
    num_output: 256
    pad: 1
    kernel_size: 3
    stride: 1
  }
}
layer {
  name: "relu3_1"
  type: "ReLU"
  bottom: "conv3_1"
  top: "conv3_1"
}
layer {
  name: "conv3_2"
  type: "Convolution"
  bottom: "conv3_1"
  top: "conv3_2"
  param {
    lr_mult: 0
    decay_mult: 1
  }
  param {
    lr_mult: 0
    decay_mult: 0
  }
  convolution_param {
    num_output: 256
    pad: 1
    kernel_size: 3
    stride: 1
  }
}
layer {
  name: "relu3_2"
  type: "ReLU"
  bottom: "conv3_2"
  top: "conv3_2"
}
layer {
  name: "conv3_3"
  type: "Convolution"
  bottom: "conv3_2"
  top: "conv3_3"
  param {
    lr_mult: 0
    decay_mult: 1
  }
  param {
    lr_mult: 0
    decay_mult: 0
  }
  convolution_param {
    num_output: 256
    pad: 1
    kernel_size: 3
    stride: 1
  }
}
layer {
  name: "relu3_3"
  type: "ReLU"
  bottom: "conv3_3"
  top: "conv3_3"
}
layer {
  name: "pool3"
  type: "Pooling"
  bottom: "conv3_3"
  top: "pool3"
  pooling_param {
    pool: MAX
    kernel_size: 2
    stride: 2
  }
}
layer {
  name: "conv4_1"
  type: "Convolution"
  bottom: "pool3"
  top: "conv4_1"
  param {
    lr_mult: 0
    decay_mult: 1
  }
  param {
    lr_mult: 0
    decay_mult: 0
  }
  convolution_param {
    num_output: 512
    pad: 1
    kernel_size: 3
    stride: 1
  }
}
layer {
  name: "relu4_1"
  type: "ReLU"
  bottom: "conv4_1"
  top: "conv4_1"
}
layer {
  name: "conv4_2"
  type: "Convolution"
  bottom: "conv4_1"
  top: "conv4_2"
  param {
    lr_mult: 0
    decay_mult: 1
  }
  param {
    lr_mult: 0
    decay_mult: 0
  }
  convolution_param {
    num_output: 512
    pad: 1
    kernel_size: 3
    stride: 1
  }
}
layer {
  name: "relu4_2"
  type: "ReLU"
  bottom: "conv4_2"
  top: "conv4_2"
}
layer {
  name: "conv4_3"
  type: "Convolution"
  bottom: "conv4_2"
  top: "conv4_3"
  param {
    lr_mult: 0
    decay_mult: 1
  }
  param {
    lr_mult: 0
    decay_mult: 0
  }
  convolution_param {
    num_output: 512
    pad: 1
    kernel_size: 3
    stride: 1
  }
}
layer {
  name: "relu4_3"
  type: "ReLU"
  bottom: "conv4_3"
  top: "conv4_3"
}
layer {
  name: "pool4"
  type: "Pooling"
  bottom: "conv4_3"
  top: "pool4"
  pooling_param {
    pool: MAX
    kernel_size: 2
    stride: 2
  }
}
layer {
  name: "conv5_1"
  type: "Convolution"
  bottom: "pool4"
  top: "conv5_1"
  param {
    lr_mult: 0
    decay_mult: 1
  }
  param {
    lr_mult: 0
    decay_mult: 0
  }
  convolution_param {
    num_output: 512
    pad: 1
    kernel_size: 3
    stride: 1
  }
}
layer {
  name: "relu5_1"
  type: "ReLU"
  bottom: "conv5_1"
  top: "conv5_1"
}
layer {
  name: "conv5_2"
  type: "Convolution"
  bottom: "conv5_1"
  top: "conv5_2"
  param {
    lr_mult: 0
    decay_mult: 1
  }
  param {
    lr_mult: 0
    decay_mult: 0
  }
  convolution_param {
    num_output: 512
    pad: 1
    kernel_size: 3
    stride: 1
  }
}
layer {
  name: "relu5_2"
  type: "ReLU"
  bottom: "conv5_2"
  top: "conv5_2"
}
layer {
  name: "conv5_3"
  type: "Convolution"
  bottom: "conv5_2"
  top: "conv5_3"
  param {
    lr_mult: 0
    decay_mult: 1
  }
  param {
    lr_mult: 0
    decay_mult: 0
  }
  convolution_param {
    num_output: 512
    pad: 1
    kernel_size: 3
    stride: 1
  }
}
layer {
  name: "relu5_3"
  type: "ReLU"
  bottom: "conv5_3"
  top: "conv5_3"
}
layer {
  name: "pool5"
  type: "Pooling"
  bottom: "conv5_3"
  top: "pool5"
  pooling_param {
    pool: MAX
    kernel_size: 2
    stride: 2
  }
}
layer {
  name: "fc6"
  type: "Convolution"
  bottom: "pool5"
  top: "fc6"
  param {
    lr_mult: 0
    decay_mult: 1
  }
  param {
    lr_mult: 0
    decay_mult: 0
  }
  convolution_param {
    num_output: 4096
    pad: 0
    kernel_size: 7
    stride: 1
  }
}
layer {
  name: "relu6"
  type: "ReLU"
  bottom: "fc6"
  top: "fc6"
}
layer {
  name: "fc7"
  type: "Convolution"
  bottom: "fc6"
  top: "fc7"
  param {
    lr_mult: 0
    decay_mult: 1
  }
  param {
    lr_mult: 0
    decay_mult: 0
  }
  convolution_param {
    num_output: 4096
    pad: 0
    kernel_size: 1
    stride: 1
  }
}
layer {
  name: "relu7"
  type: "ReLU"
  bottom: "fc7"
  top: "fc7"
}
layer {
  name: "score_fr"
  type: "Convolution"
  bottom: "fc7"
  top: "score_fr"
  param {
    lr_mult: 0
    decay_mult: 1
  }
  param {
    lr_mult: 0
    decay_mult: 0
  }
  convolution_param {
    num_output: 19
    pad: 0
    kernel_size: 1
  }
}
layer {
  name: "upscore2"
  type: "Deconvolution"
  bottom: "score_fr"
  top: "upscore2"
  param {
    lr_mult: 0
    decay_mult: 1
  }
  convolution_param {
    num_output: 19
    bias_term: false
    kernel_size: 4
    stride: 2
  }
}
layer {
  name: "score_pool4"
  type: "Convolution"
  bottom: "pool4"
  top: "score_pool4"
  param {
    lr_mult: 0
    decay_mult: 1
  }
  param {
    lr_mult: 0
    decay_mult: 0
  }
  convolution_param {
    num_output: 19
    pad: 0
    kernel_size: 1
  }
}
layer {
  name: "score_pool4c"
  type: "Crop"
  bottom: "score_pool4"
  bottom: "upscore2"
  top: "score_pool4c"
  crop_param {
    axis: 2
    offset: 5
  }
}
layer {
  name: "fuse_pool4"
  type: "Eltwise"
  bottom: "upscore2"
  bottom: "score_pool4c"
  top: "fuse_pool4"
  eltwise_param {
    operation: SUM
  }
}
layer {
  name: "upscore_pool4"
  type: "Deconvolution"
  bottom: "fuse_pool4"
  top: "upscore_pool4"
  param {
    lr_mult: 0
    decay_mult: 1
  }
  convolution_param {
    num_output: 19
    bias_term: false
    kernel_size: 4
    stride: 2
  }
}
layer {
  name: "score_pool3"
  type: "Convolution"
  bottom: "pool3"
  top: "score_pool3"
  param {
    lr_mult: 0
    decay_mult: 1
  }
  param {
    lr_mult: 0
    decay_mult: 0
  }
  convolution_param {
    num_output: 19
    pad: 0
    kernel_size: 1
  }
}
layer {
  name: "score_pool3c"
  type: "Crop"
  bottom: "score_pool3"
  bottom: "upscore_pool4"
  top: "score_pool3c"
  crop_param {
    axis: 2
    offset: 9
  }
}
layer {
  name: "fuse_pool3"
  type: "Eltwise"
  bottom: "upscore_pool4"
  bottom: "score_pool3c"
  top: "fuse_pool3"
  eltwise_param {
    operation: SUM
  }
}
layer {
  name: "upscore8"
  type: "Deconvolution"
  bottom: "fuse_pool3"
  top: "upscore8"
  param {
    lr_mult: 0
    decay_mult: 1
  }
  convolution_param {
    num_output: 19
    bias_term: false
    kernel_size: 16
    stride: 8
  }
}
layer {
  name: "score"
  type: "Crop"
  bottom: "upscore8"
  bottom: "data"
  top: "score"
  crop_param {
    axis: 2
    offset: 31
  }
}
layer {
  name: "loss"
  type: "AdvSoftmaxWithLoss"
  bottom: "score"
  bottom: "fakelabel"
  top: "loss"
  loss_param {
    ignore_label: 255
    normalize: false
  }
  adv_softmax_with_loss_param {
    offset: 16
  }
}
I1111 06:29:25.229629 11452 layer_factory.hpp:77] Creating layer data1
I1111 06:29:25.231276 11452 net.cpp:86] Creating Layer data1
I1111 06:29:25.231292 11452 net.cpp:382] data1 -> data1
I1111 06:29:25.231307 11452 net.cpp:382] data1 -> label
I1111 06:29:25.231315 11452 net.cpp:382] data1 -> fakelabel
I1111 06:29:25.405584 11452 net.cpp:124] Setting up data1
I1111 06:29:25.405622 11452 net.cpp:131] Top shape: 2 3 160 320 (307200)
I1111 06:29:25.405632 11452 net.cpp:131] Top shape: 2 1 160 320 (102400)
I1111 06:29:25.405637 11452 net.cpp:131] Top shape: 2 160 320 (102400)
I1111 06:29:25.405643 11452 net.cpp:139] Memory required for data: 2048000
I1111 06:29:25.405652 11452 layer_factory.hpp:77] Creating layer data1_data1_0_split
I1111 06:29:25.405670 11452 net.cpp:86] Creating Layer data1_data1_0_split
I1111 06:29:25.405678 11452 net.cpp:408] data1_data1_0_split <- data1
I1111 06:29:25.405689 11452 net.cpp:382] data1_data1_0_split -> data1_data1_0_split_0
I1111 06:29:25.405707 11452 net.cpp:382] data1_data1_0_split -> data1_data1_0_split_1
I1111 06:29:25.405755 11452 net.cpp:124] Setting up data1_data1_0_split
I1111 06:29:25.405766 11452 net.cpp:131] Top shape: 2 3 160 320 (307200)
I1111 06:29:25.405789 11452 net.cpp:131] Top shape: 2 3 160 320 (307200)
I1111 06:29:25.405794 11452 net.cpp:139] Memory required for data: 4505600
I1111 06:29:25.405800 11452 layer_factory.hpp:77] Creating layer conv1
I1111 06:29:25.405817 11452 net.cpp:86] Creating Layer conv1
I1111 06:29:25.405822 11452 net.cpp:408] conv1 <- data1_data1_0_split_0
I1111 06:29:25.405829 11452 net.cpp:382] conv1 -> conv1
I1111 06:29:25.406206 11452 net.cpp:124] Setting up conv1
I1111 06:29:25.406219 11452 net.cpp:131] Top shape: 2 64 79 159 (1607808)
I1111 06:29:25.406224 11452 net.cpp:139] Memory required for data: 10936832
I1111 06:29:25.406242 11452 layer_factory.hpp:77] Creating layer bn1
I1111 06:29:25.406253 11452 net.cpp:86] Creating Layer bn1
I1111 06:29:25.406258 11452 net.cpp:408] bn1 <- conv1
I1111 06:29:25.406282 11452 net.cpp:382] bn1 -> bn1
I1111 06:29:25.406533 11452 net.cpp:124] Setting up bn1
I1111 06:29:25.406543 11452 net.cpp:131] Top shape: 2 64 79 159 (1607808)
I1111 06:29:25.406548 11452 net.cpp:139] Memory required for data: 17368064
I1111 06:29:25.406561 11452 layer_factory.hpp:77] Creating layer scale1
I1111 06:29:25.406574 11452 net.cpp:86] Creating Layer scale1
I1111 06:29:25.406595 11452 net.cpp:408] scale1 <- bn1
I1111 06:29:25.406602 11452 net.cpp:369] scale1 -> bn1 (in-place)
I1111 06:29:25.406651 11452 layer_factory.hpp:77] Creating layer scale1
I1111 06:29:25.406807 11452 net.cpp:124] Setting up scale1
I1111 06:29:25.406817 11452 net.cpp:131] Top shape: 2 64 79 159 (1607808)
I1111 06:29:25.406822 11452 net.cpp:139] Memory required for data: 23799296
I1111 06:29:25.406831 11452 layer_factory.hpp:77] Creating layer relu1
I1111 06:29:25.406841 11452 net.cpp:86] Creating Layer relu1
I1111 06:29:25.406847 11452 net.cpp:408] relu1 <- bn1
I1111 06:29:25.406853 11452 net.cpp:369] relu1 -> bn1 (in-place)
I1111 06:29:25.406862 11452 net.cpp:124] Setting up relu1
I1111 06:29:25.406868 11452 net.cpp:131] Top shape: 2 64 79 159 (1607808)
I1111 06:29:25.406873 11452 net.cpp:139] Memory required for data: 30230528
I1111 06:29:25.406879 11452 layer_factory.hpp:77] Creating layer bn1_relu1_0_split
I1111 06:29:25.406885 11452 net.cpp:86] Creating Layer bn1_relu1_0_split
I1111 06:29:25.406890 11452 net.cpp:408] bn1_relu1_0_split <- bn1
I1111 06:29:25.406898 11452 net.cpp:382] bn1_relu1_0_split -> bn1_relu1_0_split_0
I1111 06:29:25.406904 11452 net.cpp:382] bn1_relu1_0_split -> bn1_relu1_0_split_1
I1111 06:29:25.406944 11452 net.cpp:124] Setting up bn1_relu1_0_split
I1111 06:29:25.406952 11452 net.cpp:131] Top shape: 2 64 79 159 (1607808)
I1111 06:29:25.406960 11452 net.cpp:131] Top shape: 2 64 79 159 (1607808)
I1111 06:29:25.406965 11452 net.cpp:139] Memory required for data: 43092992
I1111 06:29:25.406970 11452 layer_factory.hpp:77] Creating layer conv2
I1111 06:29:25.406978 11452 net.cpp:86] Creating Layer conv2
I1111 06:29:25.406985 11452 net.cpp:408] conv2 <- bn1_relu1_0_split_0
I1111 06:29:25.406991 11452 net.cpp:382] conv2 -> conv2
I1111 06:29:25.408179 11452 net.cpp:124] Setting up conv2
I1111 06:29:25.408190 11452 net.cpp:131] Top shape: 2 128 38 78 (758784)
I1111 06:29:25.408195 11452 net.cpp:139] Memory required for data: 46128128
I1111 06:29:25.408205 11452 layer_factory.hpp:77] Creating layer bn2
I1111 06:29:25.408213 11452 net.cpp:86] Creating Layer bn2
I1111 06:29:25.408218 11452 net.cpp:408] bn2 <- conv2
I1111 06:29:25.408226 11452 net.cpp:382] bn2 -> bn2
I1111 06:29:25.408444 11452 net.cpp:124] Setting up bn2
I1111 06:29:25.408453 11452 net.cpp:131] Top shape: 2 128 38 78 (758784)
I1111 06:29:25.408459 11452 net.cpp:139] Memory required for data: 49163264
I1111 06:29:25.408473 11452 layer_factory.hpp:77] Creating layer scale2
I1111 06:29:25.408481 11452 net.cpp:86] Creating Layer scale2
I1111 06:29:25.408486 11452 net.cpp:408] scale2 <- bn2
I1111 06:29:25.408494 11452 net.cpp:369] scale2 -> bn2 (in-place)
I1111 06:29:25.408540 11452 layer_factory.hpp:77] Creating layer scale2
I1111 06:29:25.408664 11452 net.cpp:124] Setting up scale2
I1111 06:29:25.408674 11452 net.cpp:131] Top shape: 2 128 38 78 (758784)
I1111 06:29:25.408679 11452 net.cpp:139] Memory required for data: 52198400
I1111 06:29:25.408687 11452 layer_factory.hpp:77] Creating layer relu2
I1111 06:29:25.408694 11452 net.cpp:86] Creating Layer relu2
I1111 06:29:25.408700 11452 net.cpp:408] relu2 <- bn2
I1111 06:29:25.408706 11452 net.cpp:369] relu2 -> bn2 (in-place)
I1111 06:29:25.408715 11452 net.cpp:124] Setting up relu2
I1111 06:29:25.408720 11452 net.cpp:131] Top shape: 2 128 38 78 (758784)
I1111 06:29:25.408725 11452 net.cpp:139] Memory required for data: 55233536
I1111 06:29:25.408731 11452 layer_factory.hpp:77] Creating layer bn2_relu2_0_split
I1111 06:29:25.408737 11452 net.cpp:86] Creating Layer bn2_relu2_0_split
I1111 06:29:25.408742 11452 net.cpp:408] bn2_relu2_0_split <- bn2
I1111 06:29:25.408748 11452 net.cpp:382] bn2_relu2_0_split -> bn2_relu2_0_split_0
I1111 06:29:25.408756 11452 net.cpp:382] bn2_relu2_0_split -> bn2_relu2_0_split_1
I1111 06:29:25.408793 11452 net.cpp:124] Setting up bn2_relu2_0_split
I1111 06:29:25.408802 11452 net.cpp:131] Top shape: 2 128 38 78 (758784)
I1111 06:29:25.408808 11452 net.cpp:131] Top shape: 2 128 38 78 (758784)
I1111 06:29:25.408814 11452 net.cpp:139] Memory required for data: 61303808
I1111 06:29:25.408819 11452 layer_factory.hpp:77] Creating layer conv3
I1111 06:29:25.408828 11452 net.cpp:86] Creating Layer conv3
I1111 06:29:25.408833 11452 net.cpp:408] conv3 <- bn2_relu2_0_split_0
I1111 06:29:25.408840 11452 net.cpp:382] conv3 -> conv3
I1111 06:29:25.415097 11452 net.cpp:124] Setting up conv3
I1111 06:29:25.415114 11452 net.cpp:131] Top shape: 2 256 17 37 (322048)
I1111 06:29:25.415120 11452 net.cpp:139] Memory required for data: 62592000
I1111 06:29:25.415129 11452 layer_factory.hpp:77] Creating layer bn3
I1111 06:29:25.415138 11452 net.cpp:86] Creating Layer bn3
I1111 06:29:25.415144 11452 net.cpp:408] bn3 <- conv3
I1111 06:29:25.415153 11452 net.cpp:382] bn3 -> bn3
I1111 06:29:25.415376 11452 net.cpp:124] Setting up bn3
I1111 06:29:25.415385 11452 net.cpp:131] Top shape: 2 256 17 37 (322048)
I1111 06:29:25.415391 11452 net.cpp:139] Memory required for data: 63880192
I1111 06:29:25.415402 11452 layer_factory.hpp:77] Creating layer scale3
I1111 06:29:25.415411 11452 net.cpp:86] Creating Layer scale3
I1111 06:29:25.415416 11452 net.cpp:408] scale3 <- bn3
I1111 06:29:25.415423 11452 net.cpp:369] scale3 -> bn3 (in-place)
I1111 06:29:25.415521 11452 layer_factory.hpp:77] Creating layer scale3
I1111 06:29:25.415637 11452 net.cpp:124] Setting up scale3
I1111 06:29:25.415645 11452 net.cpp:131] Top shape: 2 256 17 37 (322048)
I1111 06:29:25.415652 11452 net.cpp:139] Memory required for data: 65168384
I1111 06:29:25.415659 11452 layer_factory.hpp:77] Creating layer relu3
I1111 06:29:25.415668 11452 net.cpp:86] Creating Layer relu3
I1111 06:29:25.415673 11452 net.cpp:408] relu3 <- bn3
I1111 06:29:25.415679 11452 net.cpp:369] relu3 -> bn3 (in-place)
I1111 06:29:25.415688 11452 net.cpp:124] Setting up relu3
I1111 06:29:25.415694 11452 net.cpp:131] Top shape: 2 256 17 37 (322048)
I1111 06:29:25.415699 11452 net.cpp:139] Memory required for data: 66456576
I1111 06:29:25.415705 11452 layer_factory.hpp:77] Creating layer bn3_relu3_0_split
I1111 06:29:25.415714 11452 net.cpp:86] Creating Layer bn3_relu3_0_split
I1111 06:29:25.415719 11452 net.cpp:408] bn3_relu3_0_split <- bn3
I1111 06:29:25.415725 11452 net.cpp:382] bn3_relu3_0_split -> bn3_relu3_0_split_0
I1111 06:29:25.415733 11452 net.cpp:382] bn3_relu3_0_split -> bn3_relu3_0_split_1
I1111 06:29:25.415776 11452 net.cpp:124] Setting up bn3_relu3_0_split
I1111 06:29:25.415802 11452 net.cpp:131] Top shape: 2 256 17 37 (322048)
I1111 06:29:25.415808 11452 net.cpp:131] Top shape: 2 256 17 37 (322048)
I1111 06:29:25.415813 11452 net.cpp:139] Memory required for data: 69032960
I1111 06:29:25.415818 11452 layer_factory.hpp:77] Creating layer conv4
I1111 06:29:25.415832 11452 net.cpp:86] Creating Layer conv4
I1111 06:29:25.415838 11452 net.cpp:408] conv4 <- bn3_relu3_0_split_0
I1111 06:29:25.415844 11452 net.cpp:382] conv4 -> conv4
I1111 06:29:25.424412 11452 net.cpp:124] Setting up conv4
I1111 06:29:25.424427 11452 net.cpp:131] Top shape: 2 512 15 35 (537600)
I1111 06:29:25.424434 11452 net.cpp:139] Memory required for data: 71183360
I1111 06:29:25.424443 11452 layer_factory.hpp:77] Creating layer bn4
I1111 06:29:25.424453 11452 net.cpp:86] Creating Layer bn4
I1111 06:29:25.424458 11452 net.cpp:408] bn4 <- conv4
I1111 06:29:25.424471 11452 net.cpp:382] bn4 -> bn4
I1111 06:29:25.424692 11452 net.cpp:124] Setting up bn4
I1111 06:29:25.424701 11452 net.cpp:131] Top shape: 2 512 15 35 (537600)
I1111 06:29:25.424707 11452 net.cpp:139] Memory required for data: 73333760
I1111 06:29:25.424729 11452 layer_factory.hpp:77] Creating layer scale4
I1111 06:29:25.424737 11452 net.cpp:86] Creating Layer scale4
I1111 06:29:25.424742 11452 net.cpp:408] scale4 <- bn4
I1111 06:29:25.424749 11452 net.cpp:369] scale4 -> bn4 (in-place)
I1111 06:29:25.424793 11452 layer_factory.hpp:77] Creating layer scale4
I1111 06:29:25.424902 11452 net.cpp:124] Setting up scale4
I1111 06:29:25.424911 11452 net.cpp:131] Top shape: 2 512 15 35 (537600)
I1111 06:29:25.424916 11452 net.cpp:139] Memory required for data: 75484160
I1111 06:29:25.424924 11452 layer_factory.hpp:77] Creating layer relu4
I1111 06:29:25.424932 11452 net.cpp:86] Creating Layer relu4
I1111 06:29:25.424937 11452 net.cpp:408] relu4 <- bn4
I1111 06:29:25.424943 11452 net.cpp:369] relu4 -> bn4 (in-place)
I1111 06:29:25.424950 11452 net.cpp:124] Setting up relu4
I1111 06:29:25.424957 11452 net.cpp:131] Top shape: 2 512 15 35 (537600)
I1111 06:29:25.424962 11452 net.cpp:139] Memory required for data: 77634560
I1111 06:29:25.424968 11452 layer_factory.hpp:77] Creating layer embed_conv2
I1111 06:29:25.424979 11452 net.cpp:86] Creating Layer embed_conv2
I1111 06:29:25.424985 11452 net.cpp:408] embed_conv2 <- bn4
I1111 06:29:25.424993 11452 net.cpp:382] embed_conv2 -> embed_conv2
I1111 06:29:25.437579 11452 net.cpp:124] Setting up embed_conv2
I1111 06:29:25.437597 11452 net.cpp:131] Top shape: 2 256 17 37 (322048)
I1111 06:29:25.437603 11452 net.cpp:139] Memory required for data: 78922752
I1111 06:29:25.437613 11452 layer_factory.hpp:77] Creating layer embed_bn2
I1111 06:29:25.437623 11452 net.cpp:86] Creating Layer embed_bn2
I1111 06:29:25.437628 11452 net.cpp:408] embed_bn2 <- embed_conv2
I1111 06:29:25.437636 11452 net.cpp:382] embed_bn2 -> embed_bn2
I1111 06:29:25.437892 11452 net.cpp:124] Setting up embed_bn2
I1111 06:29:25.437902 11452 net.cpp:131] Top shape: 2 256 17 37 (322048)
I1111 06:29:25.437907 11452 net.cpp:139] Memory required for data: 80210944
I1111 06:29:25.437919 11452 layer_factory.hpp:77] Creating layer embed_scale2
I1111 06:29:25.437927 11452 net.cpp:86] Creating Layer embed_scale2
I1111 06:29:25.437933 11452 net.cpp:408] embed_scale2 <- embed_bn2
I1111 06:29:25.437940 11452 net.cpp:369] embed_scale2 -> embed_bn2 (in-place)
I1111 06:29:25.437983 11452 layer_factory.hpp:77] Creating layer embed_scale2
I1111 06:29:25.438093 11452 net.cpp:124] Setting up embed_scale2
I1111 06:29:25.438102 11452 net.cpp:131] Top shape: 2 256 17 37 (322048)
I1111 06:29:25.438107 11452 net.cpp:139] Memory required for data: 81499136
I1111 06:29:25.438114 11452 layer_factory.hpp:77] Creating layer embed_relu2
I1111 06:29:25.438122 11452 net.cpp:86] Creating Layer embed_relu2
I1111 06:29:25.438128 11452 net.cpp:408] embed_relu2 <- embed_bn2
I1111 06:29:25.438134 11452 net.cpp:369] embed_relu2 -> embed_bn2 (in-place)
I1111 06:29:25.438141 11452 net.cpp:124] Setting up embed_relu2
I1111 06:29:25.438148 11452 net.cpp:131] Top shape: 2 256 17 37 (322048)
I1111 06:29:25.438153 11452 net.cpp:139] Memory required for data: 82787328
I1111 06:29:25.438158 11452 layer_factory.hpp:77] Creating layer concat1
I1111 06:29:25.438169 11452 net.cpp:86] Creating Layer concat1
I1111 06:29:25.438174 11452 net.cpp:408] concat1 <- bn3_relu3_0_split_1
I1111 06:29:25.438189 11452 net.cpp:408] concat1 <- embed_bn2
I1111 06:29:25.438195 11452 net.cpp:382] concat1 -> concat1
I1111 06:29:25.438227 11452 net.cpp:124] Setting up concat1
I1111 06:29:25.438236 11452 net.cpp:131] Top shape: 2 512 17 37 (644096)
I1111 06:29:25.438241 11452 net.cpp:139] Memory required for data: 85363712
I1111 06:29:25.438246 11452 layer_factory.hpp:77] Creating layer embed_conv3
I1111 06:29:25.438256 11452 net.cpp:86] Creating Layer embed_conv3
I1111 06:29:25.438261 11452 net.cpp:408] embed_conv3 <- concat1
I1111 06:29:25.438268 11452 net.cpp:382] embed_conv3 -> embed_conv3
I1111 06:29:25.454612 11452 net.cpp:124] Setting up embed_conv3
I1111 06:29:25.454628 11452 net.cpp:131] Top shape: 2 128 38 78 (758784)
I1111 06:29:25.454635 11452 net.cpp:139] Memory required for data: 88398848
I1111 06:29:25.454644 11452 layer_factory.hpp:77] Creating layer embed_bn3
I1111 06:29:25.454653 11452 net.cpp:86] Creating Layer embed_bn3
I1111 06:29:25.454659 11452 net.cpp:408] embed_bn3 <- embed_conv3
I1111 06:29:25.454668 11452 net.cpp:382] embed_bn3 -> embed_bn3
I1111 06:29:25.454903 11452 net.cpp:124] Setting up embed_bn3
I1111 06:29:25.454913 11452 net.cpp:131] Top shape: 2 128 38 78 (758784)
I1111 06:29:25.454919 11452 net.cpp:139] Memory required for data: 91433984
I1111 06:29:25.454928 11452 layer_factory.hpp:77] Creating layer embed_scale3
I1111 06:29:25.454937 11452 net.cpp:86] Creating Layer embed_scale3
I1111 06:29:25.454943 11452 net.cpp:408] embed_scale3 <- embed_bn3
I1111 06:29:25.454952 11452 net.cpp:369] embed_scale3 -> embed_bn3 (in-place)
I1111 06:29:25.454998 11452 layer_factory.hpp:77] Creating layer embed_scale3
I1111 06:29:25.455122 11452 net.cpp:124] Setting up embed_scale3
I1111 06:29:25.455132 11452 net.cpp:131] Top shape: 2 128 38 78 (758784)
I1111 06:29:25.455137 11452 net.cpp:139] Memory required for data: 94469120
I1111 06:29:25.455147 11452 layer_factory.hpp:77] Creating layer embed_relu3
I1111 06:29:25.455154 11452 net.cpp:86] Creating Layer embed_relu3
I1111 06:29:25.455160 11452 net.cpp:408] embed_relu3 <- embed_bn3
I1111 06:29:25.455166 11452 net.cpp:369] embed_relu3 -> embed_bn3 (in-place)
I1111 06:29:25.455174 11452 net.cpp:124] Setting up embed_relu3
I1111 06:29:25.455181 11452 net.cpp:131] Top shape: 2 128 38 78 (758784)
I1111 06:29:25.455188 11452 net.cpp:139] Memory required for data: 97504256
I1111 06:29:25.455193 11452 layer_factory.hpp:77] Creating layer concat2
I1111 06:29:25.455200 11452 net.cpp:86] Creating Layer concat2
I1111 06:29:25.455206 11452 net.cpp:408] concat2 <- bn2_relu2_0_split_1
I1111 06:29:25.455212 11452 net.cpp:408] concat2 <- embed_bn3
I1111 06:29:25.455220 11452 net.cpp:382] concat2 -> concat2
I1111 06:29:25.455250 11452 net.cpp:124] Setting up concat2
I1111 06:29:25.455260 11452 net.cpp:131] Top shape: 2 256 38 78 (1517568)
I1111 06:29:25.455265 11452 net.cpp:139] Memory required for data: 103574528
I1111 06:29:25.455271 11452 layer_factory.hpp:77] Creating layer embed_conv4
I1111 06:29:25.455281 11452 net.cpp:86] Creating Layer embed_conv4
I1111 06:29:25.455287 11452 net.cpp:408] embed_conv4 <- concat2
I1111 06:29:25.455296 11452 net.cpp:382] embed_conv4 -> embed_conv4
I1111 06:29:25.460409 11452 net.cpp:124] Setting up embed_conv4
I1111 06:29:25.460425 11452 net.cpp:131] Top shape: 2 64 79 159 (1607808)
I1111 06:29:25.460431 11452 net.cpp:139] Memory required for data: 110005760
I1111 06:29:25.460440 11452 layer_factory.hpp:77] Creating layer embed_bn4
I1111 06:29:25.460454 11452 net.cpp:86] Creating Layer embed_bn4
I1111 06:29:25.460464 11452 net.cpp:408] embed_bn4 <- embed_conv4
I1111 06:29:25.460472 11452 net.cpp:382] embed_bn4 -> embed_bn4
I1111 06:29:25.460709 11452 net.cpp:124] Setting up embed_bn4
I1111 06:29:25.460719 11452 net.cpp:131] Top shape: 2 64 79 159 (1607808)
I1111 06:29:25.460726 11452 net.cpp:139] Memory required for data: 116436992
I1111 06:29:25.460734 11452 layer_factory.hpp:77] Creating layer embed_scale4
I1111 06:29:25.460742 11452 net.cpp:86] Creating Layer embed_scale4
I1111 06:29:25.460748 11452 net.cpp:408] embed_scale4 <- embed_bn4
I1111 06:29:25.460759 11452 net.cpp:369] embed_scale4 -> embed_bn4 (in-place)
I1111 06:29:25.460806 11452 layer_factory.hpp:77] Creating layer embed_scale4
I1111 06:29:25.460938 11452 net.cpp:124] Setting up embed_scale4
I1111 06:29:25.460948 11452 net.cpp:131] Top shape: 2 64 79 159 (1607808)
I1111 06:29:25.460953 11452 net.cpp:139] Memory required for data: 122868224
I1111 06:29:25.460961 11452 layer_factory.hpp:77] Creating layer embed_relu4
I1111 06:29:25.460969 11452 net.cpp:86] Creating Layer embed_relu4
I1111 06:29:25.460974 11452 net.cpp:408] embed_relu4 <- embed_bn4
I1111 06:29:25.460981 11452 net.cpp:369] embed_relu4 -> embed_bn4 (in-place)
I1111 06:29:25.460988 11452 net.cpp:124] Setting up embed_relu4
I1111 06:29:25.460995 11452 net.cpp:131] Top shape: 2 64 79 159 (1607808)
I1111 06:29:25.461000 11452 net.cpp:139] Memory required for data: 129299456
I1111 06:29:25.461006 11452 layer_factory.hpp:77] Creating layer concat3
I1111 06:29:25.461014 11452 net.cpp:86] Creating Layer concat3
I1111 06:29:25.461019 11452 net.cpp:408] concat3 <- bn1_relu1_0_split_1
I1111 06:29:25.461024 11452 net.cpp:408] concat3 <- embed_bn4
I1111 06:29:25.461031 11452 net.cpp:382] concat3 -> concat3
I1111 06:29:25.461060 11452 net.cpp:124] Setting up concat3
I1111 06:29:25.461067 11452 net.cpp:131] Top shape: 2 128 79 159 (3215616)
I1111 06:29:25.461073 11452 net.cpp:139] Memory required for data: 142161920
I1111 06:29:25.461078 11452 layer_factory.hpp:77] Creating layer concat3_concat3_0_split
I1111 06:29:25.461086 11452 net.cpp:86] Creating Layer concat3_concat3_0_split
I1111 06:29:25.461091 11452 net.cpp:408] concat3_concat3_0_split <- concat3
I1111 06:29:25.461098 11452 net.cpp:382] concat3_concat3_0_split -> concat3_concat3_0_split_0
I1111 06:29:25.461107 11452 net.cpp:382] concat3_concat3_0_split -> concat3_concat3_0_split_1
I1111 06:29:25.461143 11452 net.cpp:124] Setting up concat3_concat3_0_split
I1111 06:29:25.461151 11452 net.cpp:131] Top shape: 2 128 79 159 (3215616)
I1111 06:29:25.461158 11452 net.cpp:131] Top shape: 2 128 79 159 (3215616)
I1111 06:29:25.461163 11452 net.cpp:139] Memory required for data: 167886848
I1111 06:29:25.461169 11452 layer_factory.hpp:77] Creating layer seg
I1111 06:29:25.461179 11452 net.cpp:86] Creating Layer seg
I1111 06:29:25.461184 11452 net.cpp:408] seg <- concat3_concat3_0_split_0
I1111 06:29:25.461191 11452 net.cpp:382] seg -> seg
I1111 06:29:25.461735 11452 net.cpp:124] Setting up seg
I1111 06:29:25.461745 11452 net.cpp:131] Top shape: 2 19 160 320 (1945600)
I1111 06:29:25.461751 11452 net.cpp:139] Memory required for data: 175669248
I1111 06:29:25.461760 11452 layer_factory.hpp:77] Creating layer seg_bn
I1111 06:29:25.461788 11452 net.cpp:86] Creating Layer seg_bn
I1111 06:29:25.461794 11452 net.cpp:408] seg_bn <- seg
I1111 06:29:25.461802 11452 net.cpp:382] seg_bn -> seg_bn
I1111 06:29:25.462065 11452 net.cpp:124] Setting up seg_bn
I1111 06:29:25.462074 11452 net.cpp:131] Top shape: 2 19 160 320 (1945600)
I1111 06:29:25.462080 11452 net.cpp:139] Memory required for data: 183451648
I1111 06:29:25.462088 11452 layer_factory.hpp:77] Creating layer seg_scale
I1111 06:29:25.462097 11452 net.cpp:86] Creating Layer seg_scale
I1111 06:29:25.462102 11452 net.cpp:408] seg_scale <- seg_bn
I1111 06:29:25.462110 11452 net.cpp:369] seg_scale -> seg_bn (in-place)
I1111 06:29:25.462154 11452 layer_factory.hpp:77] Creating layer seg_scale
I1111 06:29:25.464901 11452 net.cpp:124] Setting up seg_scale
I1111 06:29:25.464938 11452 net.cpp:131] Top shape: 2 19 160 320 (1945600)
I1111 06:29:25.464944 11452 net.cpp:139] Memory required for data: 191234048
I1111 06:29:25.464958 11452 layer_factory.hpp:77] Creating layer reg_loss
I1111 06:29:25.464980 11452 net.cpp:86] Creating Layer reg_loss
I1111 06:29:25.464988 11452 net.cpp:408] reg_loss <- seg_bn
I1111 06:29:25.464998 11452 net.cpp:408] reg_loss <- label
I1111 06:29:25.465005 11452 net.cpp:382] reg_loss -> reg_loss
I1111 06:29:25.465025 11452 layer_factory.hpp:77] Creating layer reg_loss
I1111 06:29:25.470507 11452 net.cpp:124] Setting up reg_loss
I1111 06:29:25.470530 11452 net.cpp:131] Top shape: (1)
I1111 06:29:25.470536 11452 net.cpp:134]     with loss weight 0.01
I1111 06:29:25.470553 11452 net.cpp:139] Memory required for data: 191234052
I1111 06:29:25.470561 11452 layer_factory.hpp:77] Creating layer embed_conv5
I1111 06:29:25.470577 11452 net.cpp:86] Creating Layer embed_conv5
I1111 06:29:25.470583 11452 net.cpp:408] embed_conv5 <- concat3_concat3_0_split_1
I1111 06:29:25.470592 11452 net.cpp:382] embed_conv5 -> embed_conv5
I1111 06:29:25.470997 11452 net.cpp:124] Setting up embed_conv5
I1111 06:29:25.471009 11452 net.cpp:131] Top shape: 2 3 160 320 (307200)
I1111 06:29:25.471014 11452 net.cpp:139] Memory required for data: 192462852
I1111 06:29:25.471024 11452 layer_factory.hpp:77] Creating layer embed_bn5
I1111 06:29:25.471035 11452 net.cpp:86] Creating Layer embed_bn5
I1111 06:29:25.471040 11452 net.cpp:408] embed_bn5 <- embed_conv5
I1111 06:29:25.471048 11452 net.cpp:382] embed_bn5 -> embed_bn5
I1111 06:29:25.471356 11452 net.cpp:124] Setting up embed_bn5
I1111 06:29:25.471366 11452 net.cpp:131] Top shape: 2 3 160 320 (307200)
I1111 06:29:25.471372 11452 net.cpp:139] Memory required for data: 193691652
I1111 06:29:25.471381 11452 layer_factory.hpp:77] Creating layer embed_scale5
I1111 06:29:25.471392 11452 net.cpp:86] Creating Layer embed_scale5
I1111 06:29:25.471398 11452 net.cpp:408] embed_scale5 <- embed_bn5
I1111 06:29:25.471405 11452 net.cpp:369] embed_scale5 -> embed_bn5 (in-place)
I1111 06:29:25.471453 11452 layer_factory.hpp:77] Creating layer embed_scale5
I1111 06:29:25.471709 11452 net.cpp:124] Setting up embed_scale5
I1111 06:29:25.471720 11452 net.cpp:131] Top shape: 2 3 160 320 (307200)
I1111 06:29:25.471725 11452 net.cpp:139] Memory required for data: 194920452
I1111 06:29:25.471735 11452 layer_factory.hpp:77] Creating layer mask
I1111 06:29:25.471746 11452 net.cpp:86] Creating Layer mask
I1111 06:29:25.471753 11452 net.cpp:382] mask -> mask
I1111 06:29:25.471786 11452 net.cpp:124] Setting up mask
I1111 06:29:25.471794 11452 net.cpp:131] Top shape: 2 3 160 320 (307200)
I1111 06:29:25.471799 11452 net.cpp:139] Memory required for data: 196149252
I1111 06:29:25.471805 11452 layer_factory.hpp:77] Creating layer masked
I1111 06:29:25.471817 11452 net.cpp:86] Creating Layer masked
I1111 06:29:25.471822 11452 net.cpp:408] masked <- embed_bn5
I1111 06:29:25.471829 11452 net.cpp:408] masked <- mask
I1111 06:29:25.471837 11452 net.cpp:382] masked -> masked
I1111 06:29:25.471869 11452 net.cpp:124] Setting up masked
I1111 06:29:25.471877 11452 net.cpp:131] Top shape: 2 3 160 320 (307200)
I1111 06:29:25.471884 11452 net.cpp:139] Memory required for data: 197378052
I1111 06:29:25.471889 11452 layer_factory.hpp:77] Creating layer data
I1111 06:29:25.471897 11452 net.cpp:86] Creating Layer data
I1111 06:29:25.471902 11452 net.cpp:408] data <- data1_data1_0_split_1
I1111 06:29:25.471909 11452 net.cpp:408] data <- masked
I1111 06:29:25.471917 11452 net.cpp:382] data -> data
I1111 06:29:25.471945 11452 net.cpp:124] Setting up data
I1111 06:29:25.471953 11452 net.cpp:131] Top shape: 2 3 160 320 (307200)
I1111 06:29:25.471958 11452 net.cpp:139] Memory required for data: 198606852
I1111 06:29:25.471964 11452 layer_factory.hpp:77] Creating layer data_data_0_split
I1111 06:29:25.471973 11452 net.cpp:86] Creating Layer data_data_0_split
I1111 06:29:25.471979 11452 net.cpp:408] data_data_0_split <- data
I1111 06:29:25.471987 11452 net.cpp:382] data_data_0_split -> data_data_0_split_0
I1111 06:29:25.471994 11452 net.cpp:382] data_data_0_split -> data_data_0_split_1
I1111 06:29:25.472035 11452 net.cpp:124] Setting up data_data_0_split
I1111 06:29:25.472044 11452 net.cpp:131] Top shape: 2 3 160 320 (307200)
I1111 06:29:25.472051 11452 net.cpp:131] Top shape: 2 3 160 320 (307200)
I1111 06:29:25.472056 11452 net.cpp:139] Memory required for data: 201064452
I1111 06:29:25.472062 11452 layer_factory.hpp:77] Creating layer conv1_1
I1111 06:29:25.472074 11452 net.cpp:86] Creating Layer conv1_1
I1111 06:29:25.472079 11452 net.cpp:408] conv1_1 <- data_data_0_split_0
I1111 06:29:25.472091 11452 net.cpp:382] conv1_1 -> conv1_1
I1111 06:29:25.472584 11452 net.cpp:124] Setting up conv1_1
I1111 06:29:25.472594 11452 net.cpp:131] Top shape: 2 64 358 518 (23736832)
I1111 06:29:25.472600 11452 net.cpp:139] Memory required for data: 296011780
I1111 06:29:25.472615 11452 layer_factory.hpp:77] Creating layer relu1_1
I1111 06:29:25.472623 11452 net.cpp:86] Creating Layer relu1_1
I1111 06:29:25.472630 11452 net.cpp:408] relu1_1 <- conv1_1
I1111 06:29:25.472636 11452 net.cpp:369] relu1_1 -> conv1_1 (in-place)
I1111 06:29:25.472645 11452 net.cpp:124] Setting up relu1_1
I1111 06:29:25.472651 11452 net.cpp:131] Top shape: 2 64 358 518 (23736832)
I1111 06:29:25.472657 11452 net.cpp:139] Memory required for data: 390959108
I1111 06:29:25.472662 11452 layer_factory.hpp:77] Creating layer conv1_2
I1111 06:29:25.472672 11452 net.cpp:86] Creating Layer conv1_2
I1111 06:29:25.472678 11452 net.cpp:408] conv1_2 <- conv1_1
I1111 06:29:25.472687 11452 net.cpp:382] conv1_2 -> conv1_2
I1111 06:29:25.478998 11452 net.cpp:124] Setting up conv1_2
I1111 06:29:25.479015 11452 net.cpp:131] Top shape: 2 64 358 518 (23736832)
I1111 06:29:25.479022 11452 net.cpp:139] Memory required for data: 485906436
I1111 06:29:25.479032 11452 layer_factory.hpp:77] Creating layer relu1_2
I1111 06:29:25.479040 11452 net.cpp:86] Creating Layer relu1_2
I1111 06:29:25.479046 11452 net.cpp:408] relu1_2 <- conv1_2
I1111 06:29:25.479053 11452 net.cpp:369] relu1_2 -> conv1_2 (in-place)
I1111 06:29:25.479063 11452 net.cpp:124] Setting up relu1_2
I1111 06:29:25.479069 11452 net.cpp:131] Top shape: 2 64 358 518 (23736832)
I1111 06:29:25.479075 11452 net.cpp:139] Memory required for data: 580853764
I1111 06:29:25.479081 11452 layer_factory.hpp:77] Creating layer pool1
I1111 06:29:25.479089 11452 net.cpp:86] Creating Layer pool1
I1111 06:29:25.479095 11452 net.cpp:408] pool1 <- conv1_2
I1111 06:29:25.479104 11452 net.cpp:382] pool1 -> pool1
I1111 06:29:25.479166 11452 net.cpp:124] Setting up pool1
I1111 06:29:25.479176 11452 net.cpp:131] Top shape: 2 64 179 259 (5934208)
I1111 06:29:25.479180 11452 net.cpp:139] Memory required for data: 604590596
I1111 06:29:25.479187 11452 layer_factory.hpp:77] Creating layer conv2_1
I1111 06:29:25.479197 11452 net.cpp:86] Creating Layer conv2_1
I1111 06:29:25.479203 11452 net.cpp:408] conv2_1 <- pool1
I1111 06:29:25.479210 11452 net.cpp:382] conv2_1 -> conv2_1
I1111 06:29:25.479610 11452 net.cpp:124] Setting up conv2_1
I1111 06:29:25.479621 11452 net.cpp:131] Top shape: 2 128 179 259 (11868416)
I1111 06:29:25.479627 11452 net.cpp:139] Memory required for data: 652064260
I1111 06:29:25.479635 11452 layer_factory.hpp:77] Creating layer relu2_1
I1111 06:29:25.479643 11452 net.cpp:86] Creating Layer relu2_1
I1111 06:29:25.479650 11452 net.cpp:408] relu2_1 <- conv2_1
I1111 06:29:25.479657 11452 net.cpp:369] relu2_1 -> conv2_1 (in-place)
I1111 06:29:25.479665 11452 net.cpp:124] Setting up relu2_1
I1111 06:29:25.479672 11452 net.cpp:131] Top shape: 2 128 179 259 (11868416)
I1111 06:29:25.479677 11452 net.cpp:139] Memory required for data: 699537924
I1111 06:29:25.479683 11452 layer_factory.hpp:77] Creating layer conv2_2
I1111 06:29:25.479694 11452 net.cpp:86] Creating Layer conv2_2
I1111 06:29:25.479699 11452 net.cpp:408] conv2_2 <- conv2_1
I1111 06:29:25.479707 11452 net.cpp:382] conv2_2 -> conv2_2
I1111 06:29:25.480095 11452 net.cpp:124] Setting up conv2_2
I1111 06:29:25.480123 11452 net.cpp:131] Top shape: 2 128 179 259 (11868416)
I1111 06:29:25.480129 11452 net.cpp:139] Memory required for data: 747011588
I1111 06:29:25.480136 11452 layer_factory.hpp:77] Creating layer relu2_2
I1111 06:29:25.480145 11452 net.cpp:86] Creating Layer relu2_2
I1111 06:29:25.480151 11452 net.cpp:408] relu2_2 <- conv2_2
I1111 06:29:25.480159 11452 net.cpp:369] relu2_2 -> conv2_2 (in-place)
I1111 06:29:25.480166 11452 net.cpp:124] Setting up relu2_2
I1111 06:29:25.480173 11452 net.cpp:131] Top shape: 2 128 179 259 (11868416)
I1111 06:29:25.480180 11452 net.cpp:139] Memory required for data: 794485252
I1111 06:29:25.480185 11452 layer_factory.hpp:77] Creating layer pool2
I1111 06:29:25.480196 11452 net.cpp:86] Creating Layer pool2
I1111 06:29:25.480203 11452 net.cpp:408] pool2 <- conv2_2
I1111 06:29:25.480211 11452 net.cpp:382] pool2 -> pool2
I1111 06:29:25.480259 11452 net.cpp:124] Setting up pool2
I1111 06:29:25.480268 11452 net.cpp:131] Top shape: 2 128 90 130 (2995200)
I1111 06:29:25.480274 11452 net.cpp:139] Memory required for data: 806466052
I1111 06:29:25.480280 11452 layer_factory.hpp:77] Creating layer conv3_1
I1111 06:29:25.480289 11452 net.cpp:86] Creating Layer conv3_1
I1111 06:29:25.480295 11452 net.cpp:408] conv3_1 <- pool2
I1111 06:29:25.480304 11452 net.cpp:382] conv3_1 -> conv3_1
I1111 06:29:25.482161 11452 net.cpp:124] Setting up conv3_1
I1111 06:29:25.482177 11452 net.cpp:131] Top shape: 2 256 90 130 (5990400)
I1111 06:29:25.482182 11452 net.cpp:139] Memory required for data: 830427652
I1111 06:29:25.482192 11452 layer_factory.hpp:77] Creating layer relu3_1
I1111 06:29:25.482200 11452 net.cpp:86] Creating Layer relu3_1
I1111 06:29:25.482208 11452 net.cpp:408] relu3_1 <- conv3_1
I1111 06:29:25.482215 11452 net.cpp:369] relu3_1 -> conv3_1 (in-place)
I1111 06:29:25.482224 11452 net.cpp:124] Setting up relu3_1
I1111 06:29:25.482231 11452 net.cpp:131] Top shape: 2 256 90 130 (5990400)
I1111 06:29:25.482237 11452 net.cpp:139] Memory required for data: 854389252
I1111 06:29:25.482242 11452 layer_factory.hpp:77] Creating layer conv3_2
I1111 06:29:25.482254 11452 net.cpp:86] Creating Layer conv3_2
I1111 06:29:25.482259 11452 net.cpp:408] conv3_2 <- conv3_1
I1111 06:29:25.482267 11452 net.cpp:382] conv3_2 -> conv3_2
I1111 06:29:25.484426 11452 net.cpp:124] Setting up conv3_2
I1111 06:29:25.484441 11452 net.cpp:131] Top shape: 2 256 90 130 (5990400)
I1111 06:29:25.484448 11452 net.cpp:139] Memory required for data: 878350852
I1111 06:29:25.484457 11452 layer_factory.hpp:77] Creating layer relu3_2
I1111 06:29:25.484469 11452 net.cpp:86] Creating Layer relu3_2
I1111 06:29:25.484477 11452 net.cpp:408] relu3_2 <- conv3_2
I1111 06:29:25.484484 11452 net.cpp:369] relu3_2 -> conv3_2 (in-place)
I1111 06:29:25.484493 11452 net.cpp:124] Setting up relu3_2
I1111 06:29:25.484500 11452 net.cpp:131] Top shape: 2 256 90 130 (5990400)
I1111 06:29:25.484505 11452 net.cpp:139] Memory required for data: 902312452
I1111 06:29:25.484511 11452 layer_factory.hpp:77] Creating layer conv3_3
I1111 06:29:25.484522 11452 net.cpp:86] Creating Layer conv3_3
I1111 06:29:25.484529 11452 net.cpp:408] conv3_3 <- conv3_2
I1111 06:29:25.484536 11452 net.cpp:382] conv3_3 -> conv3_3
I1111 06:29:25.486675 11452 net.cpp:124] Setting up conv3_3
I1111 06:29:25.486690 11452 net.cpp:131] Top shape: 2 256 90 130 (5990400)
I1111 06:29:25.486696 11452 net.cpp:139] Memory required for data: 926274052
I1111 06:29:25.486706 11452 layer_factory.hpp:77] Creating layer relu3_3
I1111 06:29:25.486713 11452 net.cpp:86] Creating Layer relu3_3
I1111 06:29:25.486721 11452 net.cpp:408] relu3_3 <- conv3_3
I1111 06:29:25.486727 11452 net.cpp:369] relu3_3 -> conv3_3 (in-place)
I1111 06:29:25.486737 11452 net.cpp:124] Setting up relu3_3
I1111 06:29:25.486743 11452 net.cpp:131] Top shape: 2 256 90 130 (5990400)
I1111 06:29:25.486748 11452 net.cpp:139] Memory required for data: 950235652
I1111 06:29:25.486754 11452 layer_factory.hpp:77] Creating layer pool3
I1111 06:29:25.486765 11452 net.cpp:86] Creating Layer pool3
I1111 06:29:25.486770 11452 net.cpp:408] pool3 <- conv3_3
I1111 06:29:25.486778 11452 net.cpp:382] pool3 -> pool3
I1111 06:29:25.486829 11452 net.cpp:124] Setting up pool3
I1111 06:29:25.486837 11452 net.cpp:131] Top shape: 2 256 45 65 (1497600)
I1111 06:29:25.486843 11452 net.cpp:139] Memory required for data: 956226052
I1111 06:29:25.486850 11452 layer_factory.hpp:77] Creating layer pool3_pool3_0_split
I1111 06:29:25.486858 11452 net.cpp:86] Creating Layer pool3_pool3_0_split
I1111 06:29:25.486865 11452 net.cpp:408] pool3_pool3_0_split <- pool3
I1111 06:29:25.486871 11452 net.cpp:382] pool3_pool3_0_split -> pool3_pool3_0_split_0
I1111 06:29:25.486881 11452 net.cpp:382] pool3_pool3_0_split -> pool3_pool3_0_split_1
I1111 06:29:25.486927 11452 net.cpp:124] Setting up pool3_pool3_0_split
I1111 06:29:25.486935 11452 net.cpp:131] Top shape: 2 256 45 65 (1497600)
I1111 06:29:25.486943 11452 net.cpp:131] Top shape: 2 256 45 65 (1497600)
I1111 06:29:25.486948 11452 net.cpp:139] Memory required for data: 968206852
I1111 06:29:25.486953 11452 layer_factory.hpp:77] Creating layer conv4_1
I1111 06:29:25.486964 11452 net.cpp:86] Creating Layer conv4_1
I1111 06:29:25.486970 11452 net.cpp:408] conv4_1 <- pool3_pool3_0_split_0
I1111 06:29:25.486979 11452 net.cpp:382] conv4_1 -> conv4_1
I1111 06:29:25.490450 11452 net.cpp:124] Setting up conv4_1
I1111 06:29:25.490470 11452 net.cpp:131] Top shape: 2 512 45 65 (2995200)
I1111 06:29:25.490476 11452 net.cpp:139] Memory required for data: 980187652
I1111 06:29:25.490485 11452 layer_factory.hpp:77] Creating layer relu4_1
I1111 06:29:25.490494 11452 net.cpp:86] Creating Layer relu4_1
I1111 06:29:25.490500 11452 net.cpp:408] relu4_1 <- conv4_1
I1111 06:29:25.490509 11452 net.cpp:369] relu4_1 -> conv4_1 (in-place)
I1111 06:29:25.490517 11452 net.cpp:124] Setting up relu4_1
I1111 06:29:25.490525 11452 net.cpp:131] Top shape: 2 512 45 65 (2995200)
I1111 06:29:25.490530 11452 net.cpp:139] Memory required for data: 992168452
I1111 06:29:25.490536 11452 layer_factory.hpp:77] Creating layer conv4_2
I1111 06:29:25.490546 11452 net.cpp:86] Creating Layer conv4_2
I1111 06:29:25.490552 11452 net.cpp:408] conv4_2 <- conv4_1
I1111 06:29:25.490561 11452 net.cpp:382] conv4_2 -> conv4_2
I1111 06:29:25.498409 11452 net.cpp:124] Setting up conv4_2
I1111 06:29:25.498438 11452 net.cpp:131] Top shape: 2 512 45 65 (2995200)
I1111 06:29:25.498445 11452 net.cpp:139] Memory required for data: 1004149252
I1111 06:29:25.498455 11452 layer_factory.hpp:77] Creating layer relu4_2
I1111 06:29:25.498469 11452 net.cpp:86] Creating Layer relu4_2
I1111 06:29:25.498477 11452 net.cpp:408] relu4_2 <- conv4_2
I1111 06:29:25.498486 11452 net.cpp:369] relu4_2 -> conv4_2 (in-place)
I1111 06:29:25.498494 11452 net.cpp:124] Setting up relu4_2
I1111 06:29:25.498502 11452 net.cpp:131] Top shape: 2 512 45 65 (2995200)
I1111 06:29:25.498507 11452 net.cpp:139] Memory required for data: 1016130052
I1111 06:29:25.498512 11452 layer_factory.hpp:77] Creating layer conv4_3
I1111 06:29:25.498523 11452 net.cpp:86] Creating Layer conv4_3
I1111 06:29:25.498528 11452 net.cpp:408] conv4_3 <- conv4_2
I1111 06:29:25.498536 11452 net.cpp:382] conv4_3 -> conv4_3
I1111 06:29:25.506146 11452 net.cpp:124] Setting up conv4_3
I1111 06:29:25.506165 11452 net.cpp:131] Top shape: 2 512 45 65 (2995200)
I1111 06:29:25.506170 11452 net.cpp:139] Memory required for data: 1028110852
I1111 06:29:25.506181 11452 layer_factory.hpp:77] Creating layer relu4_3
I1111 06:29:25.506191 11452 net.cpp:86] Creating Layer relu4_3
I1111 06:29:25.506197 11452 net.cpp:408] relu4_3 <- conv4_3
I1111 06:29:25.506204 11452 net.cpp:369] relu4_3 -> conv4_3 (in-place)
I1111 06:29:25.506213 11452 net.cpp:124] Setting up relu4_3
I1111 06:29:25.506222 11452 net.cpp:131] Top shape: 2 512 45 65 (2995200)
I1111 06:29:25.506227 11452 net.cpp:139] Memory required for data: 1040091652
I1111 06:29:25.506232 11452 layer_factory.hpp:77] Creating layer pool4
I1111 06:29:25.506240 11452 net.cpp:86] Creating Layer pool4
I1111 06:29:25.506247 11452 net.cpp:408] pool4 <- conv4_3
I1111 06:29:25.506254 11452 net.cpp:382] pool4 -> pool4
I1111 06:29:25.506309 11452 net.cpp:124] Setting up pool4
I1111 06:29:25.506317 11452 net.cpp:131] Top shape: 2 512 23 33 (777216)
I1111 06:29:25.506323 11452 net.cpp:139] Memory required for data: 1043200516
I1111 06:29:25.506328 11452 layer_factory.hpp:77] Creating layer pool4_pool4_0_split
I1111 06:29:25.506338 11452 net.cpp:86] Creating Layer pool4_pool4_0_split
I1111 06:29:25.506343 11452 net.cpp:408] pool4_pool4_0_split <- pool4
I1111 06:29:25.506351 11452 net.cpp:382] pool4_pool4_0_split -> pool4_pool4_0_split_0
I1111 06:29:25.506359 11452 net.cpp:382] pool4_pool4_0_split -> pool4_pool4_0_split_1
I1111 06:29:25.506402 11452 net.cpp:124] Setting up pool4_pool4_0_split
I1111 06:29:25.506413 11452 net.cpp:131] Top shape: 2 512 23 33 (777216)
I1111 06:29:25.506422 11452 net.cpp:131] Top shape: 2 512 23 33 (777216)
I1111 06:29:25.506426 11452 net.cpp:139] Memory required for data: 1049418244
I1111 06:29:25.506433 11452 layer_factory.hpp:77] Creating layer conv5_1
I1111 06:29:25.506443 11452 net.cpp:86] Creating Layer conv5_1
I1111 06:29:25.506448 11452 net.cpp:408] conv5_1 <- pool4_pool4_0_split_0
I1111 06:29:25.506456 11452 net.cpp:382] conv5_1 -> conv5_1
I1111 06:29:25.512845 11452 net.cpp:124] Setting up conv5_1
I1111 06:29:25.512866 11452 net.cpp:131] Top shape: 2 512 23 33 (777216)
I1111 06:29:25.512872 11452 net.cpp:139] Memory required for data: 1052527108
I1111 06:29:25.512882 11452 layer_factory.hpp:77] Creating layer relu5_1
I1111 06:29:25.512892 11452 net.cpp:86] Creating Layer relu5_1
I1111 06:29:25.512898 11452 net.cpp:408] relu5_1 <- conv5_1
I1111 06:29:25.512907 11452 net.cpp:369] relu5_1 -> conv5_1 (in-place)
I1111 06:29:25.512917 11452 net.cpp:124] Setting up relu5_1
I1111 06:29:25.512923 11452 net.cpp:131] Top shape: 2 512 23 33 (777216)
I1111 06:29:25.512929 11452 net.cpp:139] Memory required for data: 1055635972
I1111 06:29:25.512934 11452 layer_factory.hpp:77] Creating layer conv5_2
I1111 06:29:25.512960 11452 net.cpp:86] Creating Layer conv5_2
I1111 06:29:25.512966 11452 net.cpp:408] conv5_2 <- conv5_1
I1111 06:29:25.512974 11452 net.cpp:382] conv5_2 -> conv5_2
I1111 06:29:25.520961 11452 net.cpp:124] Setting up conv5_2
I1111 06:29:25.520982 11452 net.cpp:131] Top shape: 2 512 23 33 (777216)
I1111 06:29:25.520988 11452 net.cpp:139] Memory required for data: 1058744836
I1111 06:29:25.520998 11452 layer_factory.hpp:77] Creating layer relu5_2
I1111 06:29:25.521006 11452 net.cpp:86] Creating Layer relu5_2
I1111 06:29:25.521013 11452 net.cpp:408] relu5_2 <- conv5_2
I1111 06:29:25.521023 11452 net.cpp:369] relu5_2 -> conv5_2 (in-place)
I1111 06:29:25.521032 11452 net.cpp:124] Setting up relu5_2
I1111 06:29:25.521039 11452 net.cpp:131] Top shape: 2 512 23 33 (777216)
I1111 06:29:25.521044 11452 net.cpp:139] Memory required for data: 1061853700
I1111 06:29:25.521050 11452 layer_factory.hpp:77] Creating layer conv5_3
I1111 06:29:25.521061 11452 net.cpp:86] Creating Layer conv5_3
I1111 06:29:25.521067 11452 net.cpp:408] conv5_3 <- conv5_2
I1111 06:29:25.521075 11452 net.cpp:382] conv5_3 -> conv5_3
I1111 06:29:25.527431 11452 net.cpp:124] Setting up conv5_3
I1111 06:29:25.527457 11452 net.cpp:131] Top shape: 2 512 23 33 (777216)
I1111 06:29:25.527468 11452 net.cpp:139] Memory required for data: 1064962564
I1111 06:29:25.527479 11452 layer_factory.hpp:77] Creating layer relu5_3
I1111 06:29:25.527489 11452 net.cpp:86] Creating Layer relu5_3
I1111 06:29:25.527496 11452 net.cpp:408] relu5_3 <- conv5_3
I1111 06:29:25.527505 11452 net.cpp:369] relu5_3 -> conv5_3 (in-place)
I1111 06:29:25.527515 11452 net.cpp:124] Setting up relu5_3
I1111 06:29:25.527523 11452 net.cpp:131] Top shape: 2 512 23 33 (777216)
I1111 06:29:25.527528 11452 net.cpp:139] Memory required for data: 1068071428
I1111 06:29:25.527534 11452 layer_factory.hpp:77] Creating layer pool5
I1111 06:29:25.527542 11452 net.cpp:86] Creating Layer pool5
I1111 06:29:25.527549 11452 net.cpp:408] pool5 <- conv5_3
I1111 06:29:25.527556 11452 net.cpp:382] pool5 -> pool5
I1111 06:29:25.527611 11452 net.cpp:124] Setting up pool5
I1111 06:29:25.527621 11452 net.cpp:131] Top shape: 2 512 12 17 (208896)
I1111 06:29:25.527626 11452 net.cpp:139] Memory required for data: 1068907012
I1111 06:29:25.527631 11452 layer_factory.hpp:77] Creating layer fc6
I1111 06:29:25.527643 11452 net.cpp:86] Creating Layer fc6
I1111 06:29:25.527649 11452 net.cpp:408] fc6 <- pool5
I1111 06:29:25.527657 11452 net.cpp:382] fc6 -> fc6
I1111 06:29:25.859707 11452 net.cpp:124] Setting up fc6
I1111 06:29:25.859764 11452 net.cpp:131] Top shape: 2 4096 6 11 (540672)
I1111 06:29:25.859773 11452 net.cpp:139] Memory required for data: 1071069700
I1111 06:29:25.859791 11452 layer_factory.hpp:77] Creating layer relu6
I1111 06:29:25.859809 11452 net.cpp:86] Creating Layer relu6
I1111 06:29:25.859829 11452 net.cpp:408] relu6 <- fc6
I1111 06:29:25.859844 11452 net.cpp:369] relu6 -> fc6 (in-place)
I1111 06:29:25.859861 11452 net.cpp:124] Setting up relu6
I1111 06:29:25.859872 11452 net.cpp:131] Top shape: 2 4096 6 11 (540672)
I1111 06:29:25.859880 11452 net.cpp:139] Memory required for data: 1073232388
I1111 06:29:25.859889 11452 layer_factory.hpp:77] Creating layer fc7
I1111 06:29:25.859905 11452 net.cpp:86] Creating Layer fc7
I1111 06:29:25.859915 11452 net.cpp:408] fc7 <- fc6
I1111 06:29:25.859925 11452 net.cpp:382] fc7 -> fc7
I1111 06:29:25.917608 11452 net.cpp:124] Setting up fc7
I1111 06:29:25.917668 11452 net.cpp:131] Top shape: 2 4096 6 11 (540672)
I1111 06:29:25.917677 11452 net.cpp:139] Memory required for data: 1075395076
I1111 06:29:25.917695 11452 layer_factory.hpp:77] Creating layer relu7
I1111 06:29:25.917713 11452 net.cpp:86] Creating Layer relu7
I1111 06:29:25.917723 11452 net.cpp:408] relu7 <- fc7
I1111 06:29:25.917737 11452 net.cpp:369] relu7 -> fc7 (in-place)
I1111 06:29:25.917754 11452 net.cpp:124] Setting up relu7
I1111 06:29:25.917765 11452 net.cpp:131] Top shape: 2 4096 6 11 (540672)
I1111 06:29:25.917773 11452 net.cpp:139] Memory required for data: 1077557764
I1111 06:29:25.917781 11452 layer_factory.hpp:77] Creating layer score_fr
I1111 06:29:25.917798 11452 net.cpp:86] Creating Layer score_fr
I1111 06:29:25.917807 11452 net.cpp:408] score_fr <- fc7
I1111 06:29:25.917819 11452 net.cpp:382] score_fr -> score_fr
I1111 06:29:25.918385 11452 net.cpp:124] Setting up score_fr
I1111 06:29:25.918402 11452 net.cpp:131] Top shape: 2 19 6 11 (2508)
I1111 06:29:25.918411 11452 net.cpp:139] Memory required for data: 1077567796
I1111 06:29:25.918422 11452 layer_factory.hpp:77] Creating layer upscore2
I1111 06:29:25.918437 11452 net.cpp:86] Creating Layer upscore2
I1111 06:29:25.918447 11452 net.cpp:408] upscore2 <- score_fr
I1111 06:29:25.918457 11452 net.cpp:382] upscore2 -> upscore2
I1111 06:29:25.918792 11452 net.cpp:124] Setting up upscore2
I1111 06:29:25.918807 11452 net.cpp:131] Top shape: 2 19 14 24 (12768)
I1111 06:29:25.918814 11452 net.cpp:139] Memory required for data: 1077618868
I1111 06:29:25.918824 11452 layer_factory.hpp:77] Creating layer upscore2_upscore2_0_split
I1111 06:29:25.918838 11452 net.cpp:86] Creating Layer upscore2_upscore2_0_split
I1111 06:29:25.918846 11452 net.cpp:408] upscore2_upscore2_0_split <- upscore2
I1111 06:29:25.918856 11452 net.cpp:382] upscore2_upscore2_0_split -> upscore2_upscore2_0_split_0
I1111 06:29:25.918869 11452 net.cpp:382] upscore2_upscore2_0_split -> upscore2_upscore2_0_split_1
I1111 06:29:25.918927 11452 net.cpp:124] Setting up upscore2_upscore2_0_split
I1111 06:29:25.918941 11452 net.cpp:131] Top shape: 2 19 14 24 (12768)
I1111 06:29:25.918951 11452 net.cpp:131] Top shape: 2 19 14 24 (12768)
I1111 06:29:25.918958 11452 net.cpp:139] Memory required for data: 1077721012
I1111 06:29:25.918967 11452 layer_factory.hpp:77] Creating layer score_pool4
I1111 06:29:25.918982 11452 net.cpp:86] Creating Layer score_pool4
I1111 06:29:25.918989 11452 net.cpp:408] score_pool4 <- pool4_pool4_0_split_1
I1111 06:29:25.919001 11452 net.cpp:382] score_pool4 -> score_pool4
I1111 06:29:25.919415 11452 net.cpp:124] Setting up score_pool4
I1111 06:29:25.919430 11452 net.cpp:131] Top shape: 2 19 23 33 (28842)
I1111 06:29:25.919437 11452 net.cpp:139] Memory required for data: 1077836380
I1111 06:29:25.919450 11452 layer_factory.hpp:77] Creating layer score_pool4c
I1111 06:29:25.919477 11452 net.cpp:86] Creating Layer score_pool4c
I1111 06:29:25.919486 11452 net.cpp:408] score_pool4c <- score_pool4
I1111 06:29:25.919495 11452 net.cpp:408] score_pool4c <- upscore2_upscore2_0_split_0
I1111 06:29:25.919507 11452 net.cpp:382] score_pool4c -> score_pool4c
I1111 06:29:25.919682 11452 net.cpp:124] Setting up score_pool4c
I1111 06:29:25.919695 11452 net.cpp:131] Top shape: 2 19 14 24 (12768)
I1111 06:29:25.919703 11452 net.cpp:139] Memory required for data: 1077887452
I1111 06:29:25.919713 11452 layer_factory.hpp:77] Creating layer fuse_pool4
I1111 06:29:25.919725 11452 net.cpp:86] Creating Layer fuse_pool4
I1111 06:29:25.919745 11452 net.cpp:408] fuse_pool4 <- upscore2_upscore2_0_split_1
I1111 06:29:25.919754 11452 net.cpp:408] fuse_pool4 <- score_pool4c
I1111 06:29:25.919765 11452 net.cpp:382] fuse_pool4 -> fuse_pool4
I1111 06:29:25.919806 11452 net.cpp:124] Setting up fuse_pool4
I1111 06:29:25.919817 11452 net.cpp:131] Top shape: 2 19 14 24 (12768)
I1111 06:29:25.919826 11452 net.cpp:139] Memory required for data: 1077938524
I1111 06:29:25.919833 11452 layer_factory.hpp:77] Creating layer upscore_pool4
I1111 06:29:25.919847 11452 net.cpp:86] Creating Layer upscore_pool4
I1111 06:29:25.919855 11452 net.cpp:408] upscore_pool4 <- fuse_pool4
I1111 06:29:25.919867 11452 net.cpp:382] upscore_pool4 -> upscore_pool4
I1111 06:29:25.920183 11452 net.cpp:124] Setting up upscore_pool4
I1111 06:29:25.920197 11452 net.cpp:131] Top shape: 2 19 30 50 (57000)
I1111 06:29:25.920205 11452 net.cpp:139] Memory required for data: 1078166524
I1111 06:29:25.920215 11452 layer_factory.hpp:77] Creating layer upscore_pool4_upscore_pool4_0_split
I1111 06:29:25.920226 11452 net.cpp:86] Creating Layer upscore_pool4_upscore_pool4_0_split
I1111 06:29:25.920234 11452 net.cpp:408] upscore_pool4_upscore_pool4_0_split <- upscore_pool4
I1111 06:29:25.920245 11452 net.cpp:382] upscore_pool4_upscore_pool4_0_split -> upscore_pool4_upscore_pool4_0_split_0
I1111 06:29:25.920258 11452 net.cpp:382] upscore_pool4_upscore_pool4_0_split -> upscore_pool4_upscore_pool4_0_split_1
I1111 06:29:25.920315 11452 net.cpp:124] Setting up upscore_pool4_upscore_pool4_0_split
I1111 06:29:25.920328 11452 net.cpp:131] Top shape: 2 19 30 50 (57000)
I1111 06:29:25.920338 11452 net.cpp:131] Top shape: 2 19 30 50 (57000)
I1111 06:29:25.920346 11452 net.cpp:139] Memory required for data: 1078622524
I1111 06:29:25.920353 11452 layer_factory.hpp:77] Creating layer score_pool3
I1111 06:29:25.920367 11452 net.cpp:86] Creating Layer score_pool3
I1111 06:29:25.920375 11452 net.cpp:408] score_pool3 <- pool3_pool3_0_split_1
I1111 06:29:25.920387 11452 net.cpp:382] score_pool3 -> score_pool3
I1111 06:29:25.920811 11452 net.cpp:124] Setting up score_pool3
I1111 06:29:25.920825 11452 net.cpp:131] Top shape: 2 19 45 65 (111150)
I1111 06:29:25.920833 11452 net.cpp:139] Memory required for data: 1079067124
I1111 06:29:25.920845 11452 layer_factory.hpp:77] Creating layer score_pool3c
I1111 06:29:25.920857 11452 net.cpp:86] Creating Layer score_pool3c
I1111 06:29:25.920866 11452 net.cpp:408] score_pool3c <- score_pool3
I1111 06:29:25.920874 11452 net.cpp:408] score_pool3c <- upscore_pool4_upscore_pool4_0_split_0
I1111 06:29:25.920886 11452 net.cpp:382] score_pool3c -> score_pool3c
I1111 06:29:25.921058 11452 net.cpp:124] Setting up score_pool3c
I1111 06:29:25.921072 11452 net.cpp:131] Top shape: 2 19 30 50 (57000)
I1111 06:29:25.921079 11452 net.cpp:139] Memory required for data: 1079295124
I1111 06:29:25.921087 11452 layer_factory.hpp:77] Creating layer fuse_pool3
I1111 06:29:25.921099 11452 net.cpp:86] Creating Layer fuse_pool3
I1111 06:29:25.921108 11452 net.cpp:408] fuse_pool3 <- upscore_pool4_upscore_pool4_0_split_1
I1111 06:29:25.921116 11452 net.cpp:408] fuse_pool3 <- score_pool3c
I1111 06:29:25.921126 11452 net.cpp:382] fuse_pool3 -> fuse_pool3
I1111 06:29:25.921164 11452 net.cpp:124] Setting up fuse_pool3
I1111 06:29:25.921176 11452 net.cpp:131] Top shape: 2 19 30 50 (57000)
I1111 06:29:25.921185 11452 net.cpp:139] Memory required for data: 1079523124
I1111 06:29:25.921192 11452 layer_factory.hpp:77] Creating layer upscore8
I1111 06:29:25.921205 11452 net.cpp:86] Creating Layer upscore8
I1111 06:29:25.921213 11452 net.cpp:408] upscore8 <- fuse_pool3
I1111 06:29:25.921223 11452 net.cpp:382] upscore8 -> upscore8
I1111 06:29:25.921646 11452 net.cpp:124] Setting up upscore8
I1111 06:29:25.921661 11452 net.cpp:131] Top shape: 2 19 248 408 (3844992)
I1111 06:29:25.921669 11452 net.cpp:139] Memory required for data: 1094903092
I1111 06:29:25.921679 11452 layer_factory.hpp:77] Creating layer score
I1111 06:29:25.921691 11452 net.cpp:86] Creating Layer score
I1111 06:29:25.921703 11452 net.cpp:408] score <- upscore8
I1111 06:29:25.921715 11452 net.cpp:408] score <- data_data_0_split_1
I1111 06:29:25.921725 11452 net.cpp:382] score -> score
I1111 06:29:25.921886 11452 net.cpp:124] Setting up score
I1111 06:29:25.921900 11452 net.cpp:131] Top shape: 2 19 160 320 (1945600)
I1111 06:29:25.921907 11452 net.cpp:139] Memory required for data: 1102685492
I1111 06:29:25.921916 11452 layer_factory.hpp:77] Creating layer loss
I1111 06:29:25.921932 11452 net.cpp:86] Creating Layer loss
I1111 06:29:25.921941 11452 net.cpp:408] loss <- score
I1111 06:29:25.921950 11452 net.cpp:408] loss <- fakelabel
I1111 06:29:25.921960 11452 net.cpp:382] loss -> loss
I1111 06:29:25.921977 11452 layer_factory.hpp:77] Creating layer loss
…
