…
I1115 05:50:44.817535  2196 solver.cpp:92] Creating training net from train_net file: adv_train3.prototxt
I1115 05:50:44.819458  2196 net.cpp:53] Initializing net from parameters: 
state {
  phase: TRAIN
}
layer {
  name: "data1"
  type: "Python"
  top: "data1"
  top: "label"
  top: "fakelabel"
  python_param {
    module: "adv_mapillary_layer"
    layer: "MapillaryLayer"
    param_str: "{\'img_dir\': \'/l/vision/v5/chen478/Fall2018/mapillary/training/images/\', \'label_dir\': \'/l/vision/v5/chen478/Fall2018/fcn.mapillary/results/seg_res_train/\', \'seed\': 1337, \'mean\': (71.60167789, 82.09696889, 72.30608881)}"
  }
}
layer {
  name: "conv1"
  type: "Convolution"
  bottom: "data1"
  top: "conv1"
  convolution_param {
    num_output: 16
    pad: 0
    kernel_size: 3
    stride: 2
    weight_filler {
      type: "xavier"
    }
  }
}
layer {
  name: "bn1"
  type: "BatchNorm"
  bottom: "conv1"
  top: "bn1"
  batch_norm_param {
    use_global_stats: false
  }
}
layer {
  name: "scale1"
  type: "Scale"
  bottom: "bn1"
  top: "bn1"
  scale_param {
    bias_term: true
  }
}
layer {
  name: "relu1"
  type: "ReLU"
  bottom: "bn1"
  top: "bn1"
}
layer {
  name: "conv2"
  type: "Convolution"
  bottom: "bn1"
  top: "conv2"
  convolution_param {
    num_output: 32
    pad: 0
    kernel_size: 5
    stride: 2
    weight_filler {
      type: "xavier"
    }
  }
}
layer {
  name: "bn2"
  type: "BatchNorm"
  bottom: "conv2"
  top: "bn2"
  batch_norm_param {
    use_global_stats: false
  }
}
layer {
  name: "scale2"
  type: "Scale"
  bottom: "bn2"
  top: "bn2"
  scale_param {
    bias_term: true
  }
}
layer {
  name: "relu2"
  type: "ReLU"
  bottom: "bn2"
  top: "bn2"
}
layer {
  name: "conv3"
  type: "Convolution"
  bottom: "bn2"
  top: "conv3"
  convolution_param {
    num_output: 64
    pad: 0
    kernel_size: 5
    stride: 2
    weight_filler {
      type: "xavier"
    }
  }
}
layer {
  name: "bn3"
  type: "BatchNorm"
  bottom: "conv3"
  top: "bn3"
  batch_norm_param {
    use_global_stats: false
  }
}
layer {
  name: "scale3"
  type: "Scale"
  bottom: "bn3"
  top: "bn3"
  scale_param {
    bias_term: true
  }
}
layer {
  name: "relu3"
  type: "ReLU"
  bottom: "bn3"
  top: "bn3"
}
layer {
  name: "conv4"
  type: "Convolution"
  bottom: "bn3"
  top: "conv4"
  convolution_param {
    num_output: 128
    pad: 0
    kernel_size: 3
    stride: 1
    weight_filler {
      type: "xavier"
    }
  }
}
layer {
  name: "bn4"
  type: "BatchNorm"
  bottom: "conv4"
  top: "bn4"
  batch_norm_param {
    use_global_stats: false
  }
}
layer {
  name: "scale4"
  type: "Scale"
  bottom: "bn4"
  top: "bn4"
  scale_param {
    bias_term: true
  }
}
layer {
  name: "relu4"
  type: "ReLU"
  bottom: "bn4"
  top: "bn4"
}
layer {
  name: "embed_conv2"
  type: "Deconvolution"
  bottom: "bn4"
  top: "embed_conv2"
  convolution_param {
    num_output: 64
    pad: 0
    kernel_size: 3
    stride: 1
    weight_filler {
      type: "xavier"
    }
  }
}
layer {
  name: "embed_bn2"
  type: "BatchNorm"
  bottom: "embed_conv2"
  top: "embed_bn2"
  batch_norm_param {
    use_global_stats: false
  }
}
layer {
  name: "embed_scale2"
  type: "Scale"
  bottom: "embed_bn2"
  top: "embed_bn2"
  scale_param {
    bias_term: true
  }
}
layer {
  name: "embed_relu2"
  type: "ReLU"
  bottom: "embed_bn2"
  top: "embed_bn2"
}
layer {
  name: "concat1"
  type: "Concat"
  bottom: "bn3"
  bottom: "embed_bn2"
  top: "concat1"
  concat_param {
    axis: 1
  }
}
layer {
  name: "embed_conv3"
  type: "Deconvolution"
  bottom: "concat1"
  top: "embed_conv3"
  convolution_param {
    num_output: 32
    pad: 0
    kernel_size: 6
    stride: 2
    weight_filler {
      type: "xavier"
    }
  }
}
layer {
  name: "embed_bn3"
  type: "BatchNorm"
  bottom: "embed_conv3"
  top: "embed_bn3"
  batch_norm_param {
    use_global_stats: false
  }
}
layer {
  name: "embed_scale3"
  type: "Scale"
  bottom: "embed_bn3"
  top: "embed_bn3"
  scale_param {
    bias_term: true
  }
}
layer {
  name: "embed_relu3"
  type: "ReLU"
  bottom: "embed_bn3"
  top: "embed_bn3"
}
layer {
  name: "concat2"
  type: "Concat"
  bottom: "bn2"
  bottom: "embed_bn3"
  top: "concat2"
  concat_param {
    axis: 1
  }
}
layer {
  name: "embed_conv4"
  type: "Deconvolution"
  bottom: "concat2"
  top: "embed_conv4"
  convolution_param {
    num_output: 16
    pad: 0
    kernel_size: 5
    stride: 2
    weight_filler {
      type: "xavier"
    }
  }
}
layer {
  name: "embed_bn4"
  type: "BatchNorm"
  bottom: "embed_conv4"
  top: "embed_bn4"
  batch_norm_param {
    use_global_stats: false
  }
}
layer {
  name: "embed_scale4"
  type: "Scale"
  bottom: "embed_bn4"
  top: "embed_bn4"
  scale_param {
    bias_term: true
  }
}
layer {
  name: "embed_relu4"
  type: "ReLU"
  bottom: "embed_bn4"
  top: "embed_bn4"
}
layer {
  name: "concat3"
  type: "Concat"
  bottom: "bn1"
  bottom: "embed_bn4"
  top: "concat3"
  concat_param {
    axis: 1
  }
}
layer {
  name: "seg"
  type: "Deconvolution"
  bottom: "concat3"
  top: "seg"
  convolution_param {
    num_output: 19
    pad: 0
    kernel_size: 4
    stride: 2
    weight_filler {
      type: "xavier"
    }
  }
}
layer {
  name: "seg_bn"
  type: "BatchNorm"
  bottom: "seg"
  top: "seg_bn"
  batch_norm_param {
    use_global_stats: false
  }
}
layer {
  name: "seg_scale"
  type: "Scale"
  bottom: "seg_bn"
  top: "seg_bn"
  scale_param {
    bias_term: true
  }
}
layer {
  name: "reg_loss"
  type: "SoftmaxWithLoss"
  bottom: "seg_bn"
  bottom: "label"
  top: "reg_loss"
  loss_weight: 0.01
  loss_param {
    ignore_label: 255
    normalize: false
  }
}
layer {
  name: "embed_conv5"
  type: "Deconvolution"
  bottom: "concat3"
  top: "embed_conv5"
  convolution_param {
    num_output: 3
    pad: 0
    kernel_size: 4
    stride: 2
    weight_filler {
      type: "xavier"
    }
  }
}
layer {
  name: "embed_bn5"
  type: "BatchNorm"
  bottom: "embed_conv5"
  top: "embed_bn5"
  batch_norm_param {
    use_global_stats: false
  }
}
layer {
  name: "embed_scale5"
  type: "Scale"
  bottom: "embed_bn5"
  top: "embed_bn5"
  scale_param {
    bias_term: true
  }
}
layer {
  name: "mask"
  type: "RandVec"
  top: "mask"
  rand_vec_param {
    batch_size: 2
    dim: 3
    height: 160
    width: 320
  }
}
layer {
  name: "masked"
  type: "Eltwise"
  bottom: "embed_bn5"
  bottom: "mask"
  top: "masked"
  eltwise_param {
    operation: PROD
  }
}
layer {
  name: "data"
  type: "Eltwise"
  bottom: "data1"
  bottom: "masked"
  top: "data"
  eltwise_param {
    operation: SUM
  }
}
layer {
  name: "conv1_1"
  type: "Convolution"
  bottom: "data"
  top: "conv1_1"
  param {
    lr_mult: 0
    decay_mult: 1
  }
  param {
    lr_mult: 0
    decay_mult: 0
  }
  convolution_param {
    num_output: 64
    pad: 100
    kernel_size: 3
    stride: 1
  }
}
layer {
  name: "relu1_1"
  type: "ReLU"
  bottom: "conv1_1"
  top: "conv1_1"
}
layer {
  name: "conv1_2"
  type: "Convolution"
  bottom: "conv1_1"
  top: "conv1_2"
  param {
    lr_mult: 0
    decay_mult: 1
  }
  param {
    lr_mult: 0
    decay_mult: 0
  }
  convolution_param {
    num_output: 64
    pad: 1
    kernel_size: 3
    stride: 1
  }
}
layer {
  name: "relu1_2"
  type: "ReLU"
  bottom: "conv1_2"
  top: "conv1_2"
}
layer {
  name: "pool1"
  type: "Pooling"
  bottom: "conv1_2"
  top: "pool1"
  pooling_param {
    pool: MAX
    kernel_size: 2
    stride: 2
  }
}
layer {
  name: "conv2_1"
  type: "Convolution"
  bottom: "pool1"
  top: "conv2_1"
  param {
    lr_mult: 0
    decay_mult: 1
  }
  param {
    lr_mult: 0
    decay_mult: 0
  }
  convolution_param {
    num_output: 128
    pad: 1
    kernel_size: 3
    stride: 1
  }
}
layer {
  name: "relu2_1"
  type: "ReLU"
  bottom: "conv2_1"
  top: "conv2_1"
}
layer {
  name: "conv2_2"
  type: "Convolution"
  bottom: "conv2_1"
  top: "conv2_2"
  param {
    lr_mult: 0
    decay_mult: 1
  }
  param {
    lr_mult: 0
    decay_mult: 0
  }
  convolution_param {
    num_output: 128
    pad: 1
    kernel_size: 3
    stride: 1
  }
}
layer {
  name: "relu2_2"
  type: "ReLU"
  bottom: "conv2_2"
  top: "conv2_2"
}
layer {
  name: "pool2"
  type: "Pooling"
  bottom: "conv2_2"
  top: "pool2"
  pooling_param {
    pool: MAX
    kernel_size: 2
    stride: 2
  }
}
layer {
  name: "conv3_1"
  type: "Convolution"
  bottom: "pool2"
  top: "conv3_1"
  param {
    lr_mult: 0
    decay_mult: 1
  }
  param {
    lr_mult: 0
    decay_mult: 0
  }
  convolution_param {
    num_output: 256
    pad: 1
    kernel_size: 3
    stride: 1
  }
}
layer {
  name: "relu3_1"
  type: "ReLU"
  bottom: "conv3_1"
  top: "conv3_1"
}
layer {
  name: "conv3_2"
  type: "Convolution"
  bottom: "conv3_1"
  top: "conv3_2"
  param {
    lr_mult: 0
    decay_mult: 1
  }
  param {
    lr_mult: 0
    decay_mult: 0
  }
  convolution_param {
    num_output: 256
    pad: 1
    kernel_size: 3
    stride: 1
  }
}
layer {
  name: "relu3_2"
  type: "ReLU"
  bottom: "conv3_2"
  top: "conv3_2"
}
layer {
  name: "conv3_3"
  type: "Convolution"
  bottom: "conv3_2"
  top: "conv3_3"
  param {
    lr_mult: 0
    decay_mult: 1
  }
  param {
    lr_mult: 0
    decay_mult: 0
  }
  convolution_param {
    num_output: 256
    pad: 1
    kernel_size: 3
    stride: 1
  }
}
layer {
  name: "relu3_3"
  type: "ReLU"
  bottom: "conv3_3"
  top: "conv3_3"
}
layer {
  name: "pool3"
  type: "Pooling"
  bottom: "conv3_3"
  top: "pool3"
  pooling_param {
    pool: MAX
    kernel_size: 2
    stride: 2
  }
}
layer {
  name: "conv4_1"
  type: "Convolution"
  bottom: "pool3"
  top: "conv4_1"
  param {
    lr_mult: 0
    decay_mult: 1
  }
  param {
    lr_mult: 0
    decay_mult: 0
  }
  convolution_param {
    num_output: 512
    pad: 1
    kernel_size: 3
    stride: 1
  }
}
layer {
  name: "relu4_1"
  type: "ReLU"
  bottom: "conv4_1"
  top: "conv4_1"
}
layer {
  name: "conv4_2"
  type: "Convolution"
  bottom: "conv4_1"
  top: "conv4_2"
  param {
    lr_mult: 0
    decay_mult: 1
  }
  param {
    lr_mult: 0
    decay_mult: 0
  }
  convolution_param {
    num_output: 512
    pad: 1
    kernel_size: 3
    stride: 1
  }
}
layer {
  name: "relu4_2"
  type: "ReLU"
  bottom: "conv4_2"
  top: "conv4_2"
}
layer {
  name: "conv4_3"
  type: "Convolution"
  bottom: "conv4_2"
  top: "conv4_3"
  param {
    lr_mult: 0
    decay_mult: 1
  }
  param {
    lr_mult: 0
    decay_mult: 0
  }
  convolution_param {
    num_output: 512
    pad: 1
    kernel_size: 3
    stride: 1
  }
}
layer {
  name: "relu4_3"
  type: "ReLU"
  bottom: "conv4_3"
  top: "conv4_3"
}
layer {
  name: "pool4"
  type: "Pooling"
  bottom: "conv4_3"
  top: "pool4"
  pooling_param {
    pool: MAX
    kernel_size: 2
    stride: 2
  }
}
layer {
  name: "conv5_1"
  type: "Convolution"
  bottom: "pool4"
  top: "conv5_1"
  param {
    lr_mult: 0
    decay_mult: 1
  }
  param {
    lr_mult: 0
    decay_mult: 0
  }
  convolution_param {
    num_output: 512
    pad: 1
    kernel_size: 3
    stride: 1
  }
}
layer {
  name: "relu5_1"
  type: "ReLU"
  bottom: "conv5_1"
  top: "conv5_1"
}
layer {
  name: "conv5_2"
  type: "Convolution"
  bottom: "conv5_1"
  top: "conv5_2"
  param {
    lr_mult: 0
    decay_mult: 1
  }
  param {
    lr_mult: 0
    decay_mult: 0
  }
  convolution_param {
    num_output: 512
    pad: 1
    kernel_size: 3
    stride: 1
  }
}
layer {
  name: "relu5_2"
  type: "ReLU"
  bottom: "conv5_2"
  top: "conv5_2"
}
layer {
  name: "conv5_3"
  type: "Convolution"
  bottom: "conv5_2"
  top: "conv5_3"
  param {
    lr_mult: 0
    decay_mult: 1
  }
  param {
    lr_mult: 0
    decay_mult: 0
  }
  convolution_param {
    num_output: 512
    pad: 1
    kernel_size: 3
    stride: 1
  }
}
layer {
  name: "relu5_3"
  type: "ReLU"
  bottom: "conv5_3"
  top: "conv5_3"
}
layer {
  name: "pool5"
  type: "Pooling"
  bottom: "conv5_3"
  top: "pool5"
  pooling_param {
    pool: MAX
    kernel_size: 2
    stride: 2
  }
}
layer {
  name: "fc6"
  type: "Convolution"
  bottom: "pool5"
  top: "fc6"
  param {
    lr_mult: 0
    decay_mult: 1
  }
  param {
    lr_mult: 0
    decay_mult: 0
  }
  convolution_param {
    num_output: 4096
    pad: 0
    kernel_size: 7
    stride: 1
  }
}
layer {
  name: "relu6"
  type: "ReLU"
  bottom: "fc6"
  top: "fc6"
}
layer {
  name: "fc7"
  type: "Convolution"
  bottom: "fc6"
  top: "fc7"
  param {
    lr_mult: 0
    decay_mult: 1
  }
  param {
    lr_mult: 0
    decay_mult: 0
  }
  convolution_param {
    num_output: 4096
    pad: 0
    kernel_size: 1
    stride: 1
  }
}
layer {
  name: "relu7"
  type: "ReLU"
  bottom: "fc7"
  top: "fc7"
}
layer {
  name: "score_fr"
  type: "Convolution"
  bottom: "fc7"
  top: "score_fr"
  param {
    lr_mult: 0
    decay_mult: 1
  }
  param {
    lr_mult: 0
    decay_mult: 0
  }
  convolution_param {
    num_output: 19
    pad: 0
    kernel_size: 1
  }
}
layer {
  name: "upscore2"
  type: "Deconvolution"
  bottom: "score_fr"
  top: "upscore2"
  param {
    lr_mult: 0
    decay_mult: 1
  }
  convolution_param {
    num_output: 19
    bias_term: false
    kernel_size: 4
    stride: 2
  }
}
layer {
  name: "score_pool4"
  type: "Convolution"
  bottom: "pool4"
  top: "score_pool4"
  param {
    lr_mult: 0
    decay_mult: 1
  }
  param {
    lr_mult: 0
    decay_mult: 0
  }
  convolution_param {
    num_output: 19
    pad: 0
    kernel_size: 1
  }
}
layer {
  name: "score_pool4c"
  type: "Crop"
  bottom: "score_pool4"
  bottom: "upscore2"
  top: "score_pool4c"
  crop_param {
    axis: 2
    offset: 5
  }
}
layer {
  name: "fuse_pool4"
  type: "Eltwise"
  bottom: "upscore2"
  bottom: "score_pool4c"
  top: "fuse_pool4"
  eltwise_param {
    operation: SUM
  }
}
layer {
  name: "upscore_pool4"
  type: "Deconvolution"
  bottom: "fuse_pool4"
  top: "upscore_pool4"
  param {
    lr_mult: 0
    decay_mult: 1
  }
  convolution_param {
    num_output: 19
    bias_term: false
    kernel_size: 4
    stride: 2
  }
}
layer {
  name: "score_pool3"
  type: "Convolution"
  bottom: "pool3"
  top: "score_pool3"
  param {
    lr_mult: 0
    decay_mult: 1
  }
  param {
    lr_mult: 0
    decay_mult: 0
  }
  convolution_param {
    num_output: 19
    pad: 0
    kernel_size: 1
  }
}
layer {
  name: "score_pool3c"
  type: "Crop"
  bottom: "score_pool3"
  bottom: "upscore_pool4"
  top: "score_pool3c"
  crop_param {
    axis: 2
    offset: 9
  }
}
layer {
  name: "fuse_pool3"
  type: "Eltwise"
  bottom: "upscore_pool4"
  bottom: "score_pool3c"
  top: "fuse_pool3"
  eltwise_param {
    operation: SUM
  }
}
layer {
  name: "upscore8"
  type: "Deconvolution"
  bottom: "fuse_pool3"
  top: "upscore8"
  param {
    lr_mult: 0
    decay_mult: 1
  }
  convolution_param {
    num_output: 19
    bias_term: false
    kernel_size: 16
    stride: 8
  }
}
layer {
  name: "score"
  type: "Crop"
  bottom: "upscore8"
  bottom: "data"
  top: "score"
  crop_param {
    axis: 2
    offset: 31
  }
}
layer {
  name: "loss"
  type: "AdvSoftmaxWithLoss"
  bottom: "score"
  bottom: "fakelabel"
  top: "loss"
  loss_param {
    ignore_label: 255
    normalize: false
  }
  adv_softmax_with_loss_param {
    offset: 16
  }
}
I1115 05:50:44.819857  2196 layer_factory.hpp:77] Creating layer data1
I1115 05:50:44.821384  2196 net.cpp:86] Creating Layer data1
I1115 05:50:44.821399  2196 net.cpp:382] data1 -> data1
I1115 05:50:44.821416  2196 net.cpp:382] data1 -> label
I1115 05:50:44.821424  2196 net.cpp:382] data1 -> fakelabel
I1115 05:50:45.069067  2196 net.cpp:124] Setting up data1
I1115 05:50:45.069101  2196 net.cpp:131] Top shape: 2 3 160 320 (307200)
I1115 05:50:45.069109  2196 net.cpp:131] Top shape: 2 1 160 320 (102400)
I1115 05:50:45.069115  2196 net.cpp:131] Top shape: 2 160 320 (102400)
I1115 05:50:45.069120  2196 net.cpp:139] Memory required for data: 2048000
I1115 05:50:45.069129  2196 layer_factory.hpp:77] Creating layer data1_data1_0_split
I1115 05:50:45.069146  2196 net.cpp:86] Creating Layer data1_data1_0_split
I1115 05:50:45.069154  2196 net.cpp:408] data1_data1_0_split <- data1
I1115 05:50:45.069164  2196 net.cpp:382] data1_data1_0_split -> data1_data1_0_split_0
I1115 05:50:45.069181  2196 net.cpp:382] data1_data1_0_split -> data1_data1_0_split_1
I1115 05:50:45.069213  2196 net.cpp:124] Setting up data1_data1_0_split
I1115 05:50:45.069222  2196 net.cpp:131] Top shape: 2 3 160 320 (307200)
I1115 05:50:45.069228  2196 net.cpp:131] Top shape: 2 3 160 320 (307200)
I1115 05:50:45.069233  2196 net.cpp:139] Memory required for data: 4505600
I1115 05:50:45.069239  2196 layer_factory.hpp:77] Creating layer conv1
I1115 05:50:45.069255  2196 net.cpp:86] Creating Layer conv1
I1115 05:50:45.069262  2196 net.cpp:408] conv1 <- data1_data1_0_split_0
I1115 05:50:45.069268  2196 net.cpp:382] conv1 -> conv1
I1115 05:50:45.069525  2196 net.cpp:124] Setting up conv1
I1115 05:50:45.069536  2196 net.cpp:131] Top shape: 2 16 79 159 (401952)
I1115 05:50:45.069542  2196 net.cpp:139] Memory required for data: 6113408
I1115 05:50:45.069561  2196 layer_factory.hpp:77] Creating layer bn1
I1115 05:50:45.069572  2196 net.cpp:86] Creating Layer bn1
I1115 05:50:45.069578  2196 net.cpp:408] bn1 <- conv1
I1115 05:50:45.069586  2196 net.cpp:382] bn1 -> bn1
I1115 05:50:45.069720  2196 net.cpp:124] Setting up bn1
I1115 05:50:45.069728  2196 net.cpp:131] Top shape: 2 16 79 159 (401952)
I1115 05:50:45.069734  2196 net.cpp:139] Memory required for data: 7721216
I1115 05:50:45.069746  2196 layer_factory.hpp:77] Creating layer scale1
I1115 05:50:45.069774  2196 net.cpp:86] Creating Layer scale1
I1115 05:50:45.069780  2196 net.cpp:408] scale1 <- bn1
I1115 05:50:45.069787  2196 net.cpp:369] scale1 -> bn1 (in-place)
I1115 05:50:45.069820  2196 layer_factory.hpp:77] Creating layer scale1
I1115 05:50:45.069909  2196 net.cpp:124] Setting up scale1
I1115 05:50:45.069919  2196 net.cpp:131] Top shape: 2 16 79 159 (401952)
I1115 05:50:45.069924  2196 net.cpp:139] Memory required for data: 9329024
I1115 05:50:45.069932  2196 layer_factory.hpp:77] Creating layer relu1
I1115 05:50:45.069941  2196 net.cpp:86] Creating Layer relu1
I1115 05:50:45.069947  2196 net.cpp:408] relu1 <- bn1
I1115 05:50:45.069953  2196 net.cpp:369] relu1 -> bn1 (in-place)
I1115 05:50:45.069962  2196 net.cpp:124] Setting up relu1
I1115 05:50:45.069969  2196 net.cpp:131] Top shape: 2 16 79 159 (401952)
I1115 05:50:45.069974  2196 net.cpp:139] Memory required for data: 10936832
I1115 05:50:45.069979  2196 layer_factory.hpp:77] Creating layer bn1_relu1_0_split
I1115 05:50:45.069986  2196 net.cpp:86] Creating Layer bn1_relu1_0_split
I1115 05:50:45.069991  2196 net.cpp:408] bn1_relu1_0_split <- bn1
I1115 05:50:45.069998  2196 net.cpp:382] bn1_relu1_0_split -> bn1_relu1_0_split_0
I1115 05:50:45.070005  2196 net.cpp:382] bn1_relu1_0_split -> bn1_relu1_0_split_1
I1115 05:50:45.070032  2196 net.cpp:124] Setting up bn1_relu1_0_split
I1115 05:50:45.070039  2196 net.cpp:131] Top shape: 2 16 79 159 (401952)
I1115 05:50:45.070046  2196 net.cpp:131] Top shape: 2 16 79 159 (401952)
I1115 05:50:45.070051  2196 net.cpp:139] Memory required for data: 14152448
I1115 05:50:45.070056  2196 layer_factory.hpp:77] Creating layer conv2
I1115 05:50:45.070065  2196 net.cpp:86] Creating Layer conv2
I1115 05:50:45.070071  2196 net.cpp:408] conv2 <- bn1_relu1_0_split_0
I1115 05:50:45.070078  2196 net.cpp:382] conv2 -> conv2
I1115 05:50:45.070271  2196 net.cpp:124] Setting up conv2
I1115 05:50:45.070281  2196 net.cpp:131] Top shape: 2 32 38 78 (189696)
I1115 05:50:45.070286  2196 net.cpp:139] Memory required for data: 14911232
I1115 05:50:45.070295  2196 layer_factory.hpp:77] Creating layer bn2
I1115 05:50:45.070304  2196 net.cpp:86] Creating Layer bn2
I1115 05:50:45.070309  2196 net.cpp:408] bn2 <- conv2
I1115 05:50:45.070317  2196 net.cpp:382] bn2 -> bn2
I1115 05:50:45.070436  2196 net.cpp:124] Setting up bn2
I1115 05:50:45.070444  2196 net.cpp:131] Top shape: 2 32 38 78 (189696)
I1115 05:50:45.070449  2196 net.cpp:139] Memory required for data: 15670016
I1115 05:50:45.070458  2196 layer_factory.hpp:77] Creating layer scale2
I1115 05:50:45.070488  2196 net.cpp:86] Creating Layer scale2
I1115 05:50:45.070494  2196 net.cpp:408] scale2 <- bn2
I1115 05:50:45.070502  2196 net.cpp:369] scale2 -> bn2 (in-place)
I1115 05:50:45.070535  2196 layer_factory.hpp:77] Creating layer scale2
I1115 05:50:45.070611  2196 net.cpp:124] Setting up scale2
I1115 05:50:45.070621  2196 net.cpp:131] Top shape: 2 32 38 78 (189696)
I1115 05:50:45.070626  2196 net.cpp:139] Memory required for data: 16428800
I1115 05:50:45.070634  2196 layer_factory.hpp:77] Creating layer relu2
I1115 05:50:45.070642  2196 net.cpp:86] Creating Layer relu2
I1115 05:50:45.070648  2196 net.cpp:408] relu2 <- bn2
I1115 05:50:45.070655  2196 net.cpp:369] relu2 -> bn2 (in-place)
I1115 05:50:45.070663  2196 net.cpp:124] Setting up relu2
I1115 05:50:45.070670  2196 net.cpp:131] Top shape: 2 32 38 78 (189696)
I1115 05:50:45.070677  2196 net.cpp:139] Memory required for data: 17187584
I1115 05:50:45.070683  2196 layer_factory.hpp:77] Creating layer bn2_relu2_0_split
I1115 05:50:45.070689  2196 net.cpp:86] Creating Layer bn2_relu2_0_split
I1115 05:50:45.070695  2196 net.cpp:408] bn2_relu2_0_split <- bn2
I1115 05:50:45.070703  2196 net.cpp:382] bn2_relu2_0_split -> bn2_relu2_0_split_0
I1115 05:50:45.070710  2196 net.cpp:382] bn2_relu2_0_split -> bn2_relu2_0_split_1
I1115 05:50:45.070736  2196 net.cpp:124] Setting up bn2_relu2_0_split
I1115 05:50:45.070744  2196 net.cpp:131] Top shape: 2 32 38 78 (189696)
I1115 05:50:45.070751  2196 net.cpp:131] Top shape: 2 32 38 78 (189696)
I1115 05:50:45.070773  2196 net.cpp:139] Memory required for data: 18705152
I1115 05:50:45.070780  2196 layer_factory.hpp:77] Creating layer conv3
I1115 05:50:45.070787  2196 net.cpp:86] Creating Layer conv3
I1115 05:50:45.070793  2196 net.cpp:408] conv3 <- bn2_relu2_0_split_0
I1115 05:50:45.070801  2196 net.cpp:382] conv3 -> conv3
I1115 05:50:45.071156  2196 net.cpp:124] Setting up conv3
I1115 05:50:45.071166  2196 net.cpp:131] Top shape: 2 64 17 37 (80512)
I1115 05:50:45.071171  2196 net.cpp:139] Memory required for data: 19027200
I1115 05:50:45.071178  2196 layer_factory.hpp:77] Creating layer bn3
I1115 05:50:45.071187  2196 net.cpp:86] Creating Layer bn3
I1115 05:50:45.071192  2196 net.cpp:408] bn3 <- conv3
I1115 05:50:45.071198  2196 net.cpp:382] bn3 -> bn3
I1115 05:50:45.071318  2196 net.cpp:124] Setting up bn3
I1115 05:50:45.071326  2196 net.cpp:131] Top shape: 2 64 17 37 (80512)
I1115 05:50:45.071332  2196 net.cpp:139] Memory required for data: 19349248
I1115 05:50:45.071342  2196 layer_factory.hpp:77] Creating layer scale3
I1115 05:50:45.071350  2196 net.cpp:86] Creating Layer scale3
I1115 05:50:45.071357  2196 net.cpp:408] scale3 <- bn3
I1115 05:50:45.071363  2196 net.cpp:369] scale3 -> bn3 (in-place)
I1115 05:50:45.071391  2196 layer_factory.hpp:77] Creating layer scale3
I1115 05:50:45.071458  2196 net.cpp:124] Setting up scale3
I1115 05:50:45.071472  2196 net.cpp:131] Top shape: 2 64 17 37 (80512)
I1115 05:50:45.071477  2196 net.cpp:139] Memory required for data: 19671296
I1115 05:50:45.071485  2196 layer_factory.hpp:77] Creating layer relu3
I1115 05:50:45.071492  2196 net.cpp:86] Creating Layer relu3
I1115 05:50:45.071498  2196 net.cpp:408] relu3 <- bn3
I1115 05:50:45.071504  2196 net.cpp:369] relu3 -> bn3 (in-place)
I1115 05:50:45.071511  2196 net.cpp:124] Setting up relu3
I1115 05:50:45.071518  2196 net.cpp:131] Top shape: 2 64 17 37 (80512)
I1115 05:50:45.071523  2196 net.cpp:139] Memory required for data: 19993344
I1115 05:50:45.071529  2196 layer_factory.hpp:77] Creating layer bn3_relu3_0_split
I1115 05:50:45.071537  2196 net.cpp:86] Creating Layer bn3_relu3_0_split
I1115 05:50:45.071542  2196 net.cpp:408] bn3_relu3_0_split <- bn3
I1115 05:50:45.071548  2196 net.cpp:382] bn3_relu3_0_split -> bn3_relu3_0_split_0
I1115 05:50:45.071555  2196 net.cpp:382] bn3_relu3_0_split -> bn3_relu3_0_split_1
I1115 05:50:45.071580  2196 net.cpp:124] Setting up bn3_relu3_0_split
I1115 05:50:45.071588  2196 net.cpp:131] Top shape: 2 64 17 37 (80512)
I1115 05:50:45.071594  2196 net.cpp:131] Top shape: 2 64 17 37 (80512)
I1115 05:50:45.071599  2196 net.cpp:139] Memory required for data: 20637440
I1115 05:50:45.071605  2196 layer_factory.hpp:77] Creating layer conv4
I1115 05:50:45.071614  2196 net.cpp:86] Creating Layer conv4
I1115 05:50:45.071622  2196 net.cpp:408] conv4 <- bn3_relu3_0_split_0
I1115 05:50:45.071630  2196 net.cpp:382] conv4 -> conv4
I1115 05:50:45.072077  2196 net.cpp:124] Setting up conv4
I1115 05:50:45.072086  2196 net.cpp:131] Top shape: 2 128 15 35 (134400)
I1115 05:50:45.072093  2196 net.cpp:139] Memory required for data: 21175040
I1115 05:50:45.072099  2196 layer_factory.hpp:77] Creating layer bn4
I1115 05:50:45.072108  2196 net.cpp:86] Creating Layer bn4
I1115 05:50:45.072113  2196 net.cpp:408] bn4 <- conv4
I1115 05:50:45.072120  2196 net.cpp:382] bn4 -> bn4
I1115 05:50:45.072230  2196 net.cpp:124] Setting up bn4
I1115 05:50:45.072238  2196 net.cpp:131] Top shape: 2 128 15 35 (134400)
I1115 05:50:45.072244  2196 net.cpp:139] Memory required for data: 21712640
I1115 05:50:45.072252  2196 layer_factory.hpp:77] Creating layer scale4
I1115 05:50:45.072260  2196 net.cpp:86] Creating Layer scale4
I1115 05:50:45.072265  2196 net.cpp:408] scale4 <- bn4
I1115 05:50:45.072273  2196 net.cpp:369] scale4 -> bn4 (in-place)
I1115 05:50:45.072299  2196 layer_factory.hpp:77] Creating layer scale4
I1115 05:50:45.072361  2196 net.cpp:124] Setting up scale4
I1115 05:50:45.072369  2196 net.cpp:131] Top shape: 2 128 15 35 (134400)
I1115 05:50:45.072374  2196 net.cpp:139] Memory required for data: 22250240
I1115 05:50:45.072381  2196 layer_factory.hpp:77] Creating layer relu4
I1115 05:50:45.072389  2196 net.cpp:86] Creating Layer relu4
I1115 05:50:45.072394  2196 net.cpp:408] relu4 <- bn4
I1115 05:50:45.072402  2196 net.cpp:369] relu4 -> bn4 (in-place)
I1115 05:50:45.072407  2196 net.cpp:124] Setting up relu4
I1115 05:50:45.072414  2196 net.cpp:131] Top shape: 2 128 15 35 (134400)
I1115 05:50:45.072419  2196 net.cpp:139] Memory required for data: 22787840
I1115 05:50:45.072425  2196 layer_factory.hpp:77] Creating layer embed_conv2
I1115 05:50:45.072435  2196 net.cpp:86] Creating Layer embed_conv2
I1115 05:50:45.072441  2196 net.cpp:408] embed_conv2 <- bn4
I1115 05:50:45.072448  2196 net.cpp:382] embed_conv2 -> embed_conv2
I1115 05:50:45.072908  2196 net.cpp:124] Setting up embed_conv2
I1115 05:50:45.072918  2196 net.cpp:131] Top shape: 2 64 17 37 (80512)
I1115 05:50:45.072923  2196 net.cpp:139] Memory required for data: 23109888
I1115 05:50:45.072932  2196 layer_factory.hpp:77] Creating layer embed_bn2
I1115 05:50:45.072938  2196 net.cpp:86] Creating Layer embed_bn2
I1115 05:50:45.072944  2196 net.cpp:408] embed_bn2 <- embed_conv2
I1115 05:50:45.072952  2196 net.cpp:382] embed_bn2 -> embed_bn2
I1115 05:50:45.073069  2196 net.cpp:124] Setting up embed_bn2
I1115 05:50:45.073077  2196 net.cpp:131] Top shape: 2 64 17 37 (80512)
I1115 05:50:45.073082  2196 net.cpp:139] Memory required for data: 23431936
I1115 05:50:45.073093  2196 layer_factory.hpp:77] Creating layer embed_scale2
I1115 05:50:45.073101  2196 net.cpp:86] Creating Layer embed_scale2
I1115 05:50:45.073107  2196 net.cpp:408] embed_scale2 <- embed_bn2
I1115 05:50:45.073113  2196 net.cpp:369] embed_scale2 -> embed_bn2 (in-place)
I1115 05:50:45.073143  2196 layer_factory.hpp:77] Creating layer embed_scale2
I1115 05:50:45.073212  2196 net.cpp:124] Setting up embed_scale2
I1115 05:50:45.073220  2196 net.cpp:131] Top shape: 2 64 17 37 (80512)
I1115 05:50:45.073226  2196 net.cpp:139] Memory required for data: 23753984
I1115 05:50:45.073233  2196 layer_factory.hpp:77] Creating layer embed_relu2
I1115 05:50:45.073240  2196 net.cpp:86] Creating Layer embed_relu2
I1115 05:50:45.073246  2196 net.cpp:408] embed_relu2 <- embed_bn2
I1115 05:50:45.073252  2196 net.cpp:369] embed_relu2 -> embed_bn2 (in-place)
I1115 05:50:45.073261  2196 net.cpp:124] Setting up embed_relu2
I1115 05:50:45.073266  2196 net.cpp:131] Top shape: 2 64 17 37 (80512)
I1115 05:50:45.073271  2196 net.cpp:139] Memory required for data: 24076032
I1115 05:50:45.073277  2196 layer_factory.hpp:77] Creating layer concat1
I1115 05:50:45.073287  2196 net.cpp:86] Creating Layer concat1
I1115 05:50:45.073293  2196 net.cpp:408] concat1 <- bn3_relu3_0_split_1
I1115 05:50:45.073299  2196 net.cpp:408] concat1 <- embed_bn2
I1115 05:50:45.073309  2196 net.cpp:382] concat1 -> concat1
I1115 05:50:45.073331  2196 net.cpp:124] Setting up concat1
I1115 05:50:45.073339  2196 net.cpp:131] Top shape: 2 128 17 37 (161024)
I1115 05:50:45.073344  2196 net.cpp:139] Memory required for data: 24720128
I1115 05:50:45.073350  2196 layer_factory.hpp:77] Creating layer embed_conv3
I1115 05:50:45.073359  2196 net.cpp:86] Creating Layer embed_conv3
I1115 05:50:45.073364  2196 net.cpp:408] embed_conv3 <- concat1
I1115 05:50:45.073372  2196 net.cpp:382] embed_conv3 -> embed_conv3
I1115 05:50:45.074216  2196 net.cpp:124] Setting up embed_conv3
I1115 05:50:45.074226  2196 net.cpp:131] Top shape: 2 32 38 78 (189696)
I1115 05:50:45.074232  2196 net.cpp:139] Memory required for data: 25478912
I1115 05:50:45.074240  2196 layer_factory.hpp:77] Creating layer embed_bn3
I1115 05:50:45.074247  2196 net.cpp:86] Creating Layer embed_bn3
I1115 05:50:45.074254  2196 net.cpp:408] embed_bn3 <- embed_conv3
I1115 05:50:45.074260  2196 net.cpp:382] embed_bn3 -> embed_bn3
I1115 05:50:45.074405  2196 net.cpp:124] Setting up embed_bn3
I1115 05:50:45.074414  2196 net.cpp:131] Top shape: 2 32 38 78 (189696)
I1115 05:50:45.074419  2196 net.cpp:139] Memory required for data: 26237696
I1115 05:50:45.074429  2196 layer_factory.hpp:77] Creating layer embed_scale3
I1115 05:50:45.074436  2196 net.cpp:86] Creating Layer embed_scale3
I1115 05:50:45.074442  2196 net.cpp:408] embed_scale3 <- embed_bn3
I1115 05:50:45.074450  2196 net.cpp:369] embed_scale3 -> embed_bn3 (in-place)
I1115 05:50:45.074484  2196 layer_factory.hpp:77] Creating layer embed_scale3
I1115 05:50:45.074561  2196 net.cpp:124] Setting up embed_scale3
I1115 05:50:45.074569  2196 net.cpp:131] Top shape: 2 32 38 78 (189696)
I1115 05:50:45.074575  2196 net.cpp:139] Memory required for data: 26996480
I1115 05:50:45.074584  2196 layer_factory.hpp:77] Creating layer embed_relu3
I1115 05:50:45.074590  2196 net.cpp:86] Creating Layer embed_relu3
I1115 05:50:45.074596  2196 net.cpp:408] embed_relu3 <- embed_bn3
I1115 05:50:45.074604  2196 net.cpp:369] embed_relu3 -> embed_bn3 (in-place)
I1115 05:50:45.074610  2196 net.cpp:124] Setting up embed_relu3
I1115 05:50:45.074617  2196 net.cpp:131] Top shape: 2 32 38 78 (189696)
I1115 05:50:45.074623  2196 net.cpp:139] Memory required for data: 27755264
I1115 05:50:45.074628  2196 layer_factory.hpp:77] Creating layer concat2
I1115 05:50:45.074636  2196 net.cpp:86] Creating Layer concat2
I1115 05:50:45.074641  2196 net.cpp:408] concat2 <- bn2_relu2_0_split_1
I1115 05:50:45.074648  2196 net.cpp:408] concat2 <- embed_bn3
I1115 05:50:45.074656  2196 net.cpp:382] concat2 -> concat2
I1115 05:50:45.074673  2196 net.cpp:124] Setting up concat2
I1115 05:50:45.074681  2196 net.cpp:131] Top shape: 2 64 38 78 (379392)
I1115 05:50:45.074687  2196 net.cpp:139] Memory required for data: 29272832
I1115 05:50:45.074692  2196 layer_factory.hpp:77] Creating layer embed_conv4
I1115 05:50:45.074702  2196 net.cpp:86] Creating Layer embed_conv4
I1115 05:50:45.074707  2196 net.cpp:408] embed_conv4 <- concat2
I1115 05:50:45.074714  2196 net.cpp:382] embed_conv4 -> embed_conv4
I1115 05:50:45.074981  2196 net.cpp:124] Setting up embed_conv4
I1115 05:50:45.074991  2196 net.cpp:131] Top shape: 2 16 79 159 (401952)
I1115 05:50:45.074996  2196 net.cpp:139] Memory required for data: 30880640
I1115 05:50:45.075004  2196 layer_factory.hpp:77] Creating layer embed_bn4
I1115 05:50:45.075013  2196 net.cpp:86] Creating Layer embed_bn4
I1115 05:50:45.075019  2196 net.cpp:408] embed_bn4 <- embed_conv4
I1115 05:50:45.075026  2196 net.cpp:382] embed_bn4 -> embed_bn4
I1115 05:50:45.077816  2196 net.cpp:124] Setting up embed_bn4
I1115 05:50:45.077833  2196 net.cpp:131] Top shape: 2 16 79 159 (401952)
I1115 05:50:45.077839  2196 net.cpp:139] Memory required for data: 32488448
I1115 05:50:45.077850  2196 layer_factory.hpp:77] Creating layer embed_scale4
I1115 05:50:45.077859  2196 net.cpp:86] Creating Layer embed_scale4
I1115 05:50:45.077865  2196 net.cpp:408] embed_scale4 <- embed_bn4
I1115 05:50:45.077889  2196 net.cpp:369] embed_scale4 -> embed_bn4 (in-place)
I1115 05:50:45.077927  2196 layer_factory.hpp:77] Creating layer embed_scale4
I1115 05:50:45.078020  2196 net.cpp:124] Setting up embed_scale4
I1115 05:50:45.078029  2196 net.cpp:131] Top shape: 2 16 79 159 (401952)
I1115 05:50:45.078035  2196 net.cpp:139] Memory required for data: 34096256
I1115 05:50:45.078043  2196 layer_factory.hpp:77] Creating layer embed_relu4
I1115 05:50:45.078050  2196 net.cpp:86] Creating Layer embed_relu4
I1115 05:50:45.078056  2196 net.cpp:408] embed_relu4 <- embed_bn4
I1115 05:50:45.078063  2196 net.cpp:369] embed_relu4 -> embed_bn4 (in-place)
I1115 05:50:45.078070  2196 net.cpp:124] Setting up embed_relu4
I1115 05:50:45.078078  2196 net.cpp:131] Top shape: 2 16 79 159 (401952)
I1115 05:50:45.078083  2196 net.cpp:139] Memory required for data: 35704064
I1115 05:50:45.078088  2196 layer_factory.hpp:77] Creating layer concat3
I1115 05:50:45.078094  2196 net.cpp:86] Creating Layer concat3
I1115 05:50:45.078100  2196 net.cpp:408] concat3 <- bn1_relu1_0_split_1
I1115 05:50:45.078106  2196 net.cpp:408] concat3 <- embed_bn4
I1115 05:50:45.078114  2196 net.cpp:382] concat3 -> concat3
I1115 05:50:45.078132  2196 net.cpp:124] Setting up concat3
I1115 05:50:45.078140  2196 net.cpp:131] Top shape: 2 32 79 159 (803904)
I1115 05:50:45.078145  2196 net.cpp:139] Memory required for data: 38919680
I1115 05:50:45.078151  2196 layer_factory.hpp:77] Creating layer concat3_concat3_0_split
I1115 05:50:45.078158  2196 net.cpp:86] Creating Layer concat3_concat3_0_split
I1115 05:50:45.078163  2196 net.cpp:408] concat3_concat3_0_split <- concat3
I1115 05:50:45.078171  2196 net.cpp:382] concat3_concat3_0_split -> concat3_concat3_0_split_0
I1115 05:50:45.078178  2196 net.cpp:382] concat3_concat3_0_split -> concat3_concat3_0_split_1
I1115 05:50:45.078203  2196 net.cpp:124] Setting up concat3_concat3_0_split
I1115 05:50:45.078210  2196 net.cpp:131] Top shape: 2 32 79 159 (803904)
I1115 05:50:45.078217  2196 net.cpp:131] Top shape: 2 32 79 159 (803904)
I1115 05:50:45.078222  2196 net.cpp:139] Memory required for data: 45350912
I1115 05:50:45.078227  2196 layer_factory.hpp:77] Creating layer seg
I1115 05:50:45.078236  2196 net.cpp:86] Creating Layer seg
I1115 05:50:45.078243  2196 net.cpp:408] seg <- concat3_concat3_0_split_0
I1115 05:50:45.078249  2196 net.cpp:382] seg -> seg
I1115 05:50:45.078470  2196 net.cpp:124] Setting up seg
I1115 05:50:45.078480  2196 net.cpp:131] Top shape: 2 19 160 320 (1945600)
I1115 05:50:45.078485  2196 net.cpp:139] Memory required for data: 53133312
I1115 05:50:45.078493  2196 layer_factory.hpp:77] Creating layer seg_bn
I1115 05:50:45.078501  2196 net.cpp:86] Creating Layer seg_bn
I1115 05:50:45.078507  2196 net.cpp:408] seg_bn <- seg
I1115 05:50:45.078514  2196 net.cpp:382] seg_bn -> seg_bn
I1115 05:50:45.078660  2196 net.cpp:124] Setting up seg_bn
I1115 05:50:45.078670  2196 net.cpp:131] Top shape: 2 19 160 320 (1945600)
I1115 05:50:45.078675  2196 net.cpp:139] Memory required for data: 60915712
I1115 05:50:45.078683  2196 layer_factory.hpp:77] Creating layer seg_scale
I1115 05:50:45.078691  2196 net.cpp:86] Creating Layer seg_scale
I1115 05:50:45.078696  2196 net.cpp:408] seg_scale <- seg_bn
I1115 05:50:45.078703  2196 net.cpp:369] seg_scale -> seg_bn (in-place)
I1115 05:50:45.078732  2196 layer_factory.hpp:77] Creating layer seg_scale
I1115 05:50:45.078851  2196 net.cpp:124] Setting up seg_scale
I1115 05:50:45.078860  2196 net.cpp:131] Top shape: 2 19 160 320 (1945600)
I1115 05:50:45.078866  2196 net.cpp:139] Memory required for data: 68698112
I1115 05:50:45.078873  2196 layer_factory.hpp:77] Creating layer reg_loss
I1115 05:50:45.078884  2196 net.cpp:86] Creating Layer reg_loss
I1115 05:50:45.078891  2196 net.cpp:408] reg_loss <- seg_bn
I1115 05:50:45.078896  2196 net.cpp:408] reg_loss <- label
I1115 05:50:45.078903  2196 net.cpp:382] reg_loss -> reg_loss
I1115 05:50:45.078917  2196 layer_factory.hpp:77] Creating layer reg_loss
I1115 05:50:45.083849  2196 net.cpp:124] Setting up reg_loss
I1115 05:50:45.083866  2196 net.cpp:131] Top shape: (1)
I1115 05:50:45.083875  2196 net.cpp:134]     with loss weight 0.01
I1115 05:50:45.083889  2196 net.cpp:139] Memory required for data: 68698116
I1115 05:50:45.083894  2196 layer_factory.hpp:77] Creating layer embed_conv5
I1115 05:50:45.083906  2196 net.cpp:86] Creating Layer embed_conv5
I1115 05:50:45.083912  2196 net.cpp:408] embed_conv5 <- concat3_concat3_0_split_1
I1115 05:50:45.083921  2196 net.cpp:382] embed_conv5 -> embed_conv5
I1115 05:50:45.084111  2196 net.cpp:124] Setting up embed_conv5
I1115 05:50:45.084121  2196 net.cpp:131] Top shape: 2 3 160 320 (307200)
I1115 05:50:45.084126  2196 net.cpp:139] Memory required for data: 69926916
I1115 05:50:45.084134  2196 layer_factory.hpp:77] Creating layer embed_bn5
I1115 05:50:45.084142  2196 net.cpp:86] Creating Layer embed_bn5
I1115 05:50:45.084148  2196 net.cpp:408] embed_bn5 <- embed_conv5
I1115 05:50:45.084156  2196 net.cpp:382] embed_bn5 -> embed_bn5
I1115 05:50:45.084311  2196 net.cpp:124] Setting up embed_bn5
I1115 05:50:45.084321  2196 net.cpp:131] Top shape: 2 3 160 320 (307200)
I1115 05:50:45.084326  2196 net.cpp:139] Memory required for data: 71155716
I1115 05:50:45.084333  2196 layer_factory.hpp:77] Creating layer embed_scale5
I1115 05:50:45.084342  2196 net.cpp:86] Creating Layer embed_scale5
I1115 05:50:45.084348  2196 net.cpp:408] embed_scale5 <- embed_bn5
I1115 05:50:45.084354  2196 net.cpp:369] embed_scale5 -> embed_bn5 (in-place)
I1115 05:50:45.084384  2196 layer_factory.hpp:77] Creating layer embed_scale5
I1115 05:50:45.084528  2196 net.cpp:124] Setting up embed_scale5
I1115 05:50:45.084537  2196 net.cpp:131] Top shape: 2 3 160 320 (307200)
I1115 05:50:45.084543  2196 net.cpp:139] Memory required for data: 72384516
I1115 05:50:45.084550  2196 layer_factory.hpp:77] Creating layer mask
I1115 05:50:45.084561  2196 net.cpp:86] Creating Layer mask
I1115 05:50:45.084568  2196 net.cpp:382] mask -> mask
I1115 05:50:45.084586  2196 net.cpp:124] Setting up mask
I1115 05:50:45.084594  2196 net.cpp:131] Top shape: 2 3 160 320 (307200)
I1115 05:50:45.084599  2196 net.cpp:139] Memory required for data: 73613316
I1115 05:50:45.084604  2196 layer_factory.hpp:77] Creating layer masked
I1115 05:50:45.084614  2196 net.cpp:86] Creating Layer masked
I1115 05:50:45.084619  2196 net.cpp:408] masked <- embed_bn5
I1115 05:50:45.084626  2196 net.cpp:408] masked <- mask
I1115 05:50:45.084632  2196 net.cpp:382] masked -> masked
I1115 05:50:45.084653  2196 net.cpp:124] Setting up masked
I1115 05:50:45.084677  2196 net.cpp:131] Top shape: 2 3 160 320 (307200)
I1115 05:50:45.084683  2196 net.cpp:139] Memory required for data: 74842116
I1115 05:50:45.084688  2196 layer_factory.hpp:77] Creating layer data
I1115 05:50:45.084697  2196 net.cpp:86] Creating Layer data
I1115 05:50:45.084702  2196 net.cpp:408] data <- data1_data1_0_split_1
I1115 05:50:45.084708  2196 net.cpp:408] data <- masked
I1115 05:50:45.084717  2196 net.cpp:382] data -> data
I1115 05:50:45.084734  2196 net.cpp:124] Setting up data
I1115 05:50:45.084741  2196 net.cpp:131] Top shape: 2 3 160 320 (307200)
I1115 05:50:45.084746  2196 net.cpp:139] Memory required for data: 76070916
I1115 05:50:45.084753  2196 layer_factory.hpp:77] Creating layer data_data_0_split
I1115 05:50:45.084759  2196 net.cpp:86] Creating Layer data_data_0_split
I1115 05:50:45.084765  2196 net.cpp:408] data_data_0_split <- data
I1115 05:50:45.084771  2196 net.cpp:382] data_data_0_split -> data_data_0_split_0
I1115 05:50:45.084779  2196 net.cpp:382] data_data_0_split -> data_data_0_split_1
I1115 05:50:45.084805  2196 net.cpp:124] Setting up data_data_0_split
I1115 05:50:45.084812  2196 net.cpp:131] Top shape: 2 3 160 320 (307200)
I1115 05:50:45.084818  2196 net.cpp:131] Top shape: 2 3 160 320 (307200)
I1115 05:50:45.084823  2196 net.cpp:139] Memory required for data: 78528516
I1115 05:50:45.084830  2196 layer_factory.hpp:77] Creating layer conv1_1
I1115 05:50:45.084838  2196 net.cpp:86] Creating Layer conv1_1
I1115 05:50:45.084844  2196 net.cpp:408] conv1_1 <- data_data_0_split_0
I1115 05:50:45.084851  2196 net.cpp:382] conv1_1 -> conv1_1
I1115 05:50:45.086225  2196 net.cpp:124] Setting up conv1_1
I1115 05:50:45.086241  2196 net.cpp:131] Top shape: 2 64 358 518 (23736832)
I1115 05:50:45.086246  2196 net.cpp:139] Memory required for data: 173475844
I1115 05:50:45.086258  2196 layer_factory.hpp:77] Creating layer relu1_1
I1115 05:50:45.086267  2196 net.cpp:86] Creating Layer relu1_1
I1115 05:50:45.086273  2196 net.cpp:408] relu1_1 <- conv1_1
I1115 05:50:45.086280  2196 net.cpp:369] relu1_1 -> conv1_1 (in-place)
I1115 05:50:45.086289  2196 net.cpp:124] Setting up relu1_1
I1115 05:50:45.086295  2196 net.cpp:131] Top shape: 2 64 358 518 (23736832)
I1115 05:50:45.086302  2196 net.cpp:139] Memory required for data: 268423172
I1115 05:50:45.086306  2196 layer_factory.hpp:77] Creating layer conv1_2
I1115 05:50:45.086315  2196 net.cpp:86] Creating Layer conv1_2
I1115 05:50:45.086321  2196 net.cpp:408] conv1_2 <- conv1_1
I1115 05:50:45.086328  2196 net.cpp:382] conv1_2 -> conv1_2
I1115 05:50:45.086640  2196 net.cpp:124] Setting up conv1_2
I1115 05:50:45.086652  2196 net.cpp:131] Top shape: 2 64 358 518 (23736832)
I1115 05:50:45.086658  2196 net.cpp:139] Memory required for data: 363370500
I1115 05:50:45.086665  2196 layer_factory.hpp:77] Creating layer relu1_2
I1115 05:50:45.086673  2196 net.cpp:86] Creating Layer relu1_2
I1115 05:50:45.086679  2196 net.cpp:408] relu1_2 <- conv1_2
I1115 05:50:45.086686  2196 net.cpp:369] relu1_2 -> conv1_2 (in-place)
I1115 05:50:45.086694  2196 net.cpp:124] Setting up relu1_2
I1115 05:50:45.086701  2196 net.cpp:131] Top shape: 2 64 358 518 (23736832)
I1115 05:50:45.086707  2196 net.cpp:139] Memory required for data: 458317828
I1115 05:50:45.086712  2196 layer_factory.hpp:77] Creating layer pool1
I1115 05:50:45.086721  2196 net.cpp:86] Creating Layer pool1
I1115 05:50:45.086727  2196 net.cpp:408] pool1 <- conv1_2
I1115 05:50:45.086735  2196 net.cpp:382] pool1 -> pool1
I1115 05:50:45.086787  2196 net.cpp:124] Setting up pool1
I1115 05:50:45.086796  2196 net.cpp:131] Top shape: 2 64 179 259 (5934208)
I1115 05:50:45.086802  2196 net.cpp:139] Memory required for data: 482054660
I1115 05:50:45.086807  2196 layer_factory.hpp:77] Creating layer conv2_1
I1115 05:50:45.086815  2196 net.cpp:86] Creating Layer conv2_1
I1115 05:50:45.086822  2196 net.cpp:408] conv2_1 <- pool1
I1115 05:50:45.086828  2196 net.cpp:382] conv2_1 -> conv2_1
I1115 05:50:45.087036  2196 net.cpp:124] Setting up conv2_1
I1115 05:50:45.087045  2196 net.cpp:131] Top shape: 2 128 179 259 (11868416)
I1115 05:50:45.087050  2196 net.cpp:139] Memory required for data: 529528324
I1115 05:50:45.087059  2196 layer_factory.hpp:77] Creating layer relu2_1
I1115 05:50:45.087065  2196 net.cpp:86] Creating Layer relu2_1
I1115 05:50:45.087071  2196 net.cpp:408] relu2_1 <- conv2_1
I1115 05:50:45.087077  2196 net.cpp:369] relu2_1 -> conv2_1 (in-place)
I1115 05:50:45.087085  2196 net.cpp:124] Setting up relu2_1
I1115 05:50:45.087090  2196 net.cpp:131] Top shape: 2 128 179 259 (11868416)
I1115 05:50:45.087096  2196 net.cpp:139] Memory required for data: 577001988
I1115 05:50:45.087101  2196 layer_factory.hpp:77] Creating layer conv2_2
I1115 05:50:45.087110  2196 net.cpp:86] Creating Layer conv2_2
I1115 05:50:45.087116  2196 net.cpp:408] conv2_2 <- conv2_1
I1115 05:50:45.087122  2196 net.cpp:382] conv2_2 -> conv2_2
I1115 05:50:45.088496  2196 net.cpp:124] Setting up conv2_2
I1115 05:50:45.088511  2196 net.cpp:131] Top shape: 2 128 179 259 (11868416)
I1115 05:50:45.088517  2196 net.cpp:139] Memory required for data: 624475652
I1115 05:50:45.088526  2196 layer_factory.hpp:77] Creating layer relu2_2
I1115 05:50:45.088534  2196 net.cpp:86] Creating Layer relu2_2
I1115 05:50:45.088541  2196 net.cpp:408] relu2_2 <- conv2_2
I1115 05:50:45.088548  2196 net.cpp:369] relu2_2 -> conv2_2 (in-place)
I1115 05:50:45.088557  2196 net.cpp:124] Setting up relu2_2
I1115 05:50:45.088564  2196 net.cpp:131] Top shape: 2 128 179 259 (11868416)
I1115 05:50:45.088569  2196 net.cpp:139] Memory required for data: 671949316
I1115 05:50:45.088575  2196 layer_factory.hpp:77] Creating layer pool2
I1115 05:50:45.088583  2196 net.cpp:86] Creating Layer pool2
I1115 05:50:45.088593  2196 net.cpp:408] pool2 <- conv2_2
I1115 05:50:45.088601  2196 net.cpp:382] pool2 -> pool2
I1115 05:50:45.088634  2196 net.cpp:124] Setting up pool2
I1115 05:50:45.088642  2196 net.cpp:131] Top shape: 2 128 90 130 (2995200)
I1115 05:50:45.088647  2196 net.cpp:139] Memory required for data: 683930116
I1115 05:50:45.088654  2196 layer_factory.hpp:77] Creating layer conv3_1
I1115 05:50:45.088662  2196 net.cpp:86] Creating Layer conv3_1
I1115 05:50:45.088668  2196 net.cpp:408] conv3_1 <- pool2
I1115 05:50:45.088676  2196 net.cpp:382] conv3_1 -> conv3_1
I1115 05:50:45.089004  2196 net.cpp:124] Setting up conv3_1
I1115 05:50:45.089015  2196 net.cpp:131] Top shape: 2 256 90 130 (5990400)
I1115 05:50:45.089020  2196 net.cpp:139] Memory required for data: 707891716
I1115 05:50:45.089027  2196 layer_factory.hpp:77] Creating layer relu3_1
I1115 05:50:45.089035  2196 net.cpp:86] Creating Layer relu3_1
I1115 05:50:45.089041  2196 net.cpp:408] relu3_1 <- conv3_1
I1115 05:50:45.089049  2196 net.cpp:369] relu3_1 -> conv3_1 (in-place)
I1115 05:50:45.089056  2196 net.cpp:124] Setting up relu3_1
I1115 05:50:45.089062  2196 net.cpp:131] Top shape: 2 256 90 130 (5990400)
I1115 05:50:45.089068  2196 net.cpp:139] Memory required for data: 731853316
I1115 05:50:45.089073  2196 layer_factory.hpp:77] Creating layer conv3_2
I1115 05:50:45.089083  2196 net.cpp:86] Creating Layer conv3_2
I1115 05:50:45.089089  2196 net.cpp:408] conv3_2 <- conv3_1
I1115 05:50:45.089097  2196 net.cpp:382] conv3_2 -> conv3_2
I1115 05:50:45.090874  2196 net.cpp:124] Setting up conv3_2
I1115 05:50:45.090889  2196 net.cpp:131] Top shape: 2 256 90 130 (5990400)
I1115 05:50:45.090894  2196 net.cpp:139] Memory required for data: 755814916
I1115 05:50:45.090903  2196 layer_factory.hpp:77] Creating layer relu3_2
I1115 05:50:45.090910  2196 net.cpp:86] Creating Layer relu3_2
I1115 05:50:45.090916  2196 net.cpp:408] relu3_2 <- conv3_2
I1115 05:50:45.090924  2196 net.cpp:369] relu3_2 -> conv3_2 (in-place)
I1115 05:50:45.090931  2196 net.cpp:124] Setting up relu3_2
I1115 05:50:45.090939  2196 net.cpp:131] Top shape: 2 256 90 130 (5990400)
I1115 05:50:45.090943  2196 net.cpp:139] Memory required for data: 779776516
I1115 05:50:45.090948  2196 layer_factory.hpp:77] Creating layer conv3_3
I1115 05:50:45.090957  2196 net.cpp:86] Creating Layer conv3_3
I1115 05:50:45.090962  2196 net.cpp:408] conv3_3 <- conv3_2
I1115 05:50:45.090970  2196 net.cpp:382] conv3_3 -> conv3_3
I1115 05:50:45.092684  2196 net.cpp:124] Setting up conv3_3
I1115 05:50:45.092700  2196 net.cpp:131] Top shape: 2 256 90 130 (5990400)
I1115 05:50:45.092705  2196 net.cpp:139] Memory required for data: 803738116
I1115 05:50:45.092715  2196 layer_factory.hpp:77] Creating layer relu3_3
I1115 05:50:45.092723  2196 net.cpp:86] Creating Layer relu3_3
I1115 05:50:45.092730  2196 net.cpp:408] relu3_3 <- conv3_3
I1115 05:50:45.092737  2196 net.cpp:369] relu3_3 -> conv3_3 (in-place)
I1115 05:50:45.092746  2196 net.cpp:124] Setting up relu3_3
I1115 05:50:45.092753  2196 net.cpp:131] Top shape: 2 256 90 130 (5990400)
I1115 05:50:45.092758  2196 net.cpp:139] Memory required for data: 827699716
I1115 05:50:45.092764  2196 layer_factory.hpp:77] Creating layer pool3
I1115 05:50:45.092790  2196 net.cpp:86] Creating Layer pool3
I1115 05:50:45.092797  2196 net.cpp:408] pool3 <- conv3_3
I1115 05:50:45.092803  2196 net.cpp:382] pool3 -> pool3
I1115 05:50:45.092834  2196 net.cpp:124] Setting up pool3
I1115 05:50:45.092842  2196 net.cpp:131] Top shape: 2 256 45 65 (1497600)
I1115 05:50:45.092847  2196 net.cpp:139] Memory required for data: 833690116
I1115 05:50:45.092854  2196 layer_factory.hpp:77] Creating layer pool3_pool3_0_split
I1115 05:50:45.092861  2196 net.cpp:86] Creating Layer pool3_pool3_0_split
I1115 05:50:45.092866  2196 net.cpp:408] pool3_pool3_0_split <- pool3
I1115 05:50:45.092873  2196 net.cpp:382] pool3_pool3_0_split -> pool3_pool3_0_split_0
I1115 05:50:45.092881  2196 net.cpp:382] pool3_pool3_0_split -> pool3_pool3_0_split_1
I1115 05:50:45.092906  2196 net.cpp:124] Setting up pool3_pool3_0_split
I1115 05:50:45.092917  2196 net.cpp:131] Top shape: 2 256 45 65 (1497600)
I1115 05:50:45.092924  2196 net.cpp:131] Top shape: 2 256 45 65 (1497600)
I1115 05:50:45.092929  2196 net.cpp:139] Memory required for data: 845670916
I1115 05:50:45.092934  2196 layer_factory.hpp:77] Creating layer conv4_1
I1115 05:50:45.092944  2196 net.cpp:86] Creating Layer conv4_1
I1115 05:50:45.092949  2196 net.cpp:408] conv4_1 <- pool3_pool3_0_split_0
I1115 05:50:45.092957  2196 net.cpp:382] conv4_1 -> conv4_1
I1115 05:50:45.096094  2196 net.cpp:124] Setting up conv4_1
I1115 05:50:45.096110  2196 net.cpp:131] Top shape: 2 512 45 65 (2995200)
I1115 05:50:45.096115  2196 net.cpp:139] Memory required for data: 857651716
I1115 05:50:45.096123  2196 layer_factory.hpp:77] Creating layer relu4_1
I1115 05:50:45.096132  2196 net.cpp:86] Creating Layer relu4_1
I1115 05:50:45.096138  2196 net.cpp:408] relu4_1 <- conv4_1
I1115 05:50:45.096145  2196 net.cpp:369] relu4_1 -> conv4_1 (in-place)
I1115 05:50:45.096153  2196 net.cpp:124] Setting up relu4_1
I1115 05:50:45.096160  2196 net.cpp:131] Top shape: 2 512 45 65 (2995200)
I1115 05:50:45.096165  2196 net.cpp:139] Memory required for data: 869632516
I1115 05:50:45.096170  2196 layer_factory.hpp:77] Creating layer conv4_2
I1115 05:50:45.096179  2196 net.cpp:86] Creating Layer conv4_2
I1115 05:50:45.096185  2196 net.cpp:408] conv4_2 <- conv4_1
I1115 05:50:45.096192  2196 net.cpp:382] conv4_2 -> conv4_2
I1115 05:50:45.101979  2196 net.cpp:124] Setting up conv4_2
I1115 05:50:45.101995  2196 net.cpp:131] Top shape: 2 512 45 65 (2995200)
I1115 05:50:45.102001  2196 net.cpp:139] Memory required for data: 881613316
I1115 05:50:45.102010  2196 layer_factory.hpp:77] Creating layer relu4_2
I1115 05:50:45.102017  2196 net.cpp:86] Creating Layer relu4_2
I1115 05:50:45.102025  2196 net.cpp:408] relu4_2 <- conv4_2
I1115 05:50:45.102031  2196 net.cpp:369] relu4_2 -> conv4_2 (in-place)
I1115 05:50:45.102039  2196 net.cpp:124] Setting up relu4_2
I1115 05:50:45.102046  2196 net.cpp:131] Top shape: 2 512 45 65 (2995200)
I1115 05:50:45.102051  2196 net.cpp:139] Memory required for data: 893594116
I1115 05:50:45.102057  2196 layer_factory.hpp:77] Creating layer conv4_3
I1115 05:50:45.102066  2196 net.cpp:86] Creating Layer conv4_3
I1115 05:50:45.102072  2196 net.cpp:408] conv4_3 <- conv4_2
I1115 05:50:45.102079  2196 net.cpp:382] conv4_3 -> conv4_3
I1115 05:50:45.107740  2196 net.cpp:124] Setting up conv4_3
I1115 05:50:45.107755  2196 net.cpp:131] Top shape: 2 512 45 65 (2995200)
I1115 05:50:45.107761  2196 net.cpp:139] Memory required for data: 905574916
I1115 05:50:45.107769  2196 layer_factory.hpp:77] Creating layer relu4_3
I1115 05:50:45.107777  2196 net.cpp:86] Creating Layer relu4_3
I1115 05:50:45.107784  2196 net.cpp:408] relu4_3 <- conv4_3
I1115 05:50:45.107791  2196 net.cpp:369] relu4_3 -> conv4_3 (in-place)
I1115 05:50:45.107800  2196 net.cpp:124] Setting up relu4_3
I1115 05:50:45.107806  2196 net.cpp:131] Top shape: 2 512 45 65 (2995200)
I1115 05:50:45.107811  2196 net.cpp:139] Memory required for data: 917555716
I1115 05:50:45.107816  2196 layer_factory.hpp:77] Creating layer pool4
I1115 05:50:45.107825  2196 net.cpp:86] Creating Layer pool4
I1115 05:50:45.107831  2196 net.cpp:408] pool4 <- conv4_3
I1115 05:50:45.107837  2196 net.cpp:382] pool4 -> pool4
I1115 05:50:45.107867  2196 net.cpp:124] Setting up pool4
I1115 05:50:45.107875  2196 net.cpp:131] Top shape: 2 512 23 33 (777216)
I1115 05:50:45.107880  2196 net.cpp:139] Memory required for data: 920664580
I1115 05:50:45.107887  2196 layer_factory.hpp:77] Creating layer pool4_pool4_0_split
I1115 05:50:45.107893  2196 net.cpp:86] Creating Layer pool4_pool4_0_split
I1115 05:50:45.107898  2196 net.cpp:408] pool4_pool4_0_split <- pool4
I1115 05:50:45.107905  2196 net.cpp:382] pool4_pool4_0_split -> pool4_pool4_0_split_0
I1115 05:50:45.107913  2196 net.cpp:382] pool4_pool4_0_split -> pool4_pool4_0_split_1
I1115 05:50:45.107939  2196 net.cpp:124] Setting up pool4_pool4_0_split
I1115 05:50:45.107946  2196 net.cpp:131] Top shape: 2 512 23 33 (777216)
I1115 05:50:45.107956  2196 net.cpp:131] Top shape: 2 512 23 33 (777216)
I1115 05:50:45.107961  2196 net.cpp:139] Memory required for data: 926882308
I1115 05:50:45.107966  2196 layer_factory.hpp:77] Creating layer conv5_1
I1115 05:50:45.107976  2196 net.cpp:86] Creating Layer conv5_1
I1115 05:50:45.107981  2196 net.cpp:408] conv5_1 <- pool4_pool4_0_split_0
I1115 05:50:45.107990  2196 net.cpp:382] conv5_1 -> conv5_1
I1115 05:50:45.113781  2196 net.cpp:124] Setting up conv5_1
I1115 05:50:45.113798  2196 net.cpp:131] Top shape: 2 512 23 33 (777216)
I1115 05:50:45.113804  2196 net.cpp:139] Memory required for data: 929991172
I1115 05:50:45.113812  2196 layer_factory.hpp:77] Creating layer relu5_1
I1115 05:50:45.113821  2196 net.cpp:86] Creating Layer relu5_1
I1115 05:50:45.113827  2196 net.cpp:408] relu5_1 <- conv5_1
I1115 05:50:45.113835  2196 net.cpp:369] relu5_1 -> conv5_1 (in-place)
I1115 05:50:45.113843  2196 net.cpp:124] Setting up relu5_1
I1115 05:50:45.113850  2196 net.cpp:131] Top shape: 2 512 23 33 (777216)
I1115 05:50:45.113857  2196 net.cpp:139] Memory required for data: 933100036
I1115 05:50:45.113862  2196 layer_factory.hpp:77] Creating layer conv5_2
I1115 05:50:45.113871  2196 net.cpp:86] Creating Layer conv5_2
I1115 05:50:45.113876  2196 net.cpp:408] conv5_2 <- conv5_1
I1115 05:50:45.113884  2196 net.cpp:382] conv5_2 -> conv5_2
I1115 05:50:45.119588  2196 net.cpp:124] Setting up conv5_2
I1115 05:50:45.119603  2196 net.cpp:131] Top shape: 2 512 23 33 (777216)
I1115 05:50:45.119609  2196 net.cpp:139] Memory required for data: 936208900
I1115 05:50:45.119617  2196 layer_factory.hpp:77] Creating layer relu5_2
I1115 05:50:45.119626  2196 net.cpp:86] Creating Layer relu5_2
I1115 05:50:45.119632  2196 net.cpp:408] relu5_2 <- conv5_2
I1115 05:50:45.119639  2196 net.cpp:369] relu5_2 -> conv5_2 (in-place)
I1115 05:50:45.119647  2196 net.cpp:124] Setting up relu5_2
I1115 05:50:45.119653  2196 net.cpp:131] Top shape: 2 512 23 33 (777216)
I1115 05:50:45.119658  2196 net.cpp:139] Memory required for data: 939317764
I1115 05:50:45.119664  2196 layer_factory.hpp:77] Creating layer conv5_3
I1115 05:50:45.119673  2196 net.cpp:86] Creating Layer conv5_3
I1115 05:50:45.119678  2196 net.cpp:408] conv5_3 <- conv5_2
I1115 05:50:45.119685  2196 net.cpp:382] conv5_3 -> conv5_3
I1115 05:50:45.125335  2196 net.cpp:124] Setting up conv5_3
I1115 05:50:45.125350  2196 net.cpp:131] Top shape: 2 512 23 33 (777216)
I1115 05:50:45.125356  2196 net.cpp:139] Memory required for data: 942426628
I1115 05:50:45.125365  2196 layer_factory.hpp:77] Creating layer relu5_3
I1115 05:50:45.125373  2196 net.cpp:86] Creating Layer relu5_3
I1115 05:50:45.125380  2196 net.cpp:408] relu5_3 <- conv5_3
I1115 05:50:45.125386  2196 net.cpp:369] relu5_3 -> conv5_3 (in-place)
I1115 05:50:45.125394  2196 net.cpp:124] Setting up relu5_3
I1115 05:50:45.125401  2196 net.cpp:131] Top shape: 2 512 23 33 (777216)
I1115 05:50:45.125406  2196 net.cpp:139] Memory required for data: 945535492
I1115 05:50:45.125411  2196 layer_factory.hpp:77] Creating layer pool5
I1115 05:50:45.125421  2196 net.cpp:86] Creating Layer pool5
I1115 05:50:45.125425  2196 net.cpp:408] pool5 <- conv5_3
I1115 05:50:45.125433  2196 net.cpp:382] pool5 -> pool5
I1115 05:50:45.125470  2196 net.cpp:124] Setting up pool5
I1115 05:50:45.125479  2196 net.cpp:131] Top shape: 2 512 12 17 (208896)
I1115 05:50:45.125484  2196 net.cpp:139] Memory required for data: 946371076
I1115 05:50:45.125490  2196 layer_factory.hpp:77] Creating layer fc6
I1115 05:50:45.125500  2196 net.cpp:86] Creating Layer fc6
I1115 05:50:45.125505  2196 net.cpp:408] fc6 <- pool5
I1115 05:50:45.125514  2196 net.cpp:382] fc6 -> fc6
I1115 05:50:45.434154  2196 net.cpp:124] Setting up fc6
I1115 05:50:45.434204  2196 net.cpp:131] Top shape: 2 4096 6 11 (540672)
I1115 05:50:45.434213  2196 net.cpp:139] Memory required for data: 948533764
I1115 05:50:45.434231  2196 layer_factory.hpp:77] Creating layer relu6
I1115 05:50:45.434249  2196 net.cpp:86] Creating Layer relu6
I1115 05:50:45.434259  2196 net.cpp:408] relu6 <- fc6
I1115 05:50:45.434274  2196 net.cpp:369] relu6 -> fc6 (in-place)
I1115 05:50:45.434300  2196 net.cpp:124] Setting up relu6
I1115 05:50:45.434311  2196 net.cpp:131] Top shape: 2 4096 6 11 (540672)
I1115 05:50:45.434320  2196 net.cpp:139] Memory required for data: 950696452
I1115 05:50:45.434329  2196 layer_factory.hpp:77] Creating layer fc7
I1115 05:50:45.434345  2196 net.cpp:86] Creating Layer fc7
I1115 05:50:45.434353  2196 net.cpp:408] fc7 <- fc6
I1115 05:50:45.434365  2196 net.cpp:382] fc7 -> fc7
I1115 05:50:45.489341  2196 net.cpp:124] Setting up fc7
I1115 05:50:45.489388  2196 net.cpp:131] Top shape: 2 4096 6 11 (540672)
I1115 05:50:45.489395  2196 net.cpp:139] Memory required for data: 952859140
I1115 05:50:45.489408  2196 layer_factory.hpp:77] Creating layer relu7
I1115 05:50:45.489423  2196 net.cpp:86] Creating Layer relu7
I1115 05:50:45.489430  2196 net.cpp:408] relu7 <- fc7
I1115 05:50:45.489440  2196 net.cpp:369] relu7 -> fc7 (in-place)
I1115 05:50:45.489454  2196 net.cpp:124] Setting up relu7
I1115 05:50:45.489466  2196 net.cpp:131] Top shape: 2 4096 6 11 (540672)
I1115 05:50:45.489475  2196 net.cpp:139] Memory required for data: 955021828
I1115 05:50:45.489481  2196 layer_factory.hpp:77] Creating layer score_fr
I1115 05:50:45.489495  2196 net.cpp:86] Creating Layer score_fr
I1115 05:50:45.489500  2196 net.cpp:408] score_fr <- fc7
I1115 05:50:45.489509  2196 net.cpp:382] score_fr -> score_fr
I1115 05:50:45.494406  2196 net.cpp:124] Setting up score_fr
I1115 05:50:45.494424  2196 net.cpp:131] Top shape: 2 19 6 11 (2508)
I1115 05:50:45.494431  2196 net.cpp:139] Memory required for data: 955031860
I1115 05:50:45.494439  2196 layer_factory.hpp:77] Creating layer upscore2
I1115 05:50:45.494451  2196 net.cpp:86] Creating Layer upscore2
I1115 05:50:45.494458  2196 net.cpp:408] upscore2 <- score_fr
I1115 05:50:45.494475  2196 net.cpp:382] upscore2 -> upscore2
I1115 05:50:45.494621  2196 net.cpp:124] Setting up upscore2
I1115 05:50:45.494632  2196 net.cpp:131] Top shape: 2 19 14 24 (12768)
I1115 05:50:45.494637  2196 net.cpp:139] Memory required for data: 955082932
I1115 05:50:45.494644  2196 layer_factory.hpp:77] Creating layer upscore2_upscore2_0_split
I1115 05:50:45.494652  2196 net.cpp:86] Creating Layer upscore2_upscore2_0_split
I1115 05:50:45.494658  2196 net.cpp:408] upscore2_upscore2_0_split <- upscore2
I1115 05:50:45.494666  2196 net.cpp:382] upscore2_upscore2_0_split -> upscore2_upscore2_0_split_0
I1115 05:50:45.494675  2196 net.cpp:382] upscore2_upscore2_0_split -> upscore2_upscore2_0_split_1
I1115 05:50:45.494704  2196 net.cpp:124] Setting up upscore2_upscore2_0_split
I1115 05:50:45.494711  2196 net.cpp:131] Top shape: 2 19 14 24 (12768)
I1115 05:50:45.494719  2196 net.cpp:131] Top shape: 2 19 14 24 (12768)
I1115 05:50:45.494724  2196 net.cpp:139] Memory required for data: 955185076
I1115 05:50:45.494729  2196 layer_factory.hpp:77] Creating layer score_pool4
I1115 05:50:45.494738  2196 net.cpp:86] Creating Layer score_pool4
I1115 05:50:45.494745  2196 net.cpp:408] score_pool4 <- pool4_pool4_0_split_1
I1115 05:50:45.494752  2196 net.cpp:382] score_pool4 -> score_pool4
I1115 05:50:45.494912  2196 net.cpp:124] Setting up score_pool4
I1115 05:50:45.494921  2196 net.cpp:131] Top shape: 2 19 23 33 (28842)
I1115 05:50:45.494927  2196 net.cpp:139] Memory required for data: 955300444
I1115 05:50:45.494935  2196 layer_factory.hpp:77] Creating layer score_pool4c
I1115 05:50:45.494952  2196 net.cpp:86] Creating Layer score_pool4c
I1115 05:50:45.494958  2196 net.cpp:408] score_pool4c <- score_pool4
I1115 05:50:45.494966  2196 net.cpp:408] score_pool4c <- upscore2_upscore2_0_split_0
I1115 05:50:45.494972  2196 net.cpp:382] score_pool4c -> score_pool4c
I1115 05:50:45.495048  2196 net.cpp:124] Setting up score_pool4c
I1115 05:50:45.495055  2196 net.cpp:131] Top shape: 2 19 14 24 (12768)
I1115 05:50:45.495061  2196 net.cpp:139] Memory required for data: 955351516
I1115 05:50:45.495067  2196 layer_factory.hpp:77] Creating layer fuse_pool4
I1115 05:50:45.495076  2196 net.cpp:86] Creating Layer fuse_pool4
I1115 05:50:45.495082  2196 net.cpp:408] fuse_pool4 <- upscore2_upscore2_0_split_1
I1115 05:50:45.495095  2196 net.cpp:408] fuse_pool4 <- score_pool4c
I1115 05:50:45.495103  2196 net.cpp:382] fuse_pool4 -> fuse_pool4
I1115 05:50:45.495123  2196 net.cpp:124] Setting up fuse_pool4
I1115 05:50:45.495131  2196 net.cpp:131] Top shape: 2 19 14 24 (12768)
I1115 05:50:45.495137  2196 net.cpp:139] Memory required for data: 955402588
I1115 05:50:45.495143  2196 layer_factory.hpp:77] Creating layer upscore_pool4
I1115 05:50:45.495152  2196 net.cpp:86] Creating Layer upscore_pool4
I1115 05:50:45.495158  2196 net.cpp:408] upscore_pool4 <- fuse_pool4
I1115 05:50:45.495167  2196 net.cpp:382] upscore_pool4 -> upscore_pool4
I1115 05:50:45.495295  2196 net.cpp:124] Setting up upscore_pool4
I1115 05:50:45.495303  2196 net.cpp:131] Top shape: 2 19 30 50 (57000)
I1115 05:50:45.495308  2196 net.cpp:139] Memory required for data: 955630588
I1115 05:50:45.495316  2196 layer_factory.hpp:77] Creating layer upscore_pool4_upscore_pool4_0_split
I1115 05:50:45.495324  2196 net.cpp:86] Creating Layer upscore_pool4_upscore_pool4_0_split
I1115 05:50:45.495330  2196 net.cpp:408] upscore_pool4_upscore_pool4_0_split <- upscore_pool4
I1115 05:50:45.495337  2196 net.cpp:382] upscore_pool4_upscore_pool4_0_split -> upscore_pool4_upscore_pool4_0_split_0
I1115 05:50:45.495347  2196 net.cpp:382] upscore_pool4_upscore_pool4_0_split -> upscore_pool4_upscore_pool4_0_split_1
I1115 05:50:45.495373  2196 net.cpp:124] Setting up upscore_pool4_upscore_pool4_0_split
I1115 05:50:45.495381  2196 net.cpp:131] Top shape: 2 19 30 50 (57000)
I1115 05:50:45.495388  2196 net.cpp:131] Top shape: 2 19 30 50 (57000)
I1115 05:50:45.495393  2196 net.cpp:139] Memory required for data: 956086588
I1115 05:50:45.495399  2196 layer_factory.hpp:77] Creating layer score_pool3
I1115 05:50:45.495409  2196 net.cpp:86] Creating Layer score_pool3
I1115 05:50:45.495414  2196 net.cpp:408] score_pool3 <- pool3_pool3_0_split_1
I1115 05:50:45.495422  2196 net.cpp:382] score_pool3 -> score_pool3
I1115 05:50:45.495599  2196 net.cpp:124] Setting up score_pool3
I1115 05:50:45.495610  2196 net.cpp:131] Top shape: 2 19 45 65 (111150)
I1115 05:50:45.495615  2196 net.cpp:139] Memory required for data: 956531188
I1115 05:50:45.495623  2196 layer_factory.hpp:77] Creating layer score_pool3c
I1115 05:50:45.495632  2196 net.cpp:86] Creating Layer score_pool3c
I1115 05:50:45.495638  2196 net.cpp:408] score_pool3c <- score_pool3
I1115 05:50:45.495645  2196 net.cpp:408] score_pool3c <- upscore_pool4_upscore_pool4_0_split_0
I1115 05:50:45.495653  2196 net.cpp:382] score_pool3c -> score_pool3c
I1115 05:50:45.495718  2196 net.cpp:124] Setting up score_pool3c
I1115 05:50:45.495728  2196 net.cpp:131] Top shape: 2 19 30 50 (57000)
I1115 05:50:45.495733  2196 net.cpp:139] Memory required for data: 956759188
I1115 05:50:45.495738  2196 layer_factory.hpp:77] Creating layer fuse_pool3
I1115 05:50:45.495746  2196 net.cpp:86] Creating Layer fuse_pool3
I1115 05:50:45.495752  2196 net.cpp:408] fuse_pool3 <- upscore_pool4_upscore_pool4_0_split_1
I1115 05:50:45.495759  2196 net.cpp:408] fuse_pool3 <- score_pool3c
I1115 05:50:45.495766  2196 net.cpp:382] fuse_pool3 -> fuse_pool3
I1115 05:50:45.495786  2196 net.cpp:124] Setting up fuse_pool3
I1115 05:50:45.495795  2196 net.cpp:131] Top shape: 2 19 30 50 (57000)
I1115 05:50:45.495800  2196 net.cpp:139] Memory required for data: 956987188
I1115 05:50:45.495805  2196 layer_factory.hpp:77] Creating layer upscore8
I1115 05:50:45.495813  2196 net.cpp:86] Creating Layer upscore8
I1115 05:50:45.495820  2196 net.cpp:408] upscore8 <- fuse_pool3
I1115 05:50:45.495827  2196 net.cpp:382] upscore8 -> upscore8
I1115 05:50:45.496004  2196 net.cpp:124] Setting up upscore8
I1115 05:50:45.496013  2196 net.cpp:131] Top shape: 2 19 248 408 (3844992)
I1115 05:50:45.496019  2196 net.cpp:139] Memory required for data: 972367156
I1115 05:50:45.496026  2196 layer_factory.hpp:77] Creating layer score
I1115 05:50:45.496035  2196 net.cpp:86] Creating Layer score
I1115 05:50:45.496042  2196 net.cpp:408] score <- upscore8
I1115 05:50:45.496048  2196 net.cpp:408] score <- data_data_0_split_1
I1115 05:50:45.496059  2196 net.cpp:382] score -> score
I1115 05:50:45.496126  2196 net.cpp:124] Setting up score
I1115 05:50:45.496134  2196 net.cpp:131] Top shape: 2 19 160 320 (1945600)
I1115 05:50:45.496140  2196 net.cpp:139] Memory required for data: 980149556
I1115 05:50:45.496146  2196 layer_factory.hpp:77] Creating layer loss
I1115 05:50:45.496160  2196 net.cpp:86] Creating Layer loss
I1115 05:50:45.496165  2196 net.cpp:408] loss <- score
I1115 05:50:45.496172  2196 net.cpp:408] loss <- fakelabel
I1115 05:50:45.496181  2196 net.cpp:382] loss -> loss
I1115 05:50:45.496193  2196 layer_factory.hpp:77] Creating layer loss
…
