…
I1115 05:31:00.843004 55075 solver.cpp:92] Creating training net from train_net file: adv_train2.prototxt
I1115 05:31:00.845080 55075 net.cpp:53] Initializing net from parameters: 
state {
  phase: TRAIN
}
layer {
  name: "data1"
  type: "Python"
  top: "data1"
  top: "label"
  top: "fakelabel"
  python_param {
    module: "adv_mapillary_layer"
    layer: "MapillaryLayer"
    param_str: "{\'img_dir\': \'/l/vision/v5/chen478/Fall2018/mapillary/training/images/\', \'label_dir\': \'/l/vision/v5/chen478/Fall2018/fcn.mapillary/results/seg_res_train/\', \'seed\': 1337, \'mean\': (71.60167789, 82.09696889, 72.30608881)}"
  }
}
layer {
  name: "conv1"
  type: "Convolution"
  bottom: "data1"
  top: "conv1"
  convolution_param {
    num_output: 64
    pad: 0
    kernel_size: 3
    stride: 2
    weight_filler {
      type: "xavier"
    }
  }
}
layer {
  name: "bn1"
  type: "BatchNorm"
  bottom: "conv1"
  top: "bn1"
  batch_norm_param {
    use_global_stats: false
  }
}
layer {
  name: "scale1"
  type: "Scale"
  bottom: "bn1"
  top: "bn1"
  scale_param {
    bias_term: true
  }
}
layer {
  name: "relu1"
  type: "ReLU"
  bottom: "bn1"
  top: "bn1"
}
layer {
  name: "conv2"
  type: "Convolution"
  bottom: "bn1"
  top: "conv2"
  convolution_param {
    num_output: 128
    pad: 0
    kernel_size: 5
    stride: 2
    weight_filler {
      type: "xavier"
    }
  }
}
layer {
  name: "bn2"
  type: "BatchNorm"
  bottom: "conv2"
  top: "bn2"
  batch_norm_param {
    use_global_stats: false
  }
}
layer {
  name: "scale2"
  type: "Scale"
  bottom: "bn2"
  top: "bn2"
  scale_param {
    bias_term: true
  }
}
layer {
  name: "relu2"
  type: "ReLU"
  bottom: "bn2"
  top: "bn2"
}
layer {
  name: "conv3"
  type: "Convolution"
  bottom: "bn2"
  top: "conv3"
  convolution_param {
    num_output: 256
    pad: 0
    kernel_size: 5
    stride: 2
    weight_filler {
      type: "xavier"
    }
  }
}
layer {
  name: "bn3"
  type: "BatchNorm"
  bottom: "conv3"
  top: "bn3"
  batch_norm_param {
    use_global_stats: false
  }
}
layer {
  name: "scale3"
  type: "Scale"
  bottom: "bn3"
  top: "bn3"
  scale_param {
    bias_term: true
  }
}
layer {
  name: "relu3"
  type: "ReLU"
  bottom: "bn3"
  top: "bn3"
}
layer {
  name: "conv4"
  type: "Convolution"
  bottom: "bn3"
  top: "conv4"
  convolution_param {
    num_output: 512
    pad: 0
    kernel_size: 3
    stride: 1
    weight_filler {
      type: "xavier"
    }
  }
}
layer {
  name: "bn4"
  type: "BatchNorm"
  bottom: "conv4"
  top: "bn4"
  batch_norm_param {
    use_global_stats: false
  }
}
layer {
  name: "scale4"
  type: "Scale"
  bottom: "bn4"
  top: "bn4"
  scale_param {
    bias_term: true
  }
}
layer {
  name: "relu4"
  type: "ReLU"
  bottom: "bn4"
  top: "bn4"
}
layer {
  name: "embed_conv2"
  type: "Deconvolution"
  bottom: "bn4"
  top: "embed_conv2"
  convolution_param {
    num_output: 256
    pad: 0
    kernel_size: 3
    stride: 1
    weight_filler {
      type: "xavier"
    }
  }
}
layer {
  name: "embed_bn2"
  type: "BatchNorm"
  bottom: "embed_conv2"
  top: "embed_bn2"
  batch_norm_param {
    use_global_stats: false
  }
}
layer {
  name: "embed_scale2"
  type: "Scale"
  bottom: "embed_bn2"
  top: "embed_bn2"
  scale_param {
    bias_term: true
  }
}
layer {
  name: "embed_relu2"
  type: "ReLU"
  bottom: "embed_bn2"
  top: "embed_bn2"
}
layer {
  name: "concat1"
  type: "Concat"
  bottom: "bn3"
  bottom: "embed_bn2"
  top: "concat1"
  concat_param {
    axis: 1
  }
}
layer {
  name: "embed_conv3"
  type: "Deconvolution"
  bottom: "concat1"
  top: "embed_conv3"
  convolution_param {
    num_output: 128
    pad: 0
    kernel_size: 6
    stride: 2
    weight_filler {
      type: "xavier"
    }
  }
}
layer {
  name: "embed_bn3"
  type: "BatchNorm"
  bottom: "embed_conv3"
  top: "embed_bn3"
  batch_norm_param {
    use_global_stats: false
  }
}
layer {
  name: "embed_scale3"
  type: "Scale"
  bottom: "embed_bn3"
  top: "embed_bn3"
  scale_param {
    bias_term: true
  }
}
layer {
  name: "embed_relu3"
  type: "ReLU"
  bottom: "embed_bn3"
  top: "embed_bn3"
}
layer {
  name: "concat2"
  type: "Concat"
  bottom: "bn2"
  bottom: "embed_bn3"
  top: "concat2"
  concat_param {
    axis: 1
  }
}
layer {
  name: "embed_conv4"
  type: "Deconvolution"
  bottom: "concat2"
  top: "embed_conv4"
  convolution_param {
    num_output: 64
    pad: 0
    kernel_size: 5
    stride: 2
    weight_filler {
      type: "xavier"
    }
  }
}
layer {
  name: "embed_bn4"
  type: "BatchNorm"
  bottom: "embed_conv4"
  top: "embed_bn4"
  batch_norm_param {
    use_global_stats: false
  }
}
layer {
  name: "embed_scale4"
  type: "Scale"
  bottom: "embed_bn4"
  top: "embed_bn4"
  scale_param {
    bias_term: true
  }
}
layer {
  name: "embed_relu4"
  type: "ReLU"
  bottom: "embed_bn4"
  top: "embed_bn4"
}
layer {
  name: "concat3"
  type: "Concat"
  bottom: "bn1"
  bottom: "embed_bn4"
  top: "concat3"
  concat_param {
    axis: 1
  }
}
layer {
  name: "seg"
  type: "Deconvolution"
  bottom: "concat3"
  top: "seg"
  convolution_param {
    num_output: 19
    pad: 0
    kernel_size: 4
    stride: 2
    weight_filler {
      type: "xavier"
    }
  }
}
layer {
  name: "seg_bn"
  type: "BatchNorm"
  bottom: "seg"
  top: "seg_bn"
  batch_norm_param {
    use_global_stats: false
  }
}
layer {
  name: "seg_scale"
  type: "Scale"
  bottom: "seg_bn"
  top: "seg_bn"
  scale_param {
    bias_term: true
  }
}
layer {
  name: "reg_loss"
  type: "SoftmaxWithLoss"
  bottom: "seg_bn"
  bottom: "label"
  top: "reg_loss"
  loss_weight: 0
  loss_param {
    ignore_label: 255
    normalize: false
  }
}
layer {
  name: "embed_conv5"
  type: "Deconvolution"
  bottom: "concat3"
  top: "embed_conv5"
  convolution_param {
    num_output: 3
    pad: 0
    kernel_size: 4
    stride: 2
    weight_filler {
      type: "xavier"
    }
  }
}
layer {
  name: "embed_bn5"
  type: "BatchNorm"
  bottom: "embed_conv5"
  top: "embed_bn5"
  batch_norm_param {
    use_global_stats: false
  }
}
layer {
  name: "embed_scale5"
  type: "Scale"
  bottom: "embed_bn5"
  top: "embed_bn5"
  scale_param {
    bias_term: true
  }
}
layer {
  name: "mask"
  type: "RandVec"
  top: "mask"
  rand_vec_param {
    batch_size: 2
    dim: 3
    height: 160
    width: 320
  }
}
layer {
  name: "masked"
  type: "Eltwise"
  bottom: "embed_bn5"
  bottom: "mask"
  top: "masked"
  eltwise_param {
    operation: PROD
  }
}
layer {
  name: "data"
  type: "Eltwise"
  bottom: "data1"
  bottom: "masked"
  top: "data"
  eltwise_param {
    operation: SUM
  }
}
layer {
  name: "conv1_1"
  type: "Convolution"
  bottom: "data"
  top: "conv1_1"
  param {
    lr_mult: 0
    decay_mult: 1
  }
  param {
    lr_mult: 0
    decay_mult: 0
  }
  convolution_param {
    num_output: 64
    pad: 100
    kernel_size: 3
    stride: 1
  }
}
layer {
  name: "relu1_1"
  type: "ReLU"
  bottom: "conv1_1"
  top: "conv1_1"
}
layer {
  name: "conv1_2"
  type: "Convolution"
  bottom: "conv1_1"
  top: "conv1_2"
  param {
    lr_mult: 0
    decay_mult: 1
  }
  param {
    lr_mult: 0
    decay_mult: 0
  }
  convolution_param {
    num_output: 64
    pad: 1
    kernel_size: 3
    stride: 1
  }
}
layer {
  name: "relu1_2"
  type: "ReLU"
  bottom: "conv1_2"
  top: "conv1_2"
}
layer {
  name: "pool1"
  type: "Pooling"
  bottom: "conv1_2"
  top: "pool1"
  pooling_param {
    pool: MAX
    kernel_size: 2
    stride: 2
  }
}
layer {
  name: "conv2_1"
  type: "Convolution"
  bottom: "pool1"
  top: "conv2_1"
  param {
    lr_mult: 0
    decay_mult: 1
  }
  param {
    lr_mult: 0
    decay_mult: 0
  }
  convolution_param {
    num_output: 128
    pad: 1
    kernel_size: 3
    stride: 1
  }
}
layer {
  name: "relu2_1"
  type: "ReLU"
  bottom: "conv2_1"
  top: "conv2_1"
}
layer {
  name: "conv2_2"
  type: "Convolution"
  bottom: "conv2_1"
  top: "conv2_2"
  param {
    lr_mult: 0
    decay_mult: 1
  }
  param {
    lr_mult: 0
    decay_mult: 0
  }
  convolution_param {
    num_output: 128
    pad: 1
    kernel_size: 3
    stride: 1
  }
}
layer {
  name: "relu2_2"
  type: "ReLU"
  bottom: "conv2_2"
  top: "conv2_2"
}
layer {
  name: "pool2"
  type: "Pooling"
  bottom: "conv2_2"
  top: "pool2"
  pooling_param {
    pool: MAX
    kernel_size: 2
    stride: 2
  }
}
layer {
  name: "conv3_1"
  type: "Convolution"
  bottom: "pool2"
  top: "conv3_1"
  param {
    lr_mult: 0
    decay_mult: 1
  }
  param {
    lr_mult: 0
    decay_mult: 0
  }
  convolution_param {
    num_output: 256
    pad: 1
    kernel_size: 3
    stride: 1
  }
}
layer {
  name: "relu3_1"
  type: "ReLU"
  bottom: "conv3_1"
  top: "conv3_1"
}
layer {
  name: "conv3_2"
  type: "Convolution"
  bottom: "conv3_1"
  top: "conv3_2"
  param {
    lr_mult: 0
    decay_mult: 1
  }
  param {
    lr_mult: 0
    decay_mult: 0
  }
  convolution_param {
    num_output: 256
    pad: 1
    kernel_size: 3
    stride: 1
  }
}
layer {
  name: "relu3_2"
  type: "ReLU"
  bottom: "conv3_2"
  top: "conv3_2"
}
layer {
  name: "conv3_3"
  type: "Convolution"
  bottom: "conv3_2"
  top: "conv3_3"
  param {
    lr_mult: 0
    decay_mult: 1
  }
  param {
    lr_mult: 0
    decay_mult: 0
  }
  convolution_param {
    num_output: 256
    pad: 1
    kernel_size: 3
    stride: 1
  }
}
layer {
  name: "relu3_3"
  type: "ReLU"
  bottom: "conv3_3"
  top: "conv3_3"
}
layer {
  name: "pool3"
  type: "Pooling"
  bottom: "conv3_3"
  top: "pool3"
  pooling_param {
    pool: MAX
    kernel_size: 2
    stride: 2
  }
}
layer {
  name: "conv4_1"
  type: "Convolution"
  bottom: "pool3"
  top: "conv4_1"
  param {
    lr_mult: 0
    decay_mult: 1
  }
  param {
    lr_mult: 0
    decay_mult: 0
  }
  convolution_param {
    num_output: 512
    pad: 1
    kernel_size: 3
    stride: 1
  }
}
layer {
  name: "relu4_1"
  type: "ReLU"
  bottom: "conv4_1"
  top: "conv4_1"
}
layer {
  name: "conv4_2"
  type: "Convolution"
  bottom: "conv4_1"
  top: "conv4_2"
  param {
    lr_mult: 0
    decay_mult: 1
  }
  param {
    lr_mult: 0
    decay_mult: 0
  }
  convolution_param {
    num_output: 512
    pad: 1
    kernel_size: 3
    stride: 1
  }
}
layer {
  name: "relu4_2"
  type: "ReLU"
  bottom: "conv4_2"
  top: "conv4_2"
}
layer {
  name: "conv4_3"
  type: "Convolution"
  bottom: "conv4_2"
  top: "conv4_3"
  param {
    lr_mult: 0
    decay_mult: 1
  }
  param {
    lr_mult: 0
    decay_mult: 0
  }
  convolution_param {
    num_output: 512
    pad: 1
    kernel_size: 3
    stride: 1
  }
}
layer {
  name: "relu4_3"
  type: "ReLU"
  bottom: "conv4_3"
  top: "conv4_3"
}
layer {
  name: "pool4"
  type: "Pooling"
  bottom: "conv4_3"
  top: "pool4"
  pooling_param {
    pool: MAX
    kernel_size: 2
    stride: 2
  }
}
layer {
  name: "conv5_1"
  type: "Convolution"
  bottom: "pool4"
  top: "conv5_1"
  param {
    lr_mult: 0
    decay_mult: 1
  }
  param {
    lr_mult: 0
    decay_mult: 0
  }
  convolution_param {
    num_output: 512
    pad: 1
    kernel_size: 3
    stride: 1
  }
}
layer {
  name: "relu5_1"
  type: "ReLU"
  bottom: "conv5_1"
  top: "conv5_1"
}
layer {
  name: "conv5_2"
  type: "Convolution"
  bottom: "conv5_1"
  top: "conv5_2"
  param {
    lr_mult: 0
    decay_mult: 1
  }
  param {
    lr_mult: 0
    decay_mult: 0
  }
  convolution_param {
    num_output: 512
    pad: 1
    kernel_size: 3
    stride: 1
  }
}
layer {
  name: "relu5_2"
  type: "ReLU"
  bottom: "conv5_2"
  top: "conv5_2"
}
layer {
  name: "conv5_3"
  type: "Convolution"
  bottom: "conv5_2"
  top: "conv5_3"
  param {
    lr_mult: 0
    decay_mult: 1
  }
  param {
    lr_mult: 0
    decay_mult: 0
  }
  convolution_param {
    num_output: 512
    pad: 1
    kernel_size: 3
    stride: 1
  }
}
layer {
  name: "relu5_3"
  type: "ReLU"
  bottom: "conv5_3"
  top: "conv5_3"
}
layer {
  name: "pool5"
  type: "Pooling"
  bottom: "conv5_3"
  top: "pool5"
  pooling_param {
    pool: MAX
    kernel_size: 2
    stride: 2
  }
}
layer {
  name: "fc6"
  type: "Convolution"
  bottom: "pool5"
  top: "fc6"
  param {
    lr_mult: 0
    decay_mult: 1
  }
  param {
    lr_mult: 0
    decay_mult: 0
  }
  convolution_param {
    num_output: 4096
    pad: 0
    kernel_size: 7
    stride: 1
  }
}
layer {
  name: "relu6"
  type: "ReLU"
  bottom: "fc6"
  top: "fc6"
}
layer {
  name: "fc7"
  type: "Convolution"
  bottom: "fc6"
  top: "fc7"
  param {
    lr_mult: 0
    decay_mult: 1
  }
  param {
    lr_mult: 0
    decay_mult: 0
  }
  convolution_param {
    num_output: 4096
    pad: 0
    kernel_size: 1
    stride: 1
  }
}
layer {
  name: "relu7"
  type: "ReLU"
  bottom: "fc7"
  top: "fc7"
}
layer {
  name: "score_fr"
  type: "Convolution"
  bottom: "fc7"
  top: "score_fr"
  param {
    lr_mult: 0
    decay_mult: 1
  }
  param {
    lr_mult: 0
    decay_mult: 0
  }
  convolution_param {
    num_output: 19
    pad: 0
    kernel_size: 1
  }
}
layer {
  name: "upscore2"
  type: "Deconvolution"
  bottom: "score_fr"
  top: "upscore2"
  param {
    lr_mult: 0
    decay_mult: 1
  }
  convolution_param {
    num_output: 19
    bias_term: false
    kernel_size: 4
    stride: 2
  }
}
layer {
  name: "score_pool4"
  type: "Convolution"
  bottom: "pool4"
  top: "score_pool4"
  param {
    lr_mult: 0
    decay_mult: 1
  }
  param {
    lr_mult: 0
    decay_mult: 0
  }
  convolution_param {
    num_output: 19
    pad: 0
    kernel_size: 1
  }
}
layer {
  name: "score_pool4c"
  type: "Crop"
  bottom: "score_pool4"
  bottom: "upscore2"
  top: "score_pool4c"
  crop_param {
    axis: 2
    offset: 5
  }
}
layer {
  name: "fuse_pool4"
  type: "Eltwise"
  bottom: "upscore2"
  bottom: "score_pool4c"
  top: "fuse_pool4"
  eltwise_param {
    operation: SUM
  }
}
layer {
  name: "upscore_pool4"
  type: "Deconvolution"
  bottom: "fuse_pool4"
  top: "upscore_pool4"
  param {
    lr_mult: 0
    decay_mult: 1
  }
  convolution_param {
    num_output: 19
    bias_term: false
    kernel_size: 4
    stride: 2
  }
}
layer {
  name: "score_pool3"
  type: "Convolution"
  bottom: "pool3"
  top: "score_pool3"
  param {
    lr_mult: 0
    decay_mult: 1
  }
  param {
    lr_mult: 0
    decay_mult: 0
  }
  convolution_param {
    num_output: 19
    pad: 0
    kernel_size: 1
  }
}
layer {
  name: "score_pool3c"
  type: "Crop"
  bottom: "score_pool3"
  bottom: "upscore_pool4"
  top: "score_pool3c"
  crop_param {
    axis: 2
    offset: 9
  }
}
layer {
  name: "fuse_pool3"
  type: "Eltwise"
  bottom: "upscore_pool4"
  bottom: "score_pool3c"
  top: "fuse_pool3"
  eltwise_param {
    operation: SUM
  }
}
layer {
  name: "upscore8"
  type: "Deconvolution"
  bottom: "fuse_pool3"
  top: "upscore8"
  param {
    lr_mult: 0
    decay_mult: 1
  }
  convolution_param {
    num_output: 19
    bias_term: false
    kernel_size: 16
    stride: 8
  }
}
layer {
  name: "score"
  type: "Crop"
  bottom: "upscore8"
  bottom: "data"
  top: "score"
  crop_param {
    axis: 2
    offset: 31
  }
}
layer {
  name: "loss"
  type: "AdvSoftmaxWithLoss"
  bottom: "score"
  bottom: "fakelabel"
  top: "loss"
  loss_param {
    ignore_label: 255
    normalize: false
  }
  adv_softmax_with_loss_param {
    offset: 16
  }
}
I1115 05:31:00.845459 55075 layer_factory.hpp:77] Creating layer data1
I1115 05:31:00.846666 55075 net.cpp:86] Creating Layer data1
I1115 05:31:00.846683 55075 net.cpp:382] data1 -> data1
I1115 05:31:00.846701 55075 net.cpp:382] data1 -> label
I1115 05:31:00.846710 55075 net.cpp:382] data1 -> fakelabel
I1115 05:31:01.021569 55075 net.cpp:124] Setting up data1
I1115 05:31:01.021606 55075 net.cpp:131] Top shape: 2 3 160 320 (307200)
I1115 05:31:01.021615 55075 net.cpp:131] Top shape: 2 1 160 320 (102400)
I1115 05:31:01.021621 55075 net.cpp:131] Top shape: 2 160 320 (102400)
I1115 05:31:01.021627 55075 net.cpp:139] Memory required for data: 2048000
I1115 05:31:01.021636 55075 layer_factory.hpp:77] Creating layer data1_data1_0_split
I1115 05:31:01.021653 55075 net.cpp:86] Creating Layer data1_data1_0_split
I1115 05:31:01.021662 55075 net.cpp:408] data1_data1_0_split <- data1
I1115 05:31:01.021673 55075 net.cpp:382] data1_data1_0_split -> data1_data1_0_split_0
I1115 05:31:01.021692 55075 net.cpp:382] data1_data1_0_split -> data1_data1_0_split_1
I1115 05:31:01.021739 55075 net.cpp:124] Setting up data1_data1_0_split
I1115 05:31:01.021749 55075 net.cpp:131] Top shape: 2 3 160 320 (307200)
I1115 05:31:01.021756 55075 net.cpp:131] Top shape: 2 3 160 320 (307200)
I1115 05:31:01.021761 55075 net.cpp:139] Memory required for data: 4505600
I1115 05:31:01.021767 55075 layer_factory.hpp:77] Creating layer conv1
I1115 05:31:01.021785 55075 net.cpp:86] Creating Layer conv1
I1115 05:31:01.021791 55075 net.cpp:408] conv1 <- data1_data1_0_split_0
I1115 05:31:01.021800 55075 net.cpp:382] conv1 -> conv1
I1115 05:31:01.022161 55075 net.cpp:124] Setting up conv1
I1115 05:31:01.022173 55075 net.cpp:131] Top shape: 2 64 79 159 (1607808)
I1115 05:31:01.022179 55075 net.cpp:139] Memory required for data: 10936832
I1115 05:31:01.022198 55075 layer_factory.hpp:77] Creating layer bn1
I1115 05:31:01.022210 55075 net.cpp:86] Creating Layer bn1
I1115 05:31:01.022217 55075 net.cpp:408] bn1 <- conv1
I1115 05:31:01.022224 55075 net.cpp:382] bn1 -> bn1
I1115 05:31:01.022459 55075 net.cpp:124] Setting up bn1
I1115 05:31:01.022469 55075 net.cpp:131] Top shape: 2 64 79 159 (1607808)
I1115 05:31:01.022475 55075 net.cpp:139] Memory required for data: 17368064
I1115 05:31:01.022487 55075 layer_factory.hpp:77] Creating layer scale1
I1115 05:31:01.022500 55075 net.cpp:86] Creating Layer scale1
I1115 05:31:01.022507 55075 net.cpp:408] scale1 <- bn1
I1115 05:31:01.022514 55075 net.cpp:369] scale1 -> bn1 (in-place)
I1115 05:31:01.022565 55075 layer_factory.hpp:77] Creating layer scale1
I1115 05:31:01.022722 55075 net.cpp:124] Setting up scale1
I1115 05:31:01.022732 55075 net.cpp:131] Top shape: 2 64 79 159 (1607808)
I1115 05:31:01.022738 55075 net.cpp:139] Memory required for data: 23799296
I1115 05:31:01.022747 55075 layer_factory.hpp:77] Creating layer relu1
I1115 05:31:01.022758 55075 net.cpp:86] Creating Layer relu1
I1115 05:31:01.022763 55075 net.cpp:408] relu1 <- bn1
I1115 05:31:01.022770 55075 net.cpp:369] relu1 -> bn1 (in-place)
I1115 05:31:01.022780 55075 net.cpp:124] Setting up relu1
I1115 05:31:01.022788 55075 net.cpp:131] Top shape: 2 64 79 159 (1607808)
I1115 05:31:01.022794 55075 net.cpp:139] Memory required for data: 30230528
I1115 05:31:01.022799 55075 layer_factory.hpp:77] Creating layer bn1_relu1_0_split
I1115 05:31:01.022806 55075 net.cpp:86] Creating Layer bn1_relu1_0_split
I1115 05:31:01.022812 55075 net.cpp:408] bn1_relu1_0_split <- bn1
I1115 05:31:01.022819 55075 net.cpp:382] bn1_relu1_0_split -> bn1_relu1_0_split_0
I1115 05:31:01.022827 55075 net.cpp:382] bn1_relu1_0_split -> bn1_relu1_0_split_1
I1115 05:31:01.022868 55075 net.cpp:124] Setting up bn1_relu1_0_split
I1115 05:31:01.022876 55075 net.cpp:131] Top shape: 2 64 79 159 (1607808)
I1115 05:31:01.022883 55075 net.cpp:131] Top shape: 2 64 79 159 (1607808)
I1115 05:31:01.022889 55075 net.cpp:139] Memory required for data: 43092992
I1115 05:31:01.022895 55075 layer_factory.hpp:77] Creating layer conv2
I1115 05:31:01.022904 55075 net.cpp:86] Creating Layer conv2
I1115 05:31:01.022912 55075 net.cpp:408] conv2 <- bn1_relu1_0_split_0
I1115 05:31:01.022918 55075 net.cpp:382] conv2 -> conv2
I1115 05:31:01.024076 55075 net.cpp:124] Setting up conv2
I1115 05:31:01.024087 55075 net.cpp:131] Top shape: 2 128 38 78 (758784)
I1115 05:31:01.024093 55075 net.cpp:139] Memory required for data: 46128128
I1115 05:31:01.024103 55075 layer_factory.hpp:77] Creating layer bn2
I1115 05:31:01.024112 55075 net.cpp:86] Creating Layer bn2
I1115 05:31:01.024118 55075 net.cpp:408] bn2 <- conv2
I1115 05:31:01.024125 55075 net.cpp:382] bn2 -> bn2
I1115 05:31:01.024335 55075 net.cpp:124] Setting up bn2
I1115 05:31:01.024345 55075 net.cpp:131] Top shape: 2 128 38 78 (758784)
I1115 05:31:01.024351 55075 net.cpp:139] Memory required for data: 49163264
I1115 05:31:01.024360 55075 layer_factory.hpp:77] Creating layer scale2
I1115 05:31:01.024369 55075 net.cpp:86] Creating Layer scale2
I1115 05:31:01.024375 55075 net.cpp:408] scale2 <- bn2
I1115 05:31:01.024382 55075 net.cpp:369] scale2 -> bn2 (in-place)
I1115 05:31:01.024427 55075 layer_factory.hpp:77] Creating layer scale2
I1115 05:31:01.024538 55075 net.cpp:124] Setting up scale2
I1115 05:31:01.024547 55075 net.cpp:131] Top shape: 2 128 38 78 (758784)
I1115 05:31:01.024554 55075 net.cpp:139] Memory required for data: 52198400
I1115 05:31:01.024561 55075 layer_factory.hpp:77] Creating layer relu2
I1115 05:31:01.024569 55075 net.cpp:86] Creating Layer relu2
I1115 05:31:01.024575 55075 net.cpp:408] relu2 <- bn2
I1115 05:31:01.024582 55075 net.cpp:369] relu2 -> bn2 (in-place)
I1115 05:31:01.024590 55075 net.cpp:124] Setting up relu2
I1115 05:31:01.024597 55075 net.cpp:131] Top shape: 2 128 38 78 (758784)
I1115 05:31:01.024602 55075 net.cpp:139] Memory required for data: 55233536
I1115 05:31:01.024608 55075 layer_factory.hpp:77] Creating layer bn2_relu2_0_split
I1115 05:31:01.024616 55075 net.cpp:86] Creating Layer bn2_relu2_0_split
I1115 05:31:01.024621 55075 net.cpp:408] bn2_relu2_0_split <- bn2
I1115 05:31:01.024627 55075 net.cpp:382] bn2_relu2_0_split -> bn2_relu2_0_split_0
I1115 05:31:01.024636 55075 net.cpp:382] bn2_relu2_0_split -> bn2_relu2_0_split_1
I1115 05:31:01.024674 55075 net.cpp:124] Setting up bn2_relu2_0_split
I1115 05:31:01.024682 55075 net.cpp:131] Top shape: 2 128 38 78 (758784)
I1115 05:31:01.024689 55075 net.cpp:131] Top shape: 2 128 38 78 (758784)
I1115 05:31:01.024694 55075 net.cpp:139] Memory required for data: 61303808
I1115 05:31:01.024700 55075 layer_factory.hpp:77] Creating layer conv3
I1115 05:31:01.024710 55075 net.cpp:86] Creating Layer conv3
I1115 05:31:01.024716 55075 net.cpp:408] conv3 <- bn2_relu2_0_split_0
I1115 05:31:01.024724 55075 net.cpp:382] conv3 -> conv3
I1115 05:31:01.030788 55075 net.cpp:124] Setting up conv3
I1115 05:31:01.030805 55075 net.cpp:131] Top shape: 2 256 17 37 (322048)
I1115 05:31:01.030812 55075 net.cpp:139] Memory required for data: 62592000
I1115 05:31:01.030820 55075 layer_factory.hpp:77] Creating layer bn3
I1115 05:31:01.030829 55075 net.cpp:86] Creating Layer bn3
I1115 05:31:01.030836 55075 net.cpp:408] bn3 <- conv3
I1115 05:31:01.030844 55075 net.cpp:382] bn3 -> bn3
I1115 05:31:01.031064 55075 net.cpp:124] Setting up bn3
I1115 05:31:01.031074 55075 net.cpp:131] Top shape: 2 256 17 37 (322048)
I1115 05:31:01.031080 55075 net.cpp:139] Memory required for data: 63880192
I1115 05:31:01.031091 55075 layer_factory.hpp:77] Creating layer scale3
I1115 05:31:01.031100 55075 net.cpp:86] Creating Layer scale3
I1115 05:31:01.031105 55075 net.cpp:408] scale3 <- bn3
I1115 05:31:01.031113 55075 net.cpp:369] scale3 -> bn3 (in-place)
I1115 05:31:01.031157 55075 layer_factory.hpp:77] Creating layer scale3
I1115 05:31:01.031270 55075 net.cpp:124] Setting up scale3
I1115 05:31:01.031278 55075 net.cpp:131] Top shape: 2 256 17 37 (322048)
I1115 05:31:01.031285 55075 net.cpp:139] Memory required for data: 65168384
I1115 05:31:01.031292 55075 layer_factory.hpp:77] Creating layer relu3
I1115 05:31:01.031301 55075 net.cpp:86] Creating Layer relu3
I1115 05:31:01.031306 55075 net.cpp:408] relu3 <- bn3
I1115 05:31:01.031313 55075 net.cpp:369] relu3 -> bn3 (in-place)
I1115 05:31:01.031322 55075 net.cpp:124] Setting up relu3
I1115 05:31:01.031332 55075 net.cpp:131] Top shape: 2 256 17 37 (322048)
I1115 05:31:01.031355 55075 net.cpp:139] Memory required for data: 66456576
I1115 05:31:01.031361 55075 layer_factory.hpp:77] Creating layer bn3_relu3_0_split
I1115 05:31:01.031369 55075 net.cpp:86] Creating Layer bn3_relu3_0_split
I1115 05:31:01.031375 55075 net.cpp:408] bn3_relu3_0_split <- bn3
I1115 05:31:01.031383 55075 net.cpp:382] bn3_relu3_0_split -> bn3_relu3_0_split_0
I1115 05:31:01.031390 55075 net.cpp:382] bn3_relu3_0_split -> bn3_relu3_0_split_1
I1115 05:31:01.031435 55075 net.cpp:124] Setting up bn3_relu3_0_split
I1115 05:31:01.031443 55075 net.cpp:131] Top shape: 2 256 17 37 (322048)
I1115 05:31:01.031451 55075 net.cpp:131] Top shape: 2 256 17 37 (322048)
I1115 05:31:01.031456 55075 net.cpp:139] Memory required for data: 69032960
I1115 05:31:01.031462 55075 layer_factory.hpp:77] Creating layer conv4
I1115 05:31:01.031476 55075 net.cpp:86] Creating Layer conv4
I1115 05:31:01.031483 55075 net.cpp:408] conv4 <- bn3_relu3_0_split_0
I1115 05:31:01.031491 55075 net.cpp:382] conv4 -> conv4
I1115 05:31:01.040033 55075 net.cpp:124] Setting up conv4
I1115 05:31:01.040050 55075 net.cpp:131] Top shape: 2 512 15 35 (537600)
I1115 05:31:01.040056 55075 net.cpp:139] Memory required for data: 71183360
I1115 05:31:01.040066 55075 layer_factory.hpp:77] Creating layer bn4
I1115 05:31:01.040076 55075 net.cpp:86] Creating Layer bn4
I1115 05:31:01.040082 55075 net.cpp:408] bn4 <- conv4
I1115 05:31:01.040091 55075 net.cpp:382] bn4 -> bn4
I1115 05:31:01.040318 55075 net.cpp:124] Setting up bn4
I1115 05:31:01.040333 55075 net.cpp:131] Top shape: 2 512 15 35 (537600)
I1115 05:31:01.040339 55075 net.cpp:139] Memory required for data: 73333760
I1115 05:31:01.040349 55075 layer_factory.hpp:77] Creating layer scale4
I1115 05:31:01.040374 55075 net.cpp:86] Creating Layer scale4
I1115 05:31:01.040380 55075 net.cpp:408] scale4 <- bn4
I1115 05:31:01.040388 55075 net.cpp:369] scale4 -> bn4 (in-place)
I1115 05:31:01.040436 55075 layer_factory.hpp:77] Creating layer scale4
I1115 05:31:01.040554 55075 net.cpp:124] Setting up scale4
I1115 05:31:01.040562 55075 net.cpp:131] Top shape: 2 512 15 35 (537600)
I1115 05:31:01.040568 55075 net.cpp:139] Memory required for data: 75484160
I1115 05:31:01.040577 55075 layer_factory.hpp:77] Creating layer relu4
I1115 05:31:01.040585 55075 net.cpp:86] Creating Layer relu4
I1115 05:31:01.040591 55075 net.cpp:408] relu4 <- bn4
I1115 05:31:01.040599 55075 net.cpp:369] relu4 -> bn4 (in-place)
I1115 05:31:01.040607 55075 net.cpp:124] Setting up relu4
I1115 05:31:01.040614 55075 net.cpp:131] Top shape: 2 512 15 35 (537600)
I1115 05:31:01.040621 55075 net.cpp:139] Memory required for data: 77634560
I1115 05:31:01.040627 55075 layer_factory.hpp:77] Creating layer embed_conv2
I1115 05:31:01.040640 55075 net.cpp:86] Creating Layer embed_conv2
I1115 05:31:01.040647 55075 net.cpp:408] embed_conv2 <- bn4
I1115 05:31:01.040655 55075 net.cpp:382] embed_conv2 -> embed_conv2
I1115 05:31:01.049685 55075 net.cpp:124] Setting up embed_conv2
I1115 05:31:01.049700 55075 net.cpp:131] Top shape: 2 256 17 37 (322048)
I1115 05:31:01.049707 55075 net.cpp:139] Memory required for data: 78922752
I1115 05:31:01.049716 55075 layer_factory.hpp:77] Creating layer embed_bn2
I1115 05:31:01.049726 55075 net.cpp:86] Creating Layer embed_bn2
I1115 05:31:01.049732 55075 net.cpp:408] embed_bn2 <- embed_conv2
I1115 05:31:01.049741 55075 net.cpp:382] embed_bn2 -> embed_bn2
I1115 05:31:01.049963 55075 net.cpp:124] Setting up embed_bn2
I1115 05:31:01.049973 55075 net.cpp:131] Top shape: 2 256 17 37 (322048)
I1115 05:31:01.049979 55075 net.cpp:139] Memory required for data: 80210944
I1115 05:31:01.049990 55075 layer_factory.hpp:77] Creating layer embed_scale2
I1115 05:31:01.049999 55075 net.cpp:86] Creating Layer embed_scale2
I1115 05:31:01.050005 55075 net.cpp:408] embed_scale2 <- embed_bn2
I1115 05:31:01.050014 55075 net.cpp:369] embed_scale2 -> embed_bn2 (in-place)
I1115 05:31:01.050057 55075 layer_factory.hpp:77] Creating layer embed_scale2
I1115 05:31:01.050173 55075 net.cpp:124] Setting up embed_scale2
I1115 05:31:01.050181 55075 net.cpp:131] Top shape: 2 256 17 37 (322048)
I1115 05:31:01.050187 55075 net.cpp:139] Memory required for data: 81499136
I1115 05:31:01.050195 55075 layer_factory.hpp:77] Creating layer embed_relu2
I1115 05:31:01.050202 55075 net.cpp:86] Creating Layer embed_relu2
I1115 05:31:01.050209 55075 net.cpp:408] embed_relu2 <- embed_bn2
I1115 05:31:01.050215 55075 net.cpp:369] embed_relu2 -> embed_bn2 (in-place)
I1115 05:31:01.050222 55075 net.cpp:124] Setting up embed_relu2
I1115 05:31:01.050230 55075 net.cpp:131] Top shape: 2 256 17 37 (322048)
I1115 05:31:01.050235 55075 net.cpp:139] Memory required for data: 82787328
I1115 05:31:01.050240 55075 layer_factory.hpp:77] Creating layer concat1
I1115 05:31:01.050251 55075 net.cpp:86] Creating Layer concat1
I1115 05:31:01.050256 55075 net.cpp:408] concat1 <- bn3_relu3_0_split_1
I1115 05:31:01.050266 55075 net.cpp:408] concat1 <- embed_bn2
I1115 05:31:01.050273 55075 net.cpp:382] concat1 -> concat1
I1115 05:31:01.050307 55075 net.cpp:124] Setting up concat1
I1115 05:31:01.050314 55075 net.cpp:131] Top shape: 2 512 17 37 (644096)
I1115 05:31:01.050319 55075 net.cpp:139] Memory required for data: 85363712
I1115 05:31:01.050331 55075 layer_factory.hpp:77] Creating layer embed_conv3
I1115 05:31:01.050343 55075 net.cpp:86] Creating Layer embed_conv3
I1115 05:31:01.050348 55075 net.cpp:408] embed_conv3 <- concat1
I1115 05:31:01.050356 55075 net.cpp:382] embed_conv3 -> embed_conv3
I1115 05:31:01.066566 55075 net.cpp:124] Setting up embed_conv3
I1115 05:31:01.066583 55075 net.cpp:131] Top shape: 2 128 38 78 (758784)
I1115 05:31:01.066589 55075 net.cpp:139] Memory required for data: 88398848
I1115 05:31:01.066598 55075 layer_factory.hpp:77] Creating layer embed_bn3
I1115 05:31:01.066607 55075 net.cpp:86] Creating Layer embed_bn3
I1115 05:31:01.066614 55075 net.cpp:408] embed_bn3 <- embed_conv3
I1115 05:31:01.066622 55075 net.cpp:382] embed_bn3 -> embed_bn3
I1115 05:31:01.066845 55075 net.cpp:124] Setting up embed_bn3
I1115 05:31:01.066855 55075 net.cpp:131] Top shape: 2 128 38 78 (758784)
I1115 05:31:01.066860 55075 net.cpp:139] Memory required for data: 91433984
I1115 05:31:01.066870 55075 layer_factory.hpp:77] Creating layer embed_scale3
I1115 05:31:01.066879 55075 net.cpp:86] Creating Layer embed_scale3
I1115 05:31:01.066885 55075 net.cpp:408] embed_scale3 <- embed_bn3
I1115 05:31:01.066893 55075 net.cpp:369] embed_scale3 -> embed_bn3 (in-place)
I1115 05:31:01.066937 55075 layer_factory.hpp:77] Creating layer embed_scale3
I1115 05:31:01.067059 55075 net.cpp:124] Setting up embed_scale3
I1115 05:31:01.067068 55075 net.cpp:131] Top shape: 2 128 38 78 (758784)
I1115 05:31:01.067075 55075 net.cpp:139] Memory required for data: 94469120
I1115 05:31:01.067082 55075 layer_factory.hpp:77] Creating layer embed_relu3
I1115 05:31:01.067091 55075 net.cpp:86] Creating Layer embed_relu3
I1115 05:31:01.067097 55075 net.cpp:408] embed_relu3 <- embed_bn3
I1115 05:31:01.067104 55075 net.cpp:369] embed_relu3 -> embed_bn3 (in-place)
I1115 05:31:01.067112 55075 net.cpp:124] Setting up embed_relu3
I1115 05:31:01.067119 55075 net.cpp:131] Top shape: 2 128 38 78 (758784)
I1115 05:31:01.067126 55075 net.cpp:139] Memory required for data: 97504256
I1115 05:31:01.067131 55075 layer_factory.hpp:77] Creating layer concat2
I1115 05:31:01.067138 55075 net.cpp:86] Creating Layer concat2
I1115 05:31:01.067144 55075 net.cpp:408] concat2 <- bn2_relu2_0_split_1
I1115 05:31:01.067152 55075 net.cpp:408] concat2 <- embed_bn3
I1115 05:31:01.067159 55075 net.cpp:382] concat2 -> concat2
I1115 05:31:01.067188 55075 net.cpp:124] Setting up concat2
I1115 05:31:01.067196 55075 net.cpp:131] Top shape: 2 256 38 78 (1517568)
I1115 05:31:01.067203 55075 net.cpp:139] Memory required for data: 103574528
I1115 05:31:01.067207 55075 layer_factory.hpp:77] Creating layer embed_conv4
I1115 05:31:01.067219 55075 net.cpp:86] Creating Layer embed_conv4
I1115 05:31:01.067224 55075 net.cpp:408] embed_conv4 <- concat2
I1115 05:31:01.067232 55075 net.cpp:382] embed_conv4 -> embed_conv4
I1115 05:31:01.070886 55075 net.cpp:124] Setting up embed_conv4
I1115 05:31:01.070902 55075 net.cpp:131] Top shape: 2 64 79 159 (1607808)
I1115 05:31:01.070909 55075 net.cpp:139] Memory required for data: 110005760
I1115 05:31:01.070916 55075 layer_factory.hpp:77] Creating layer embed_bn4
I1115 05:31:01.070927 55075 net.cpp:86] Creating Layer embed_bn4
I1115 05:31:01.070935 55075 net.cpp:408] embed_bn4 <- embed_conv4
I1115 05:31:01.070942 55075 net.cpp:382] embed_bn4 -> embed_bn4
I1115 05:31:01.071183 55075 net.cpp:124] Setting up embed_bn4
I1115 05:31:01.071193 55075 net.cpp:131] Top shape: 2 64 79 159 (1607808)
I1115 05:31:01.071198 55075 net.cpp:139] Memory required for data: 116436992
I1115 05:31:01.071208 55075 layer_factory.hpp:77] Creating layer embed_scale4
I1115 05:31:01.071216 55075 net.cpp:86] Creating Layer embed_scale4
I1115 05:31:01.071223 55075 net.cpp:408] embed_scale4 <- embed_bn4
I1115 05:31:01.071234 55075 net.cpp:369] embed_scale4 -> embed_bn4 (in-place)
I1115 05:31:01.071281 55075 layer_factory.hpp:77] Creating layer embed_scale4
I1115 05:31:01.071445 55075 net.cpp:124] Setting up embed_scale4
I1115 05:31:01.071455 55075 net.cpp:131] Top shape: 2 64 79 159 (1607808)
I1115 05:31:01.071460 55075 net.cpp:139] Memory required for data: 122868224
I1115 05:31:01.071468 55075 layer_factory.hpp:77] Creating layer embed_relu4
I1115 05:31:01.071476 55075 net.cpp:86] Creating Layer embed_relu4
I1115 05:31:01.071483 55075 net.cpp:408] embed_relu4 <- embed_bn4
I1115 05:31:01.071491 55075 net.cpp:369] embed_relu4 -> embed_bn4 (in-place)
I1115 05:31:01.071498 55075 net.cpp:124] Setting up embed_relu4
I1115 05:31:01.071506 55075 net.cpp:131] Top shape: 2 64 79 159 (1607808)
I1115 05:31:01.071511 55075 net.cpp:139] Memory required for data: 129299456
I1115 05:31:01.071517 55075 layer_factory.hpp:77] Creating layer concat3
I1115 05:31:01.071524 55075 net.cpp:86] Creating Layer concat3
I1115 05:31:01.071530 55075 net.cpp:408] concat3 <- bn1_relu1_0_split_1
I1115 05:31:01.071537 55075 net.cpp:408] concat3 <- embed_bn4
I1115 05:31:01.071544 55075 net.cpp:382] concat3 -> concat3
I1115 05:31:01.071573 55075 net.cpp:124] Setting up concat3
I1115 05:31:01.071580 55075 net.cpp:131] Top shape: 2 128 79 159 (3215616)
I1115 05:31:01.071586 55075 net.cpp:139] Memory required for data: 142161920
I1115 05:31:01.071593 55075 layer_factory.hpp:77] Creating layer concat3_concat3_0_split
I1115 05:31:01.071600 55075 net.cpp:86] Creating Layer concat3_concat3_0_split
I1115 05:31:01.071606 55075 net.cpp:408] concat3_concat3_0_split <- concat3
I1115 05:31:01.071614 55075 net.cpp:382] concat3_concat3_0_split -> concat3_concat3_0_split_0
I1115 05:31:01.071622 55075 net.cpp:382] concat3_concat3_0_split -> concat3_concat3_0_split_1
I1115 05:31:01.071676 55075 net.cpp:124] Setting up concat3_concat3_0_split
I1115 05:31:01.071684 55075 net.cpp:131] Top shape: 2 128 79 159 (3215616)
I1115 05:31:01.071691 55075 net.cpp:131] Top shape: 2 128 79 159 (3215616)
I1115 05:31:01.071696 55075 net.cpp:139] Memory required for data: 167886848
I1115 05:31:01.071702 55075 layer_factory.hpp:77] Creating layer seg
I1115 05:31:01.071712 55075 net.cpp:86] Creating Layer seg
I1115 05:31:01.071718 55075 net.cpp:408] seg <- concat3_concat3_0_split_0
I1115 05:31:01.071727 55075 net.cpp:382] seg -> seg
I1115 05:31:01.072211 55075 net.cpp:124] Setting up seg
I1115 05:31:01.072221 55075 net.cpp:131] Top shape: 2 19 160 320 (1945600)
I1115 05:31:01.072227 55075 net.cpp:139] Memory required for data: 175669248
I1115 05:31:01.072234 55075 layer_factory.hpp:77] Creating layer seg_bn
I1115 05:31:01.072242 55075 net.cpp:86] Creating Layer seg_bn
I1115 05:31:01.072248 55075 net.cpp:408] seg_bn <- seg
I1115 05:31:01.072255 55075 net.cpp:382] seg_bn -> seg_bn
I1115 05:31:01.072556 55075 net.cpp:124] Setting up seg_bn
I1115 05:31:01.072566 55075 net.cpp:131] Top shape: 2 19 160 320 (1945600)
I1115 05:31:01.072572 55075 net.cpp:139] Memory required for data: 183451648
I1115 05:31:01.072582 55075 layer_factory.hpp:77] Creating layer seg_scale
I1115 05:31:01.072590 55075 net.cpp:86] Creating Layer seg_scale
I1115 05:31:01.072597 55075 net.cpp:408] seg_scale <- seg_bn
I1115 05:31:01.072604 55075 net.cpp:369] seg_scale -> seg_bn (in-place)
I1115 05:31:01.072650 55075 layer_factory.hpp:77] Creating layer seg_scale
I1115 05:31:01.074283 55075 net.cpp:124] Setting up seg_scale
I1115 05:31:01.074298 55075 net.cpp:131] Top shape: 2 19 160 320 (1945600)
I1115 05:31:01.074304 55075 net.cpp:139] Memory required for data: 191234048
I1115 05:31:01.074314 55075 layer_factory.hpp:77] Creating layer reg_loss
I1115 05:31:01.074332 55075 net.cpp:86] Creating Layer reg_loss
I1115 05:31:01.074339 55075 net.cpp:408] reg_loss <- seg_bn
I1115 05:31:01.074347 55075 net.cpp:408] reg_loss <- label
I1115 05:31:01.074355 55075 net.cpp:382] reg_loss -> reg_loss
I1115 05:31:01.074370 55075 layer_factory.hpp:77] Creating layer reg_loss
I1115 05:31:01.074465 55075 net.cpp:124] Setting up reg_loss
I1115 05:31:01.074477 55075 net.cpp:131] Top shape: (1)
I1115 05:31:01.074482 55075 net.cpp:139] Memory required for data: 191234052
I1115 05:31:01.074488 55075 layer_factory.hpp:77] Creating layer embed_conv5
I1115 05:31:01.074499 55075 net.cpp:86] Creating Layer embed_conv5
I1115 05:31:01.074506 55075 net.cpp:408] embed_conv5 <- concat3_concat3_0_split_1
I1115 05:31:01.074513 55075 net.cpp:382] embed_conv5 -> embed_conv5
I1115 05:31:01.074841 55075 net.cpp:124] Setting up embed_conv5
I1115 05:31:01.074852 55075 net.cpp:131] Top shape: 2 3 160 320 (307200)
I1115 05:31:01.074857 55075 net.cpp:139] Memory required for data: 192462852
I1115 05:31:01.074865 55075 layer_factory.hpp:77] Creating layer embed_bn5
I1115 05:31:01.074874 55075 net.cpp:86] Creating Layer embed_bn5
I1115 05:31:01.074880 55075 net.cpp:408] embed_bn5 <- embed_conv5
I1115 05:31:01.074888 55075 net.cpp:382] embed_bn5 -> embed_bn5
I1115 05:31:01.075155 55075 net.cpp:124] Setting up embed_bn5
I1115 05:31:01.075163 55075 net.cpp:131] Top shape: 2 3 160 320 (307200)
I1115 05:31:01.075170 55075 net.cpp:139] Memory required for data: 193691652
I1115 05:31:01.075179 55075 layer_factory.hpp:77] Creating layer embed_scale5
I1115 05:31:01.075188 55075 net.cpp:86] Creating Layer embed_scale5
I1115 05:31:01.075194 55075 net.cpp:408] embed_scale5 <- embed_bn5
I1115 05:31:01.075201 55075 net.cpp:369] embed_scale5 -> embed_bn5 (in-place)
I1115 05:31:01.075246 55075 layer_factory.hpp:77] Creating layer embed_scale5
I1115 05:31:01.075449 55075 net.cpp:124] Setting up embed_scale5
I1115 05:31:01.075459 55075 net.cpp:131] Top shape: 2 3 160 320 (307200)
I1115 05:31:01.075465 55075 net.cpp:139] Memory required for data: 194920452
I1115 05:31:01.075474 55075 layer_factory.hpp:77] Creating layer mask
I1115 05:31:01.075485 55075 net.cpp:86] Creating Layer mask
I1115 05:31:01.075492 55075 net.cpp:382] mask -> mask
I1115 05:31:01.075523 55075 net.cpp:124] Setting up mask
I1115 05:31:01.075532 55075 net.cpp:131] Top shape: 2 3 160 320 (307200)
I1115 05:31:01.075537 55075 net.cpp:139] Memory required for data: 196149252
I1115 05:31:01.075543 55075 layer_factory.hpp:77] Creating layer masked
I1115 05:31:01.075553 55075 net.cpp:86] Creating Layer masked
I1115 05:31:01.075561 55075 net.cpp:408] masked <- embed_bn5
I1115 05:31:01.075567 55075 net.cpp:408] masked <- mask
I1115 05:31:01.075574 55075 net.cpp:382] masked -> masked
I1115 05:31:01.075605 55075 net.cpp:124] Setting up masked
I1115 05:31:01.075613 55075 net.cpp:131] Top shape: 2 3 160 320 (307200)
I1115 05:31:01.075619 55075 net.cpp:139] Memory required for data: 197378052
I1115 05:31:01.075640 55075 layer_factory.hpp:77] Creating layer data
I1115 05:31:01.075649 55075 net.cpp:86] Creating Layer data
I1115 05:31:01.075655 55075 net.cpp:408] data <- data1_data1_0_split_1
I1115 05:31:01.075661 55075 net.cpp:408] data <- masked
I1115 05:31:01.075670 55075 net.cpp:382] data -> data
I1115 05:31:01.075695 55075 net.cpp:124] Setting up data
I1115 05:31:01.075702 55075 net.cpp:131] Top shape: 2 3 160 320 (307200)
I1115 05:31:01.075708 55075 net.cpp:139] Memory required for data: 198606852
I1115 05:31:01.075713 55075 layer_factory.hpp:77] Creating layer data_data_0_split
I1115 05:31:01.075721 55075 net.cpp:86] Creating Layer data_data_0_split
I1115 05:31:01.075727 55075 net.cpp:408] data_data_0_split <- data
I1115 05:31:01.075734 55075 net.cpp:382] data_data_0_split -> data_data_0_split_0
I1115 05:31:01.075742 55075 net.cpp:382] data_data_0_split -> data_data_0_split_1
I1115 05:31:01.075780 55075 net.cpp:124] Setting up data_data_0_split
I1115 05:31:01.075788 55075 net.cpp:131] Top shape: 2 3 160 320 (307200)
I1115 05:31:01.075795 55075 net.cpp:131] Top shape: 2 3 160 320 (307200)
I1115 05:31:01.075800 55075 net.cpp:139] Memory required for data: 201064452
I1115 05:31:01.075806 55075 layer_factory.hpp:77] Creating layer conv1_1
I1115 05:31:01.075815 55075 net.cpp:86] Creating Layer conv1_1
I1115 05:31:01.075821 55075 net.cpp:408] conv1_1 <- data_data_0_split_0
I1115 05:31:01.075829 55075 net.cpp:382] conv1_1 -> conv1_1
I1115 05:31:01.076205 55075 net.cpp:124] Setting up conv1_1
I1115 05:31:01.076215 55075 net.cpp:131] Top shape: 2 64 358 518 (23736832)
I1115 05:31:01.076220 55075 net.cpp:139] Memory required for data: 296011780
I1115 05:31:01.076233 55075 layer_factory.hpp:77] Creating layer relu1_1
I1115 05:31:01.076242 55075 net.cpp:86] Creating Layer relu1_1
I1115 05:31:01.076248 55075 net.cpp:408] relu1_1 <- conv1_1
I1115 05:31:01.076256 55075 net.cpp:369] relu1_1 -> conv1_1 (in-place)
I1115 05:31:01.076263 55075 net.cpp:124] Setting up relu1_1
I1115 05:31:01.076272 55075 net.cpp:131] Top shape: 2 64 358 518 (23736832)
I1115 05:31:01.076277 55075 net.cpp:139] Memory required for data: 390959108
I1115 05:31:01.076282 55075 layer_factory.hpp:77] Creating layer conv1_2
I1115 05:31:01.076292 55075 net.cpp:86] Creating Layer conv1_2
I1115 05:31:01.076298 55075 net.cpp:408] conv1_2 <- conv1_1
I1115 05:31:01.076306 55075 net.cpp:382] conv1_2 -> conv1_2
I1115 05:31:01.078183 55075 net.cpp:124] Setting up conv1_2
I1115 05:31:01.078198 55075 net.cpp:131] Top shape: 2 64 358 518 (23736832)
I1115 05:31:01.078204 55075 net.cpp:139] Memory required for data: 485906436
I1115 05:31:01.078213 55075 layer_factory.hpp:77] Creating layer relu1_2
I1115 05:31:01.078222 55075 net.cpp:86] Creating Layer relu1_2
I1115 05:31:01.078228 55075 net.cpp:408] relu1_2 <- conv1_2
I1115 05:31:01.078235 55075 net.cpp:369] relu1_2 -> conv1_2 (in-place)
I1115 05:31:01.078244 55075 net.cpp:124] Setting up relu1_2
I1115 05:31:01.078251 55075 net.cpp:131] Top shape: 2 64 358 518 (23736832)
I1115 05:31:01.078258 55075 net.cpp:139] Memory required for data: 580853764
I1115 05:31:01.078263 55075 layer_factory.hpp:77] Creating layer pool1
I1115 05:31:01.078271 55075 net.cpp:86] Creating Layer pool1
I1115 05:31:01.078277 55075 net.cpp:408] pool1 <- conv1_2
I1115 05:31:01.078284 55075 net.cpp:382] pool1 -> pool1
I1115 05:31:01.078351 55075 net.cpp:124] Setting up pool1
I1115 05:31:01.078361 55075 net.cpp:131] Top shape: 2 64 179 259 (5934208)
I1115 05:31:01.078366 55075 net.cpp:139] Memory required for data: 604590596
I1115 05:31:01.078372 55075 layer_factory.hpp:77] Creating layer conv2_1
I1115 05:31:01.078382 55075 net.cpp:86] Creating Layer conv2_1
I1115 05:31:01.078387 55075 net.cpp:408] conv2_1 <- pool1
I1115 05:31:01.078395 55075 net.cpp:382] conv2_1 -> conv2_1
I1115 05:31:01.078752 55075 net.cpp:124] Setting up conv2_1
I1115 05:31:01.078763 55075 net.cpp:131] Top shape: 2 128 179 259 (11868416)
I1115 05:31:01.078768 55075 net.cpp:139] Memory required for data: 652064260
I1115 05:31:01.078775 55075 layer_factory.hpp:77] Creating layer relu2_1
I1115 05:31:01.078783 55075 net.cpp:86] Creating Layer relu2_1
I1115 05:31:01.078789 55075 net.cpp:408] relu2_1 <- conv2_1
I1115 05:31:01.078796 55075 net.cpp:369] relu2_1 -> conv2_1 (in-place)
I1115 05:31:01.078804 55075 net.cpp:124] Setting up relu2_1
I1115 05:31:01.078810 55075 net.cpp:131] Top shape: 2 128 179 259 (11868416)
I1115 05:31:01.078816 55075 net.cpp:139] Memory required for data: 699537924
I1115 05:31:01.078822 55075 layer_factory.hpp:77] Creating layer conv2_2
I1115 05:31:01.078831 55075 net.cpp:86] Creating Layer conv2_2
I1115 05:31:01.078837 55075 net.cpp:408] conv2_2 <- conv2_1
I1115 05:31:01.078845 55075 net.cpp:382] conv2_2 -> conv2_2
I1115 05:31:01.079222 55075 net.cpp:124] Setting up conv2_2
I1115 05:31:01.079232 55075 net.cpp:131] Top shape: 2 128 179 259 (11868416)
I1115 05:31:01.079238 55075 net.cpp:139] Memory required for data: 747011588
I1115 05:31:01.079246 55075 layer_factory.hpp:77] Creating layer relu2_2
I1115 05:31:01.079253 55075 net.cpp:86] Creating Layer relu2_2
I1115 05:31:01.079259 55075 net.cpp:408] relu2_2 <- conv2_2
I1115 05:31:01.079267 55075 net.cpp:369] relu2_2 -> conv2_2 (in-place)
I1115 05:31:01.079273 55075 net.cpp:124] Setting up relu2_2
I1115 05:31:01.079280 55075 net.cpp:131] Top shape: 2 128 179 259 (11868416)
I1115 05:31:01.079286 55075 net.cpp:139] Memory required for data: 794485252
I1115 05:31:01.079293 55075 layer_factory.hpp:77] Creating layer pool2
I1115 05:31:01.079299 55075 net.cpp:86] Creating Layer pool2
I1115 05:31:01.079309 55075 net.cpp:408] pool2 <- conv2_2
I1115 05:31:01.079318 55075 net.cpp:382] pool2 -> pool2
I1115 05:31:01.079370 55075 net.cpp:124] Setting up pool2
I1115 05:31:01.079378 55075 net.cpp:131] Top shape: 2 128 90 130 (2995200)
I1115 05:31:01.079383 55075 net.cpp:139] Memory required for data: 806466052
I1115 05:31:01.079389 55075 layer_factory.hpp:77] Creating layer conv3_1
I1115 05:31:01.079398 55075 net.cpp:86] Creating Layer conv3_1
I1115 05:31:01.079406 55075 net.cpp:408] conv3_1 <- pool2
I1115 05:31:01.079413 55075 net.cpp:382] conv3_1 -> conv3_1
I1115 05:31:01.086807 55075 net.cpp:124] Setting up conv3_1
I1115 05:31:01.086824 55075 net.cpp:131] Top shape: 2 256 90 130 (5990400)
I1115 05:31:01.086830 55075 net.cpp:139] Memory required for data: 830427652
I1115 05:31:01.086839 55075 layer_factory.hpp:77] Creating layer relu3_1
I1115 05:31:01.086848 55075 net.cpp:86] Creating Layer relu3_1
I1115 05:31:01.086854 55075 net.cpp:408] relu3_1 <- conv3_1
I1115 05:31:01.086863 55075 net.cpp:369] relu3_1 -> conv3_1 (in-place)
I1115 05:31:01.086871 55075 net.cpp:124] Setting up relu3_1
I1115 05:31:01.086879 55075 net.cpp:131] Top shape: 2 256 90 130 (5990400)
I1115 05:31:01.086884 55075 net.cpp:139] Memory required for data: 854389252
I1115 05:31:01.086890 55075 layer_factory.hpp:77] Creating layer conv3_2
I1115 05:31:01.086899 55075 net.cpp:86] Creating Layer conv3_2
I1115 05:31:01.086905 55075 net.cpp:408] conv3_2 <- conv3_1
I1115 05:31:01.086915 55075 net.cpp:382] conv3_2 -> conv3_2
I1115 05:31:01.089149 55075 net.cpp:124] Setting up conv3_2
I1115 05:31:01.089165 55075 net.cpp:131] Top shape: 2 256 90 130 (5990400)
I1115 05:31:01.089171 55075 net.cpp:139] Memory required for data: 878350852
I1115 05:31:01.089180 55075 layer_factory.hpp:77] Creating layer relu3_2
I1115 05:31:01.089190 55075 net.cpp:86] Creating Layer relu3_2
I1115 05:31:01.089195 55075 net.cpp:408] relu3_2 <- conv3_2
I1115 05:31:01.089203 55075 net.cpp:369] relu3_2 -> conv3_2 (in-place)
I1115 05:31:01.089212 55075 net.cpp:124] Setting up relu3_2
I1115 05:31:01.089220 55075 net.cpp:131] Top shape: 2 256 90 130 (5990400)
I1115 05:31:01.089224 55075 net.cpp:139] Memory required for data: 902312452
I1115 05:31:01.089231 55075 layer_factory.hpp:77] Creating layer conv3_3
I1115 05:31:01.089241 55075 net.cpp:86] Creating Layer conv3_3
I1115 05:31:01.089246 55075 net.cpp:408] conv3_3 <- conv3_2
I1115 05:31:01.089253 55075 net.cpp:382] conv3_3 -> conv3_3
I1115 05:31:01.091570 55075 net.cpp:124] Setting up conv3_3
I1115 05:31:01.091586 55075 net.cpp:131] Top shape: 2 256 90 130 (5990400)
I1115 05:31:01.091593 55075 net.cpp:139] Memory required for data: 926274052
I1115 05:31:01.091601 55075 layer_factory.hpp:77] Creating layer relu3_3
I1115 05:31:01.091610 55075 net.cpp:86] Creating Layer relu3_3
I1115 05:31:01.091617 55075 net.cpp:408] relu3_3 <- conv3_3
I1115 05:31:01.091640 55075 net.cpp:369] relu3_3 -> conv3_3 (in-place)
I1115 05:31:01.091650 55075 net.cpp:124] Setting up relu3_3
I1115 05:31:01.091656 55075 net.cpp:131] Top shape: 2 256 90 130 (5990400)
I1115 05:31:01.091662 55075 net.cpp:139] Memory required for data: 950235652
I1115 05:31:01.091668 55075 layer_factory.hpp:77] Creating layer pool3
I1115 05:31:01.091677 55075 net.cpp:86] Creating Layer pool3
I1115 05:31:01.091684 55075 net.cpp:408] pool3 <- conv3_3
I1115 05:31:01.091691 55075 net.cpp:382] pool3 -> pool3
I1115 05:31:01.091739 55075 net.cpp:124] Setting up pool3
I1115 05:31:01.091747 55075 net.cpp:131] Top shape: 2 256 45 65 (1497600)
I1115 05:31:01.091753 55075 net.cpp:139] Memory required for data: 956226052
I1115 05:31:01.091759 55075 layer_factory.hpp:77] Creating layer pool3_pool3_0_split
I1115 05:31:01.091768 55075 net.cpp:86] Creating Layer pool3_pool3_0_split
I1115 05:31:01.091773 55075 net.cpp:408] pool3_pool3_0_split <- pool3
I1115 05:31:01.091780 55075 net.cpp:382] pool3_pool3_0_split -> pool3_pool3_0_split_0
I1115 05:31:01.091789 55075 net.cpp:382] pool3_pool3_0_split -> pool3_pool3_0_split_1
I1115 05:31:01.091827 55075 net.cpp:124] Setting up pool3_pool3_0_split
I1115 05:31:01.091840 55075 net.cpp:131] Top shape: 2 256 45 65 (1497600)
I1115 05:31:01.091846 55075 net.cpp:131] Top shape: 2 256 45 65 (1497600)
I1115 05:31:01.091851 55075 net.cpp:139] Memory required for data: 968206852
I1115 05:31:01.091857 55075 layer_factory.hpp:77] Creating layer conv4_1
I1115 05:31:01.091866 55075 net.cpp:86] Creating Layer conv4_1
I1115 05:31:01.091873 55075 net.cpp:408] conv4_1 <- pool3_pool3_0_split_0
I1115 05:31:01.091881 55075 net.cpp:382] conv4_1 -> conv4_1
I1115 05:31:01.095531 55075 net.cpp:124] Setting up conv4_1
I1115 05:31:01.095547 55075 net.cpp:131] Top shape: 2 512 45 65 (2995200)
I1115 05:31:01.095553 55075 net.cpp:139] Memory required for data: 980187652
I1115 05:31:01.095562 55075 layer_factory.hpp:77] Creating layer relu4_1
I1115 05:31:01.095571 55075 net.cpp:86] Creating Layer relu4_1
I1115 05:31:01.095577 55075 net.cpp:408] relu4_1 <- conv4_1
I1115 05:31:01.095584 55075 net.cpp:369] relu4_1 -> conv4_1 (in-place)
I1115 05:31:01.095593 55075 net.cpp:124] Setting up relu4_1
I1115 05:31:01.095600 55075 net.cpp:131] Top shape: 2 512 45 65 (2995200)
I1115 05:31:01.095607 55075 net.cpp:139] Memory required for data: 992168452
I1115 05:31:01.095613 55075 layer_factory.hpp:77] Creating layer conv4_2
I1115 05:31:01.095621 55075 net.cpp:86] Creating Layer conv4_2
I1115 05:31:01.095628 55075 net.cpp:408] conv4_2 <- conv4_1
I1115 05:31:01.095636 55075 net.cpp:382] conv4_2 -> conv4_2
I1115 05:31:01.102002 55075 net.cpp:124] Setting up conv4_2
I1115 05:31:01.102020 55075 net.cpp:131] Top shape: 2 512 45 65 (2995200)
I1115 05:31:01.102025 55075 net.cpp:139] Memory required for data: 1004149252
I1115 05:31:01.102035 55075 layer_factory.hpp:77] Creating layer relu4_2
I1115 05:31:01.102043 55075 net.cpp:86] Creating Layer relu4_2
I1115 05:31:01.102051 55075 net.cpp:408] relu4_2 <- conv4_2
I1115 05:31:01.102058 55075 net.cpp:369] relu4_2 -> conv4_2 (in-place)
I1115 05:31:01.102067 55075 net.cpp:124] Setting up relu4_2
I1115 05:31:01.102074 55075 net.cpp:131] Top shape: 2 512 45 65 (2995200)
I1115 05:31:01.102080 55075 net.cpp:139] Memory required for data: 1016130052
I1115 05:31:01.102087 55075 layer_factory.hpp:77] Creating layer conv4_3
I1115 05:31:01.102097 55075 net.cpp:86] Creating Layer conv4_3
I1115 05:31:01.102102 55075 net.cpp:408] conv4_3 <- conv4_2
I1115 05:31:01.102110 55075 net.cpp:382] conv4_3 -> conv4_3
I1115 05:31:01.110102 55075 net.cpp:124] Setting up conv4_3
I1115 05:31:01.110121 55075 net.cpp:131] Top shape: 2 512 45 65 (2995200)
I1115 05:31:01.110126 55075 net.cpp:139] Memory required for data: 1028110852
I1115 05:31:01.110136 55075 layer_factory.hpp:77] Creating layer relu4_3
I1115 05:31:01.110146 55075 net.cpp:86] Creating Layer relu4_3
I1115 05:31:01.110152 55075 net.cpp:408] relu4_3 <- conv4_3
I1115 05:31:01.110160 55075 net.cpp:369] relu4_3 -> conv4_3 (in-place)
I1115 05:31:01.110169 55075 net.cpp:124] Setting up relu4_3
I1115 05:31:01.110177 55075 net.cpp:131] Top shape: 2 512 45 65 (2995200)
I1115 05:31:01.110183 55075 net.cpp:139] Memory required for data: 1040091652
I1115 05:31:01.110189 55075 layer_factory.hpp:77] Creating layer pool4
I1115 05:31:01.110198 55075 net.cpp:86] Creating Layer pool4
I1115 05:31:01.110204 55075 net.cpp:408] pool4 <- conv4_3
I1115 05:31:01.110213 55075 net.cpp:382] pool4 -> pool4
I1115 05:31:01.110263 55075 net.cpp:124] Setting up pool4
I1115 05:31:01.110272 55075 net.cpp:131] Top shape: 2 512 23 33 (777216)
I1115 05:31:01.110277 55075 net.cpp:139] Memory required for data: 1043200516
I1115 05:31:01.110283 55075 layer_factory.hpp:77] Creating layer pool4_pool4_0_split
I1115 05:31:01.110292 55075 net.cpp:86] Creating Layer pool4_pool4_0_split
I1115 05:31:01.110298 55075 net.cpp:408] pool4_pool4_0_split <- pool4
I1115 05:31:01.110306 55075 net.cpp:382] pool4_pool4_0_split -> pool4_pool4_0_split_0
I1115 05:31:01.110316 55075 net.cpp:382] pool4_pool4_0_split -> pool4_pool4_0_split_1
I1115 05:31:01.110383 55075 net.cpp:124] Setting up pool4_pool4_0_split
I1115 05:31:01.110391 55075 net.cpp:131] Top shape: 2 512 23 33 (777216)
I1115 05:31:01.110402 55075 net.cpp:131] Top shape: 2 512 23 33 (777216)
I1115 05:31:01.110409 55075 net.cpp:139] Memory required for data: 1049418244
I1115 05:31:01.110414 55075 layer_factory.hpp:77] Creating layer conv5_1
I1115 05:31:01.110425 55075 net.cpp:86] Creating Layer conv5_1
I1115 05:31:01.110432 55075 net.cpp:408] conv5_1 <- pool4_pool4_0_split_0
I1115 05:31:01.110440 55075 net.cpp:382] conv5_1 -> conv5_1
I1115 05:31:01.116874 55075 net.cpp:124] Setting up conv5_1
I1115 05:31:01.116891 55075 net.cpp:131] Top shape: 2 512 23 33 (777216)
I1115 05:31:01.116897 55075 net.cpp:139] Memory required for data: 1052527108
I1115 05:31:01.116906 55075 layer_factory.hpp:77] Creating layer relu5_1
I1115 05:31:01.116914 55075 net.cpp:86] Creating Layer relu5_1
I1115 05:31:01.116921 55075 net.cpp:408] relu5_1 <- conv5_1
I1115 05:31:01.116930 55075 net.cpp:369] relu5_1 -> conv5_1 (in-place)
I1115 05:31:01.116938 55075 net.cpp:124] Setting up relu5_1
I1115 05:31:01.116945 55075 net.cpp:131] Top shape: 2 512 23 33 (777216)
I1115 05:31:01.116951 55075 net.cpp:139] Memory required for data: 1055635972
I1115 05:31:01.116957 55075 layer_factory.hpp:77] Creating layer conv5_2
I1115 05:31:01.116967 55075 net.cpp:86] Creating Layer conv5_2
I1115 05:31:01.116973 55075 net.cpp:408] conv5_2 <- conv5_1
I1115 05:31:01.116981 55075 net.cpp:382] conv5_2 -> conv5_2
I1115 05:31:01.123416 55075 net.cpp:124] Setting up conv5_2
I1115 05:31:01.123437 55075 net.cpp:131] Top shape: 2 512 23 33 (777216)
I1115 05:31:01.123443 55075 net.cpp:139] Memory required for data: 1058744836
I1115 05:31:01.123453 55075 layer_factory.hpp:77] Creating layer relu5_2
I1115 05:31:01.123463 55075 net.cpp:86] Creating Layer relu5_2
I1115 05:31:01.123471 55075 net.cpp:408] relu5_2 <- conv5_2
I1115 05:31:01.123479 55075 net.cpp:369] relu5_2 -> conv5_2 (in-place)
I1115 05:31:01.123488 55075 net.cpp:124] Setting up relu5_2
I1115 05:31:01.123497 55075 net.cpp:131] Top shape: 2 512 23 33 (777216)
I1115 05:31:01.123502 55075 net.cpp:139] Memory required for data: 1061853700
I1115 05:31:01.123508 55075 layer_factory.hpp:77] Creating layer conv5_3
I1115 05:31:01.123518 55075 net.cpp:86] Creating Layer conv5_3
I1115 05:31:01.123524 55075 net.cpp:408] conv5_3 <- conv5_2
I1115 05:31:01.123533 55075 net.cpp:382] conv5_3 -> conv5_3
I1115 05:31:01.131822 55075 net.cpp:124] Setting up conv5_3
I1115 05:31:01.131850 55075 net.cpp:131] Top shape: 2 512 23 33 (777216)
I1115 05:31:01.131855 55075 net.cpp:139] Memory required for data: 1064962564
I1115 05:31:01.131865 55075 layer_factory.hpp:77] Creating layer relu5_3
I1115 05:31:01.131876 55075 net.cpp:86] Creating Layer relu5_3
I1115 05:31:01.131883 55075 net.cpp:408] relu5_3 <- conv5_3
I1115 05:31:01.131892 55075 net.cpp:369] relu5_3 -> conv5_3 (in-place)
I1115 05:31:01.131902 55075 net.cpp:124] Setting up relu5_3
I1115 05:31:01.131909 55075 net.cpp:131] Top shape: 2 512 23 33 (777216)
I1115 05:31:01.131916 55075 net.cpp:139] Memory required for data: 1068071428
I1115 05:31:01.131920 55075 layer_factory.hpp:77] Creating layer pool5
I1115 05:31:01.131929 55075 net.cpp:86] Creating Layer pool5
I1115 05:31:01.131935 55075 net.cpp:408] pool5 <- conv5_3
I1115 05:31:01.131944 55075 net.cpp:382] pool5 -> pool5
I1115 05:31:01.131997 55075 net.cpp:124] Setting up pool5
I1115 05:31:01.132006 55075 net.cpp:131] Top shape: 2 512 12 17 (208896)
I1115 05:31:01.132011 55075 net.cpp:139] Memory required for data: 1068907012
I1115 05:31:01.132017 55075 layer_factory.hpp:77] Creating layer fc6
I1115 05:31:01.132028 55075 net.cpp:86] Creating Layer fc6
I1115 05:31:01.132035 55075 net.cpp:408] fc6 <- pool5
I1115 05:31:01.132042 55075 net.cpp:382] fc6 -> fc6
I1115 05:31:01.458340 55075 net.cpp:124] Setting up fc6
I1115 05:31:01.458400 55075 net.cpp:131] Top shape: 2 4096 6 11 (540672)
I1115 05:31:01.458405 55075 net.cpp:139] Memory required for data: 1071069700
I1115 05:31:01.458420 55075 layer_factory.hpp:77] Creating layer relu6
I1115 05:31:01.458436 55075 net.cpp:86] Creating Layer relu6
I1115 05:31:01.458444 55075 net.cpp:408] relu6 <- fc6
I1115 05:31:01.458467 55075 net.cpp:369] relu6 -> fc6 (in-place)
I1115 05:31:01.458482 55075 net.cpp:124] Setting up relu6
I1115 05:31:01.458489 55075 net.cpp:131] Top shape: 2 4096 6 11 (540672)
I1115 05:31:01.458495 55075 net.cpp:139] Memory required for data: 1073232388
I1115 05:31:01.458501 55075 layer_factory.hpp:77] Creating layer fc7
I1115 05:31:01.458515 55075 net.cpp:86] Creating Layer fc7
I1115 05:31:01.458523 55075 net.cpp:408] fc7 <- fc6
I1115 05:31:01.458530 55075 net.cpp:382] fc7 -> fc7
I1115 05:31:01.507437 55075 net.cpp:124] Setting up fc7
I1115 05:31:01.507493 55075 net.cpp:131] Top shape: 2 4096 6 11 (540672)
I1115 05:31:01.507498 55075 net.cpp:139] Memory required for data: 1075395076
I1115 05:31:01.507513 55075 layer_factory.hpp:77] Creating layer relu7
I1115 05:31:01.507529 55075 net.cpp:86] Creating Layer relu7
I1115 05:31:01.507536 55075 net.cpp:408] relu7 <- fc7
I1115 05:31:01.507549 55075 net.cpp:369] relu7 -> fc7 (in-place)
I1115 05:31:01.507561 55075 net.cpp:124] Setting up relu7
I1115 05:31:01.507570 55075 net.cpp:131] Top shape: 2 4096 6 11 (540672)
I1115 05:31:01.507575 55075 net.cpp:139] Memory required for data: 1077557764
I1115 05:31:01.507581 55075 layer_factory.hpp:77] Creating layer score_fr
I1115 05:31:01.507596 55075 net.cpp:86] Creating Layer score_fr
I1115 05:31:01.507602 55075 net.cpp:408] score_fr <- fc7
I1115 05:31:01.507611 55075 net.cpp:382] score_fr -> score_fr
I1115 05:31:01.508069 55075 net.cpp:124] Setting up score_fr
I1115 05:31:01.508081 55075 net.cpp:131] Top shape: 2 19 6 11 (2508)
I1115 05:31:01.508087 55075 net.cpp:139] Memory required for data: 1077567796
I1115 05:31:01.508096 55075 layer_factory.hpp:77] Creating layer upscore2
I1115 05:31:01.508108 55075 net.cpp:86] Creating Layer upscore2
I1115 05:31:01.508114 55075 net.cpp:408] upscore2 <- score_fr
I1115 05:31:01.508123 55075 net.cpp:382] upscore2 -> upscore2
I1115 05:31:01.508374 55075 net.cpp:124] Setting up upscore2
I1115 05:31:01.508383 55075 net.cpp:131] Top shape: 2 19 14 24 (12768)
I1115 05:31:01.508389 55075 net.cpp:139] Memory required for data: 1077618868
I1115 05:31:01.508396 55075 layer_factory.hpp:77] Creating layer upscore2_upscore2_0_split
I1115 05:31:01.508405 55075 net.cpp:86] Creating Layer upscore2_upscore2_0_split
I1115 05:31:01.508411 55075 net.cpp:408] upscore2_upscore2_0_split <- upscore2
I1115 05:31:01.508419 55075 net.cpp:382] upscore2_upscore2_0_split -> upscore2_upscore2_0_split_0
I1115 05:31:01.508428 55075 net.cpp:382] upscore2_upscore2_0_split -> upscore2_upscore2_0_split_1
I1115 05:31:01.508473 55075 net.cpp:124] Setting up upscore2_upscore2_0_split
I1115 05:31:01.508482 55075 net.cpp:131] Top shape: 2 19 14 24 (12768)
I1115 05:31:01.508488 55075 net.cpp:131] Top shape: 2 19 14 24 (12768)
I1115 05:31:01.508494 55075 net.cpp:139] Memory required for data: 1077721012
I1115 05:31:01.508500 55075 layer_factory.hpp:77] Creating layer score_pool4
I1115 05:31:01.508510 55075 net.cpp:86] Creating Layer score_pool4
I1115 05:31:01.508517 55075 net.cpp:408] score_pool4 <- pool4_pool4_0_split_1
I1115 05:31:01.508525 55075 net.cpp:382] score_pool4 -> score_pool4
I1115 05:31:01.508828 55075 net.cpp:124] Setting up score_pool4
I1115 05:31:01.508838 55075 net.cpp:131] Top shape: 2 19 23 33 (28842)
I1115 05:31:01.508844 55075 net.cpp:139] Memory required for data: 1077836380
I1115 05:31:01.508852 55075 layer_factory.hpp:77] Creating layer score_pool4c
I1115 05:31:01.508875 55075 net.cpp:86] Creating Layer score_pool4c
I1115 05:31:01.508882 55075 net.cpp:408] score_pool4c <- score_pool4
I1115 05:31:01.508888 55075 net.cpp:408] score_pool4c <- upscore2_upscore2_0_split_0
I1115 05:31:01.508896 55075 net.cpp:382] score_pool4c -> score_pool4c
I1115 05:31:01.509028 55075 net.cpp:124] Setting up score_pool4c
I1115 05:31:01.509037 55075 net.cpp:131] Top shape: 2 19 14 24 (12768)
I1115 05:31:01.509043 55075 net.cpp:139] Memory required for data: 1077887452
I1115 05:31:01.509049 55075 layer_factory.hpp:77] Creating layer fuse_pool4
I1115 05:31:01.509059 55075 net.cpp:86] Creating Layer fuse_pool4
I1115 05:31:01.509065 55075 net.cpp:408] fuse_pool4 <- upscore2_upscore2_0_split_1
I1115 05:31:01.509081 55075 net.cpp:408] fuse_pool4 <- score_pool4c
I1115 05:31:01.509090 55075 net.cpp:382] fuse_pool4 -> fuse_pool4
I1115 05:31:01.509120 55075 net.cpp:124] Setting up fuse_pool4
I1115 05:31:01.509129 55075 net.cpp:131] Top shape: 2 19 14 24 (12768)
I1115 05:31:01.509135 55075 net.cpp:139] Memory required for data: 1077938524
I1115 05:31:01.509140 55075 layer_factory.hpp:77] Creating layer upscore_pool4
I1115 05:31:01.509150 55075 net.cpp:86] Creating Layer upscore_pool4
I1115 05:31:01.509156 55075 net.cpp:408] upscore_pool4 <- fuse_pool4
I1115 05:31:01.509163 55075 net.cpp:382] upscore_pool4 -> upscore_pool4
I1115 05:31:01.509402 55075 net.cpp:124] Setting up upscore_pool4
I1115 05:31:01.509411 55075 net.cpp:131] Top shape: 2 19 30 50 (57000)
I1115 05:31:01.509416 55075 net.cpp:139] Memory required for data: 1078166524
I1115 05:31:01.509424 55075 layer_factory.hpp:77] Creating layer upscore_pool4_upscore_pool4_0_split
I1115 05:31:01.509431 55075 net.cpp:86] Creating Layer upscore_pool4_upscore_pool4_0_split
I1115 05:31:01.509438 55075 net.cpp:408] upscore_pool4_upscore_pool4_0_split <- upscore_pool4
I1115 05:31:01.509445 55075 net.cpp:382] upscore_pool4_upscore_pool4_0_split -> upscore_pool4_upscore_pool4_0_split_0
I1115 05:31:01.509454 55075 net.cpp:382] upscore_pool4_upscore_pool4_0_split -> upscore_pool4_upscore_pool4_0_split_1
I1115 05:31:01.509497 55075 net.cpp:124] Setting up upscore_pool4_upscore_pool4_0_split
I1115 05:31:01.509505 55075 net.cpp:131] Top shape: 2 19 30 50 (57000)
I1115 05:31:01.509512 55075 net.cpp:131] Top shape: 2 19 30 50 (57000)
I1115 05:31:01.509517 55075 net.cpp:139] Memory required for data: 1078622524
I1115 05:31:01.509523 55075 layer_factory.hpp:77] Creating layer score_pool3
I1115 05:31:01.509533 55075 net.cpp:86] Creating Layer score_pool3
I1115 05:31:01.509539 55075 net.cpp:408] score_pool3 <- pool3_pool3_0_split_1
I1115 05:31:01.509547 55075 net.cpp:382] score_pool3 -> score_pool3
I1115 05:31:01.509860 55075 net.cpp:124] Setting up score_pool3
I1115 05:31:01.509869 55075 net.cpp:131] Top shape: 2 19 45 65 (111150)
I1115 05:31:01.509874 55075 net.cpp:139] Memory required for data: 1079067124
I1115 05:31:01.509883 55075 layer_factory.hpp:77] Creating layer score_pool3c
I1115 05:31:01.509893 55075 net.cpp:86] Creating Layer score_pool3c
I1115 05:31:01.509899 55075 net.cpp:408] score_pool3c <- score_pool3
I1115 05:31:01.509907 55075 net.cpp:408] score_pool3c <- upscore_pool4_upscore_pool4_0_split_0
I1115 05:31:01.509914 55075 net.cpp:382] score_pool3c -> score_pool3c
I1115 05:31:01.510040 55075 net.cpp:124] Setting up score_pool3c
I1115 05:31:01.510047 55075 net.cpp:131] Top shape: 2 19 30 50 (57000)
I1115 05:31:01.510053 55075 net.cpp:139] Memory required for data: 1079295124
I1115 05:31:01.510059 55075 layer_factory.hpp:77] Creating layer fuse_pool3
I1115 05:31:01.510067 55075 net.cpp:86] Creating Layer fuse_pool3
I1115 05:31:01.510073 55075 net.cpp:408] fuse_pool3 <- upscore_pool4_upscore_pool4_0_split_1
I1115 05:31:01.510080 55075 net.cpp:408] fuse_pool3 <- score_pool3c
I1115 05:31:01.510088 55075 net.cpp:382] fuse_pool3 -> fuse_pool3
I1115 05:31:01.510116 55075 net.cpp:124] Setting up fuse_pool3
I1115 05:31:01.510124 55075 net.cpp:131] Top shape: 2 19 30 50 (57000)
I1115 05:31:01.510129 55075 net.cpp:139] Memory required for data: 1079523124
I1115 05:31:01.510135 55075 layer_factory.hpp:77] Creating layer upscore8
I1115 05:31:01.510145 55075 net.cpp:86] Creating Layer upscore8
I1115 05:31:01.510151 55075 net.cpp:408] upscore8 <- fuse_pool3
I1115 05:31:01.510159 55075 net.cpp:382] upscore8 -> upscore8
I1115 05:31:01.510483 55075 net.cpp:124] Setting up upscore8
I1115 05:31:01.510493 55075 net.cpp:131] Top shape: 2 19 248 408 (3844992)
I1115 05:31:01.510499 55075 net.cpp:139] Memory required for data: 1094903092
I1115 05:31:01.510505 55075 layer_factory.hpp:77] Creating layer score
I1115 05:31:01.510514 55075 net.cpp:86] Creating Layer score
I1115 05:31:01.510520 55075 net.cpp:408] score <- upscore8
I1115 05:31:01.510532 55075 net.cpp:408] score <- data_data_0_split_1
I1115 05:31:01.510540 55075 net.cpp:382] score -> score
I1115 05:31:01.510654 55075 net.cpp:124] Setting up score
I1115 05:31:01.510663 55075 net.cpp:131] Top shape: 2 19 160 320 (1945600)
I1115 05:31:01.510668 55075 net.cpp:139] Memory required for data: 1102685492
I1115 05:31:01.510674 55075 layer_factory.hpp:77] Creating layer loss
I1115 05:31:01.510690 55075 net.cpp:86] Creating Layer loss
I1115 05:31:01.510697 55075 net.cpp:408] loss <- score
I1115 05:31:01.510704 55075 net.cpp:408] loss <- fakelabel
I1115 05:31:01.510712 55075 net.cpp:382] loss -> loss
I1115 05:31:01.510728 55075 layer_factory.hpp:77] Creating layer loss
…
